node {
  name: "Train/Model/LSTM/Input/inputs"
  op: "Placeholder"
  attr {
    key: "_output_shapes"
    value {
      list {
        shape {
          dim {
            size: 2688
          }
          dim {
            size: 50
          }
          dim {
            size: 104
          }
        }
      }
    }
  }
  attr {
    key: "dtype"
    value {
      type: DT_HALF
    }
  }
  attr {
    key: "shape"
    value {
      shape {
        dim {
          size: 2688
        }
        dim {
          size: 50
        }
        dim {
          size: 104
        }
      }
    }
  }
}
node {
  name: "Train/Model/LSTM/Input/labels"
  op: "Placeholder"
  attr {
    key: "_output_shapes"
    value {
      list {
        shape {
          dim {
            size: 2688
          }
          dim {
            size: 50
          }
          dim {
            size: 104
          }
        }
      }
    }
  }
  attr {
    key: "dtype"
    value {
      type: DT_HALF
    }
  }
  attr {
    key: "shape"
    value {
      shape {
        dim {
          size: 2688
        }
        dim {
          size: 50
        }
        dim {
          size: 104
        }
      }
    }
  }
}
node {
  name: "Train/Model/LSTM/stack"
  op: "Const"
  attr {
    key: "_output_shapes"
    value {
      list {
        shape {
          dim {
            size: 2
          }
        }
      }
    }
  }
  attr {
    key: "dtype"
    value {
      type: DT_INT32
    }
  }
  attr {
    key: "value"
    value {
      tensor {
        dtype: DT_INT32
        tensor_shape {
          dim {
            size: 2
          }
        }
        tensor_content: "\200\n\000\000\200\000\000\000"
      }
    }
  }
}
node {
  name: "Train/Model/LSTM/zeros/Const"
  op: "Const"
  attr {
    key: "_output_shapes"
    value {
      list {
        shape {
        }
      }
    }
  }
  attr {
    key: "dtype"
    value {
      type: DT_HALF
    }
  }
  attr {
    key: "value"
    value {
      tensor {
        dtype: DT_HALF
        tensor_shape {
        }
        half_val: 0
      }
    }
  }
}
node {
  name: "Train/Model/LSTM/zeros"
  op: "Fill"
  input: "Train/Model/LSTM/stack"
  input: "Train/Model/LSTM/zeros/Const"
  attr {
    key: "T"
    value {
      type: DT_HALF
    }
  }
  attr {
    key: "_output_shapes"
    value {
      list {
        shape {
          dim {
            size: 2688
          }
          dim {
            size: 128
          }
        }
      }
    }
  }
}
node {
  name: "Train/Model/LSTM/stack_1"
  op: "Const"
  attr {
    key: "_output_shapes"
    value {
      list {
        shape {
          dim {
            size: 2
          }
        }
      }
    }
  }
  attr {
    key: "dtype"
    value {
      type: DT_INT32
    }
  }
  attr {
    key: "value"
    value {
      tensor {
        dtype: DT_INT32
        tensor_shape {
          dim {
            size: 2
          }
        }
        tensor_content: "\200\n\000\000\200\000\000\000"
      }
    }
  }
}
node {
  name: "Train/Model/LSTM/zeros_1/Const"
  op: "Const"
  attr {
    key: "_output_shapes"
    value {
      list {
        shape {
        }
      }
    }
  }
  attr {
    key: "dtype"
    value {
      type: DT_HALF
    }
  }
  attr {
    key: "value"
    value {
      tensor {
        dtype: DT_HALF
        tensor_shape {
        }
        half_val: 0
      }
    }
  }
}
node {
  name: "Train/Model/LSTM/zeros_1"
  op: "Fill"
  input: "Train/Model/LSTM/stack_1"
  input: "Train/Model/LSTM/zeros_1/Const"
  attr {
    key: "T"
    value {
      type: DT_HALF
    }
  }
  attr {
    key: "_output_shapes"
    value {
      list {
        shape {
          dim {
            size: 2688
          }
          dim {
            size: 128
          }
        }
      }
    }
  }
}
node {
  name: "Train/Model/LSTM/stack_2"
  op: "Const"
  attr {
    key: "_output_shapes"
    value {
      list {
        shape {
          dim {
            size: 2
          }
        }
      }
    }
  }
  attr {
    key: "dtype"
    value {
      type: DT_INT32
    }
  }
  attr {
    key: "value"
    value {
      tensor {
        dtype: DT_INT32
        tensor_shape {
          dim {
            size: 2
          }
        }
        tensor_content: "\200\n\000\000\200\000\000\000"
      }
    }
  }
}
node {
  name: "Train/Model/LSTM/zeros_2/Const"
  op: "Const"
  attr {
    key: "_output_shapes"
    value {
      list {
        shape {
        }
      }
    }
  }
  attr {
    key: "dtype"
    value {
      type: DT_HALF
    }
  }
  attr {
    key: "value"
    value {
      tensor {
        dtype: DT_HALF
        tensor_shape {
        }
        half_val: 0
      }
    }
  }
}
node {
  name: "Train/Model/LSTM/zeros_2"
  op: "Fill"
  input: "Train/Model/LSTM/stack_2"
  input: "Train/Model/LSTM/zeros_2/Const"
  attr {
    key: "T"
    value {
      type: DT_HALF
    }
  }
  attr {
    key: "_output_shapes"
    value {
      list {
        shape {
          dim {
            size: 2688
          }
          dim {
            size: 128
          }
        }
      }
    }
  }
}
node {
  name: "Train/Model/LSTM/stack_3"
  op: "Const"
  attr {
    key: "_output_shapes"
    value {
      list {
        shape {
          dim {
            size: 2
          }
        }
      }
    }
  }
  attr {
    key: "dtype"
    value {
      type: DT_INT32
    }
  }
  attr {
    key: "value"
    value {
      tensor {
        dtype: DT_INT32
        tensor_shape {
          dim {
            size: 2
          }
        }
        tensor_content: "\200\n\000\000\200\000\000\000"
      }
    }
  }
}
node {
  name: "Train/Model/LSTM/zeros_3/Const"
  op: "Const"
  attr {
    key: "_output_shapes"
    value {
      list {
        shape {
        }
      }
    }
  }
  attr {
    key: "dtype"
    value {
      type: DT_HALF
    }
  }
  attr {
    key: "value"
    value {
      tensor {
        dtype: DT_HALF
        tensor_shape {
        }
        half_val: 0
      }
    }
  }
}
node {
  name: "Train/Model/LSTM/zeros_3"
  op: "Fill"
  input: "Train/Model/LSTM/stack_3"
  input: "Train/Model/LSTM/zeros_3/Const"
  attr {
    key: "T"
    value {
      type: DT_HALF
    }
  }
  attr {
    key: "_output_shapes"
    value {
      list {
        shape {
          dim {
            size: 2688
          }
          dim {
            size: 128
          }
        }
      }
    }
  }
}
node {
  name: "Train/Model/LSTM/transpose/perm"
  op: "Const"
  attr {
    key: "_output_shapes"
    value {
      list {
        shape {
          dim {
            size: 3
          }
        }
      }
    }
  }
  attr {
    key: "dtype"
    value {
      type: DT_INT32
    }
  }
  attr {
    key: "value"
    value {
      tensor {
        dtype: DT_INT32
        tensor_shape {
          dim {
            size: 3
          }
        }
        tensor_content: "\001\000\000\000\000\000\000\000\002\000\000\000"
      }
    }
  }
}
node {
  name: "Train/Model/LSTM/transpose"
  op: "Transpose"
  input: "Train/Model/LSTM/Input/inputs"
  input: "Train/Model/LSTM/transpose/perm"
  attr {
    key: "T"
    value {
      type: DT_HALF
    }
  }
  attr {
    key: "Tperm"
    value {
      type: DT_INT32
    }
  }
  attr {
    key: "_output_shapes"
    value {
      list {
        shape {
          dim {
            size: 50
          }
          dim {
            size: 2688
          }
          dim {
            size: 104
          }
        }
      }
    }
  }
}
node {
  name: "Train/Model/LSTM/rnn/Shape"
  op: "Const"
  attr {
    key: "_output_shapes"
    value {
      list {
        shape {
          dim {
            size: 3
          }
        }
      }
    }
  }
  attr {
    key: "dtype"
    value {
      type: DT_INT32
    }
  }
  attr {
    key: "value"
    value {
      tensor {
        dtype: DT_INT32
        tensor_shape {
          dim {
            size: 3
          }
        }
        tensor_content: "2\000\000\000\200\n\000\000h\000\000\000"
      }
    }
  }
}
node {
  name: "Train/Model/LSTM/rnn/strided_slice/stack"
  op: "Const"
  attr {
    key: "_output_shapes"
    value {
      list {
        shape {
          dim {
            size: 1
          }
        }
      }
    }
  }
  attr {
    key: "dtype"
    value {
      type: DT_INT32
    }
  }
  attr {
    key: "value"
    value {
      tensor {
        dtype: DT_INT32
        tensor_shape {
          dim {
            size: 1
          }
        }
        int_val: 1
      }
    }
  }
}
node {
  name: "Train/Model/LSTM/rnn/strided_slice/stack_1"
  op: "Const"
  attr {
    key: "_output_shapes"
    value {
      list {
        shape {
          dim {
            size: 1
          }
        }
      }
    }
  }
  attr {
    key: "dtype"
    value {
      type: DT_INT32
    }
  }
  attr {
    key: "value"
    value {
      tensor {
        dtype: DT_INT32
        tensor_shape {
          dim {
            size: 1
          }
        }
        int_val: 2
      }
    }
  }
}
node {
  name: "Train/Model/LSTM/rnn/strided_slice/stack_2"
  op: "Const"
  attr {
    key: "_output_shapes"
    value {
      list {
        shape {
          dim {
            size: 1
          }
        }
      }
    }
  }
  attr {
    key: "dtype"
    value {
      type: DT_INT32
    }
  }
  attr {
    key: "value"
    value {
      tensor {
        dtype: DT_INT32
        tensor_shape {
          dim {
            size: 1
          }
        }
        int_val: 1
      }
    }
  }
}
node {
  name: "Train/Model/LSTM/rnn/strided_slice"
  op: "StridedSlice"
  input: "Train/Model/LSTM/rnn/Shape"
  input: "Train/Model/LSTM/rnn/strided_slice/stack"
  input: "Train/Model/LSTM/rnn/strided_slice/stack_1"
  input: "Train/Model/LSTM/rnn/strided_slice/stack_2"
  attr {
    key: "Index"
    value {
      type: DT_INT32
    }
  }
  attr {
    key: "T"
    value {
      type: DT_INT32
    }
  }
  attr {
    key: "_output_shapes"
    value {
      list {
        shape {
        }
      }
    }
  }
  attr {
    key: "begin_mask"
    value {
      i: 0
    }
  }
  attr {
    key: "ellipsis_mask"
    value {
      i: 0
    }
  }
  attr {
    key: "end_mask"
    value {
      i: 0
    }
  }
  attr {
    key: "new_axis_mask"
    value {
      i: 0
    }
  }
  attr {
    key: "shrink_axis_mask"
    value {
      i: 1
    }
  }
}
node {
  name: "Train/Model/LSTM/rnn/strided_slice_1/stack"
  op: "Const"
  attr {
    key: "_output_shapes"
    value {
      list {
        shape {
          dim {
            size: 1
          }
        }
      }
    }
  }
  attr {
    key: "dtype"
    value {
      type: DT_INT32
    }
  }
  attr {
    key: "value"
    value {
      tensor {
        dtype: DT_INT32
        tensor_shape {
          dim {
            size: 1
          }
        }
        int_val: 1
      }
    }
  }
}
node {
  name: "Train/Model/LSTM/rnn/strided_slice_1/stack_1"
  op: "Const"
  attr {
    key: "_output_shapes"
    value {
      list {
        shape {
          dim {
            size: 1
          }
        }
      }
    }
  }
  attr {
    key: "dtype"
    value {
      type: DT_INT32
    }
  }
  attr {
    key: "value"
    value {
      tensor {
        dtype: DT_INT32
        tensor_shape {
          dim {
            size: 1
          }
        }
        int_val: 2
      }
    }
  }
}
node {
  name: "Train/Model/LSTM/rnn/strided_slice_1/stack_2"
  op: "Const"
  attr {
    key: "_output_shapes"
    value {
      list {
        shape {
          dim {
            size: 1
          }
        }
      }
    }
  }
  attr {
    key: "dtype"
    value {
      type: DT_INT32
    }
  }
  attr {
    key: "value"
    value {
      tensor {
        dtype: DT_INT32
        tensor_shape {
          dim {
            size: 1
          }
        }
        int_val: 1
      }
    }
  }
}
node {
  name: "Train/Model/LSTM/rnn/strided_slice_1"
  op: "StridedSlice"
  input: "Train/Model/LSTM/rnn/Shape"
  input: "Train/Model/LSTM/rnn/strided_slice_1/stack"
  input: "Train/Model/LSTM/rnn/strided_slice_1/stack_1"
  input: "Train/Model/LSTM/rnn/strided_slice_1/stack_2"
  attr {
    key: "Index"
    value {
      type: DT_INT32
    }
  }
  attr {
    key: "T"
    value {
      type: DT_INT32
    }
  }
  attr {
    key: "_output_shapes"
    value {
      list {
        shape {
        }
      }
    }
  }
  attr {
    key: "begin_mask"
    value {
      i: 0
    }
  }
  attr {
    key: "ellipsis_mask"
    value {
      i: 0
    }
  }
  attr {
    key: "end_mask"
    value {
      i: 0
    }
  }
  attr {
    key: "new_axis_mask"
    value {
      i: 0
    }
  }
  attr {
    key: "shrink_axis_mask"
    value {
      i: 1
    }
  }
}
node {
  name: "Train/Model/LSTM/rnn/Shape_1"
  op: "Const"
  attr {
    key: "_output_shapes"
    value {
      list {
        shape {
          dim {
            size: 3
          }
        }
      }
    }
  }
  attr {
    key: "dtype"
    value {
      type: DT_INT32
    }
  }
  attr {
    key: "value"
    value {
      tensor {
        dtype: DT_INT32
        tensor_shape {
          dim {
            size: 3
          }
        }
        tensor_content: "2\000\000\000\200\n\000\000h\000\000\000"
      }
    }
  }
}
node {
  name: "Train/Model/LSTM/rnn/strided_slice_2/stack"
  op: "Const"
  attr {
    key: "_output_shapes"
    value {
      list {
        shape {
          dim {
            size: 1
          }
        }
      }
    }
  }
  attr {
    key: "dtype"
    value {
      type: DT_INT32
    }
  }
  attr {
    key: "value"
    value {
      tensor {
        dtype: DT_INT32
        tensor_shape {
          dim {
            size: 1
          }
        }
        int_val: 0
      }
    }
  }
}
node {
  name: "Train/Model/LSTM/rnn/strided_slice_2/stack_1"
  op: "Const"
  attr {
    key: "_output_shapes"
    value {
      list {
        shape {
          dim {
            size: 1
          }
        }
      }
    }
  }
  attr {
    key: "dtype"
    value {
      type: DT_INT32
    }
  }
  attr {
    key: "value"
    value {
      tensor {
        dtype: DT_INT32
        tensor_shape {
          dim {
            size: 1
          }
        }
        int_val: 1
      }
    }
  }
}
node {
  name: "Train/Model/LSTM/rnn/strided_slice_2/stack_2"
  op: "Const"
  attr {
    key: "_output_shapes"
    value {
      list {
        shape {
          dim {
            size: 1
          }
        }
      }
    }
  }
  attr {
    key: "dtype"
    value {
      type: DT_INT32
    }
  }
  attr {
    key: "value"
    value {
      tensor {
        dtype: DT_INT32
        tensor_shape {
          dim {
            size: 1
          }
        }
        int_val: 1
      }
    }
  }
}
node {
  name: "Train/Model/LSTM/rnn/strided_slice_2"
  op: "StridedSlice"
  input: "Train/Model/LSTM/rnn/Shape_1"
  input: "Train/Model/LSTM/rnn/strided_slice_2/stack"
  input: "Train/Model/LSTM/rnn/strided_slice_2/stack_1"
  input: "Train/Model/LSTM/rnn/strided_slice_2/stack_2"
  attr {
    key: "Index"
    value {
      type: DT_INT32
    }
  }
  attr {
    key: "T"
    value {
      type: DT_INT32
    }
  }
  attr {
    key: "_output_shapes"
    value {
      list {
        shape {
        }
      }
    }
  }
  attr {
    key: "begin_mask"
    value {
      i: 0
    }
  }
  attr {
    key: "ellipsis_mask"
    value {
      i: 0
    }
  }
  attr {
    key: "end_mask"
    value {
      i: 0
    }
  }
  attr {
    key: "new_axis_mask"
    value {
      i: 0
    }
  }
  attr {
    key: "shrink_axis_mask"
    value {
      i: 1
    }
  }
}
node {
  name: "Train/Model/LSTM/rnn/strided_slice_3/stack"
  op: "Const"
  attr {
    key: "_output_shapes"
    value {
      list {
        shape {
          dim {
            size: 1
          }
        }
      }
    }
  }
  attr {
    key: "dtype"
    value {
      type: DT_INT32
    }
  }
  attr {
    key: "value"
    value {
      tensor {
        dtype: DT_INT32
        tensor_shape {
          dim {
            size: 1
          }
        }
        int_val: 1
      }
    }
  }
}
node {
  name: "Train/Model/LSTM/rnn/strided_slice_3/stack_1"
  op: "Const"
  attr {
    key: "_output_shapes"
    value {
      list {
        shape {
          dim {
            size: 1
          }
        }
      }
    }
  }
  attr {
    key: "dtype"
    value {
      type: DT_INT32
    }
  }
  attr {
    key: "value"
    value {
      tensor {
        dtype: DT_INT32
        tensor_shape {
          dim {
            size: 1
          }
        }
        int_val: 2
      }
    }
  }
}
node {
  name: "Train/Model/LSTM/rnn/strided_slice_3/stack_2"
  op: "Const"
  attr {
    key: "_output_shapes"
    value {
      list {
        shape {
          dim {
            size: 1
          }
        }
      }
    }
  }
  attr {
    key: "dtype"
    value {
      type: DT_INT32
    }
  }
  attr {
    key: "value"
    value {
      tensor {
        dtype: DT_INT32
        tensor_shape {
          dim {
            size: 1
          }
        }
        int_val: 1
      }
    }
  }
}
node {
  name: "Train/Model/LSTM/rnn/strided_slice_3"
  op: "StridedSlice"
  input: "Train/Model/LSTM/rnn/Shape_1"
  input: "Train/Model/LSTM/rnn/strided_slice_3/stack"
  input: "Train/Model/LSTM/rnn/strided_slice_3/stack_1"
  input: "Train/Model/LSTM/rnn/strided_slice_3/stack_2"
  attr {
    key: "Index"
    value {
      type: DT_INT32
    }
  }
  attr {
    key: "T"
    value {
      type: DT_INT32
    }
  }
  attr {
    key: "_output_shapes"
    value {
      list {
        shape {
        }
      }
    }
  }
  attr {
    key: "begin_mask"
    value {
      i: 0
    }
  }
  attr {
    key: "ellipsis_mask"
    value {
      i: 0
    }
  }
  attr {
    key: "end_mask"
    value {
      i: 0
    }
  }
  attr {
    key: "new_axis_mask"
    value {
      i: 0
    }
  }
  attr {
    key: "shrink_axis_mask"
    value {
      i: 1
    }
  }
}
node {
  name: "Train/Model/LSTM/rnn/stack/1"
  op: "Const"
  attr {
    key: "_output_shapes"
    value {
      list {
        shape {
        }
      }
    }
  }
  attr {
    key: "dtype"
    value {
      type: DT_INT32
    }
  }
  attr {
    key: "value"
    value {
      tensor {
        dtype: DT_INT32
        tensor_shape {
        }
        int_val: 128
      }
    }
  }
}
node {
  name: "Train/Model/LSTM/rnn/stack"
  op: "Pack"
  input: "Train/Model/LSTM/rnn/strided_slice_3"
  input: "Train/Model/LSTM/rnn/stack/1"
  attr {
    key: "N"
    value {
      i: 2
    }
  }
  attr {
    key: "T"
    value {
      type: DT_INT32
    }
  }
  attr {
    key: "_output_shapes"
    value {
      list {
        shape {
          dim {
            size: 2
          }
        }
      }
    }
  }
  attr {
    key: "axis"
    value {
      i: 0
    }
  }
}
node {
  name: "Train/Model/LSTM/rnn/zeros/Const"
  op: "Const"
  attr {
    key: "_output_shapes"
    value {
      list {
        shape {
        }
      }
    }
  }
  attr {
    key: "dtype"
    value {
      type: DT_HALF
    }
  }
  attr {
    key: "value"
    value {
      tensor {
        dtype: DT_HALF
        tensor_shape {
        }
        half_val: 0
      }
    }
  }
}
node {
  name: "Train/Model/LSTM/rnn/zeros"
  op: "Fill"
  input: "Train/Model/LSTM/rnn/stack"
  input: "Train/Model/LSTM/rnn/zeros/Const"
  attr {
    key: "T"
    value {
      type: DT_HALF
    }
  }
  attr {
    key: "_output_shapes"
    value {
      list {
        shape {
          dim {
            size: -1
          }
          dim {
            size: 128
          }
        }
      }
    }
  }
}
node {
  name: "Train/Model/LSTM/rnn/time"
  op: "Const"
  attr {
    key: "_output_shapes"
    value {
      list {
        shape {
        }
      }
    }
  }
  attr {
    key: "dtype"
    value {
      type: DT_INT32
    }
  }
  attr {
    key: "value"
    value {
      tensor {
        dtype: DT_INT32
        tensor_shape {
        }
        int_val: 0
      }
    }
  }
}
node {
  name: "Train/Model/LSTM/rnn/TensorArray"
  op: "TensorArrayV3"
  input: "Train/Model/LSTM/rnn/strided_slice_2"
  attr {
    key: "_output_shapes"
    value {
      list {
        shape {
          dim {
            size: 2
          }
        }
        shape {
          unknown_rank: true
        }
      }
    }
  }
  attr {
    key: "clear_after_read"
    value {
      b: true
    }
  }
  attr {
    key: "dtype"
    value {
      type: DT_HALF
    }
  }
  attr {
    key: "dynamic_size"
    value {
      b: false
    }
  }
  attr {
    key: "element_shape"
    value {
      shape {
        unknown_rank: true
      }
    }
  }
  attr {
    key: "tensor_array_name"
    value {
      s: "Train/Model/LSTM/rnn/dynamic_rnn/output_0"
    }
  }
}
node {
  name: "Train/Model/LSTM/rnn/TensorArray_1"
  op: "TensorArrayV3"
  input: "Train/Model/LSTM/rnn/strided_slice_2"
  attr {
    key: "_output_shapes"
    value {
      list {
        shape {
          dim {
            size: 2
          }
        }
        shape {
          unknown_rank: true
        }
      }
    }
  }
  attr {
    key: "clear_after_read"
    value {
      b: true
    }
  }
  attr {
    key: "dtype"
    value {
      type: DT_HALF
    }
  }
  attr {
    key: "dynamic_size"
    value {
      b: false
    }
  }
  attr {
    key: "element_shape"
    value {
      shape {
        unknown_rank: true
      }
    }
  }
  attr {
    key: "tensor_array_name"
    value {
      s: "Train/Model/LSTM/rnn/dynamic_rnn/input_0"
    }
  }
}
node {
  name: "Train/Model/LSTM/rnn/TensorArrayUnstack/Shape"
  op: "Const"
  attr {
    key: "_output_shapes"
    value {
      list {
        shape {
          dim {
            size: 3
          }
        }
      }
    }
  }
  attr {
    key: "dtype"
    value {
      type: DT_INT32
    }
  }
  attr {
    key: "value"
    value {
      tensor {
        dtype: DT_INT32
        tensor_shape {
          dim {
            size: 3
          }
        }
        tensor_content: "2\000\000\000\200\n\000\000h\000\000\000"
      }
    }
  }
}
node {
  name: "Train/Model/LSTM/rnn/TensorArrayUnstack/strided_slice/stack"
  op: "Const"
  attr {
    key: "_output_shapes"
    value {
      list {
        shape {
          dim {
            size: 1
          }
        }
      }
    }
  }
  attr {
    key: "dtype"
    value {
      type: DT_INT32
    }
  }
  attr {
    key: "value"
    value {
      tensor {
        dtype: DT_INT32
        tensor_shape {
          dim {
            size: 1
          }
        }
        int_val: 0
      }
    }
  }
}
node {
  name: "Train/Model/LSTM/rnn/TensorArrayUnstack/strided_slice/stack_1"
  op: "Const"
  attr {
    key: "_output_shapes"
    value {
      list {
        shape {
          dim {
            size: 1
          }
        }
      }
    }
  }
  attr {
    key: "dtype"
    value {
      type: DT_INT32
    }
  }
  attr {
    key: "value"
    value {
      tensor {
        dtype: DT_INT32
        tensor_shape {
          dim {
            size: 1
          }
        }
        int_val: 1
      }
    }
  }
}
node {
  name: "Train/Model/LSTM/rnn/TensorArrayUnstack/strided_slice/stack_2"
  op: "Const"
  attr {
    key: "_output_shapes"
    value {
      list {
        shape {
          dim {
            size: 1
          }
        }
      }
    }
  }
  attr {
    key: "dtype"
    value {
      type: DT_INT32
    }
  }
  attr {
    key: "value"
    value {
      tensor {
        dtype: DT_INT32
        tensor_shape {
          dim {
            size: 1
          }
        }
        int_val: 1
      }
    }
  }
}
node {
  name: "Train/Model/LSTM/rnn/TensorArrayUnstack/strided_slice"
  op: "StridedSlice"
  input: "Train/Model/LSTM/rnn/TensorArrayUnstack/Shape"
  input: "Train/Model/LSTM/rnn/TensorArrayUnstack/strided_slice/stack"
  input: "Train/Model/LSTM/rnn/TensorArrayUnstack/strided_slice/stack_1"
  input: "Train/Model/LSTM/rnn/TensorArrayUnstack/strided_slice/stack_2"
  attr {
    key: "Index"
    value {
      type: DT_INT32
    }
  }
  attr {
    key: "T"
    value {
      type: DT_INT32
    }
  }
  attr {
    key: "_output_shapes"
    value {
      list {
        shape {
        }
      }
    }
  }
  attr {
    key: "begin_mask"
    value {
      i: 0
    }
  }
  attr {
    key: "ellipsis_mask"
    value {
      i: 0
    }
  }
  attr {
    key: "end_mask"
    value {
      i: 0
    }
  }
  attr {
    key: "new_axis_mask"
    value {
      i: 0
    }
  }
  attr {
    key: "shrink_axis_mask"
    value {
      i: 1
    }
  }
}
node {
  name: "Train/Model/LSTM/rnn/TensorArrayUnstack/range/start"
  op: "Const"
  attr {
    key: "_output_shapes"
    value {
      list {
        shape {
        }
      }
    }
  }
  attr {
    key: "dtype"
    value {
      type: DT_INT32
    }
  }
  attr {
    key: "value"
    value {
      tensor {
        dtype: DT_INT32
        tensor_shape {
        }
        int_val: 0
      }
    }
  }
}
node {
  name: "Train/Model/LSTM/rnn/TensorArrayUnstack/range/delta"
  op: "Const"
  attr {
    key: "_output_shapes"
    value {
      list {
        shape {
        }
      }
    }
  }
  attr {
    key: "dtype"
    value {
      type: DT_INT32
    }
  }
  attr {
    key: "value"
    value {
      tensor {
        dtype: DT_INT32
        tensor_shape {
        }
        int_val: 1
      }
    }
  }
}
node {
  name: "Train/Model/LSTM/rnn/TensorArrayUnstack/range"
  op: "Range"
  input: "Train/Model/LSTM/rnn/TensorArrayUnstack/range/start"
  input: "Train/Model/LSTM/rnn/TensorArrayUnstack/strided_slice"
  input: "Train/Model/LSTM/rnn/TensorArrayUnstack/range/delta"
  attr {
    key: "Tidx"
    value {
      type: DT_INT32
    }
  }
  attr {
    key: "_output_shapes"
    value {
      list {
        shape {
          dim {
            size: -1
          }
        }
      }
    }
  }
}
node {
  name: "Train/Model/LSTM/rnn/TensorArrayUnstack/TensorArrayScatter/TensorArrayScatterV3"
  op: "TensorArrayScatterV3"
  input: "Train/Model/LSTM/rnn/TensorArray_1"
  input: "Train/Model/LSTM/rnn/TensorArrayUnstack/range"
  input: "Train/Model/LSTM/transpose"
  input: "Train/Model/LSTM/rnn/TensorArray_1:1"
  attr {
    key: "T"
    value {
      type: DT_HALF
    }
  }
  attr {
    key: "_class"
    value {
      list {
        s: "loc:@Train/Model/LSTM/rnn/TensorArray_1"
      }
    }
  }
  attr {
    key: "_output_shapes"
    value {
      list {
        shape {
        }
      }
    }
  }
}
node {
  name: "Train/Model/LSTM/rnn/while/Enter"
  op: "Enter"
  input: "Train/Model/LSTM/rnn/time"
  attr {
    key: "T"
    value {
      type: DT_INT32
    }
  }
  attr {
    key: "_output_shapes"
    value {
      list {
        shape {
        }
      }
    }
  }
  attr {
    key: "frame_name"
    value {
      s: "Train/Model/LSTM/rnn/while/Train/Model/LSTM/rnn/while/"
    }
  }
  attr {
    key: "is_constant"
    value {
      b: false
    }
  }
  attr {
    key: "parallel_iterations"
    value {
      i: 32
    }
  }
}
node {
  name: "Train/Model/LSTM/rnn/while/Enter_1"
  op: "Enter"
  input: "Train/Model/LSTM/rnn/TensorArray:1"
  attr {
    key: "T"
    value {
      type: DT_FLOAT
    }
  }
  attr {
    key: "_output_shapes"
    value {
      list {
        shape {
          unknown_rank: true
        }
      }
    }
  }
  attr {
    key: "frame_name"
    value {
      s: "Train/Model/LSTM/rnn/while/Train/Model/LSTM/rnn/while/"
    }
  }
  attr {
    key: "is_constant"
    value {
      b: false
    }
  }
  attr {
    key: "parallel_iterations"
    value {
      i: 32
    }
  }
}
node {
  name: "Train/Model/LSTM/rnn/while/Enter_2"
  op: "Enter"
  input: "Train/Model/LSTM/zeros"
  attr {
    key: "T"
    value {
      type: DT_HALF
    }
  }
  attr {
    key: "_output_shapes"
    value {
      list {
        shape {
          dim {
            size: 2688
          }
          dim {
            size: 128
          }
        }
      }
    }
  }
  attr {
    key: "frame_name"
    value {
      s: "Train/Model/LSTM/rnn/while/Train/Model/LSTM/rnn/while/"
    }
  }
  attr {
    key: "is_constant"
    value {
      b: false
    }
  }
  attr {
    key: "parallel_iterations"
    value {
      i: 32
    }
  }
}
node {
  name: "Train/Model/LSTM/rnn/while/Enter_3"
  op: "Enter"
  input: "Train/Model/LSTM/zeros_1"
  attr {
    key: "T"
    value {
      type: DT_HALF
    }
  }
  attr {
    key: "_output_shapes"
    value {
      list {
        shape {
          dim {
            size: 2688
          }
          dim {
            size: 128
          }
        }
      }
    }
  }
  attr {
    key: "frame_name"
    value {
      s: "Train/Model/LSTM/rnn/while/Train/Model/LSTM/rnn/while/"
    }
  }
  attr {
    key: "is_constant"
    value {
      b: false
    }
  }
  attr {
    key: "parallel_iterations"
    value {
      i: 32
    }
  }
}
node {
  name: "Train/Model/LSTM/rnn/while/Enter_4"
  op: "Enter"
  input: "Train/Model/LSTM/zeros_2"
  attr {
    key: "T"
    value {
      type: DT_HALF
    }
  }
  attr {
    key: "_output_shapes"
    value {
      list {
        shape {
          dim {
            size: 2688
          }
          dim {
            size: 128
          }
        }
      }
    }
  }
  attr {
    key: "frame_name"
    value {
      s: "Train/Model/LSTM/rnn/while/Train/Model/LSTM/rnn/while/"
    }
  }
  attr {
    key: "is_constant"
    value {
      b: false
    }
  }
  attr {
    key: "parallel_iterations"
    value {
      i: 32
    }
  }
}
node {
  name: "Train/Model/LSTM/rnn/while/Enter_5"
  op: "Enter"
  input: "Train/Model/LSTM/zeros_3"
  attr {
    key: "T"
    value {
      type: DT_HALF
    }
  }
  attr {
    key: "_output_shapes"
    value {
      list {
        shape {
          dim {
            size: 2688
          }
          dim {
            size: 128
          }
        }
      }
    }
  }
  attr {
    key: "frame_name"
    value {
      s: "Train/Model/LSTM/rnn/while/Train/Model/LSTM/rnn/while/"
    }
  }
  attr {
    key: "is_constant"
    value {
      b: false
    }
  }
  attr {
    key: "parallel_iterations"
    value {
      i: 32
    }
  }
}
node {
  name: "Train/Model/LSTM/rnn/while/Merge"
  op: "Merge"
  input: "Train/Model/LSTM/rnn/while/Enter"
  input: "Train/Model/LSTM/rnn/while/NextIteration"
  attr {
    key: "N"
    value {
      i: 2
    }
  }
  attr {
    key: "T"
    value {
      type: DT_INT32
    }
  }
  attr {
    key: "_output_shapes"
    value {
      list {
        shape {
        }
        shape {
        }
      }
    }
  }
}
node {
  name: "Train/Model/LSTM/rnn/while/Merge_1"
  op: "Merge"
  input: "Train/Model/LSTM/rnn/while/Enter_1"
  input: "Train/Model/LSTM/rnn/while/NextIteration_1"
  attr {
    key: "N"
    value {
      i: 2
    }
  }
  attr {
    key: "T"
    value {
      type: DT_FLOAT
    }
  }
  attr {
    key: "_output_shapes"
    value {
      list {
        shape {
          unknown_rank: true
        }
        shape {
        }
      }
    }
  }
}
node {
  name: "Train/Model/LSTM/rnn/while/Merge_2"
  op: "Merge"
  input: "Train/Model/LSTM/rnn/while/Enter_2"
  input: "Train/Model/LSTM/rnn/while/NextIteration_2"
  attr {
    key: "N"
    value {
      i: 2
    }
  }
  attr {
    key: "T"
    value {
      type: DT_HALF
    }
  }
  attr {
    key: "_output_shapes"
    value {
      list {
        shape {
          dim {
            size: 2688
          }
          dim {
            size: 128
          }
        }
        shape {
        }
      }
    }
  }
}
node {
  name: "Train/Model/LSTM/rnn/while/Merge_3"
  op: "Merge"
  input: "Train/Model/LSTM/rnn/while/Enter_3"
  input: "Train/Model/LSTM/rnn/while/NextIteration_3"
  attr {
    key: "N"
    value {
      i: 2
    }
  }
  attr {
    key: "T"
    value {
      type: DT_HALF
    }
  }
  attr {
    key: "_output_shapes"
    value {
      list {
        shape {
          dim {
            size: 2688
          }
          dim {
            size: 128
          }
        }
        shape {
        }
      }
    }
  }
}
node {
  name: "Train/Model/LSTM/rnn/while/Merge_4"
  op: "Merge"
  input: "Train/Model/LSTM/rnn/while/Enter_4"
  input: "Train/Model/LSTM/rnn/while/NextIteration_4"
  attr {
    key: "N"
    value {
      i: 2
    }
  }
  attr {
    key: "T"
    value {
      type: DT_HALF
    }
  }
  attr {
    key: "_output_shapes"
    value {
      list {
        shape {
          dim {
            size: 2688
          }
          dim {
            size: 128
          }
        }
        shape {
        }
      }
    }
  }
}
node {
  name: "Train/Model/LSTM/rnn/while/Merge_5"
  op: "Merge"
  input: "Train/Model/LSTM/rnn/while/Enter_5"
  input: "Train/Model/LSTM/rnn/while/NextIteration_5"
  attr {
    key: "N"
    value {
      i: 2
    }
  }
  attr {
    key: "T"
    value {
      type: DT_HALF
    }
  }
  attr {
    key: "_output_shapes"
    value {
      list {
        shape {
          dim {
            size: 2688
          }
          dim {
            size: 128
          }
        }
        shape {
        }
      }
    }
  }
}
node {
  name: "Train/Model/LSTM/rnn/while/Less/Enter"
  op: "Enter"
  input: "Train/Model/LSTM/rnn/strided_slice_2"
  attr {
    key: "T"
    value {
      type: DT_INT32
    }
  }
  attr {
    key: "_output_shapes"
    value {
      list {
        shape {
        }
      }
    }
  }
  attr {
    key: "frame_name"
    value {
      s: "Train/Model/LSTM/rnn/while/Train/Model/LSTM/rnn/while/"
    }
  }
  attr {
    key: "is_constant"
    value {
      b: true
    }
  }
  attr {
    key: "parallel_iterations"
    value {
      i: 32
    }
  }
}
node {
  name: "Train/Model/LSTM/rnn/while/Less"
  op: "Less"
  input: "Train/Model/LSTM/rnn/while/Merge"
  input: "Train/Model/LSTM/rnn/while/Less/Enter"
  attr {
    key: "T"
    value {
      type: DT_INT32
    }
  }
  attr {
    key: "_output_shapes"
    value {
      list {
        shape {
        }
      }
    }
  }
}
node {
  name: "Train/Model/LSTM/rnn/while/LoopCond"
  op: "LoopCond"
  input: "Train/Model/LSTM/rnn/while/Less"
  attr {
    key: "_output_shapes"
    value {
      list {
        shape {
        }
      }
    }
  }
}
node {
  name: "Train/Model/LSTM/rnn/while/Switch"
  op: "Switch"
  input: "Train/Model/LSTM/rnn/while/Merge"
  input: "Train/Model/LSTM/rnn/while/LoopCond"
  attr {
    key: "T"
    value {
      type: DT_INT32
    }
  }
  attr {
    key: "_class"
    value {
      list {
        s: "loc:@Train/Model/LSTM/rnn/while/Merge"
      }
    }
  }
  attr {
    key: "_output_shapes"
    value {
      list {
        shape {
        }
        shape {
        }
      }
    }
  }
}
node {
  name: "Train/Model/LSTM/rnn/while/Switch_1"
  op: "Switch"
  input: "Train/Model/LSTM/rnn/while/Merge_1"
  input: "Train/Model/LSTM/rnn/while/LoopCond"
  attr {
    key: "T"
    value {
      type: DT_FLOAT
    }
  }
  attr {
    key: "_class"
    value {
      list {
        s: "loc:@Train/Model/LSTM/rnn/while/Merge_1"
      }
    }
  }
  attr {
    key: "_output_shapes"
    value {
      list {
        shape {
          unknown_rank: true
        }
        shape {
          unknown_rank: true
        }
      }
    }
  }
}
node {
  name: "Train/Model/LSTM/rnn/while/Switch_2"
  op: "Switch"
  input: "Train/Model/LSTM/rnn/while/Merge_2"
  input: "Train/Model/LSTM/rnn/while/LoopCond"
  attr {
    key: "T"
    value {
      type: DT_HALF
    }
  }
  attr {
    key: "_class"
    value {
      list {
        s: "loc:@Train/Model/LSTM/rnn/while/Merge_2"
      }
    }
  }
  attr {
    key: "_output_shapes"
    value {
      list {
        shape {
          dim {
            size: 2688
          }
          dim {
            size: 128
          }
        }
        shape {
          dim {
            size: 2688
          }
          dim {
            size: 128
          }
        }
      }
    }
  }
}
node {
  name: "Train/Model/LSTM/rnn/while/Switch_3"
  op: "Switch"
  input: "Train/Model/LSTM/rnn/while/Merge_3"
  input: "Train/Model/LSTM/rnn/while/LoopCond"
  attr {
    key: "T"
    value {
      type: DT_HALF
    }
  }
  attr {
    key: "_class"
    value {
      list {
        s: "loc:@Train/Model/LSTM/rnn/while/Merge_3"
      }
    }
  }
  attr {
    key: "_output_shapes"
    value {
      list {
        shape {
          dim {
            size: 2688
          }
          dim {
            size: 128
          }
        }
        shape {
          dim {
            size: 2688
          }
          dim {
            size: 128
          }
        }
      }
    }
  }
}
node {
  name: "Train/Model/LSTM/rnn/while/Switch_4"
  op: "Switch"
  input: "Train/Model/LSTM/rnn/while/Merge_4"
  input: "Train/Model/LSTM/rnn/while/LoopCond"
  attr {
    key: "T"
    value {
      type: DT_HALF
    }
  }
  attr {
    key: "_class"
    value {
      list {
        s: "loc:@Train/Model/LSTM/rnn/while/Merge_4"
      }
    }
  }
  attr {
    key: "_output_shapes"
    value {
      list {
        shape {
          dim {
            size: 2688
          }
          dim {
            size: 128
          }
        }
        shape {
          dim {
            size: 2688
          }
          dim {
            size: 128
          }
        }
      }
    }
  }
}
node {
  name: "Train/Model/LSTM/rnn/while/Switch_5"
  op: "Switch"
  input: "Train/Model/LSTM/rnn/while/Merge_5"
  input: "Train/Model/LSTM/rnn/while/LoopCond"
  attr {
    key: "T"
    value {
      type: DT_HALF
    }
  }
  attr {
    key: "_class"
    value {
      list {
        s: "loc:@Train/Model/LSTM/rnn/while/Merge_5"
      }
    }
  }
  attr {
    key: "_output_shapes"
    value {
      list {
        shape {
          dim {
            size: 2688
          }
          dim {
            size: 128
          }
        }
        shape {
          dim {
            size: 2688
          }
          dim {
            size: 128
          }
        }
      }
    }
  }
}
node {
  name: "Train/Model/LSTM/rnn/while/Identity"
  op: "Identity"
  input: "Train/Model/LSTM/rnn/while/Switch:1"
  attr {
    key: "T"
    value {
      type: DT_INT32
    }
  }
  attr {
    key: "_output_shapes"
    value {
      list {
        shape {
        }
      }
    }
  }
}
node {
  name: "Train/Model/LSTM/rnn/while/Identity_1"
  op: "Identity"
  input: "Train/Model/LSTM/rnn/while/Switch_1:1"
  attr {
    key: "T"
    value {
      type: DT_FLOAT
    }
  }
  attr {
    key: "_output_shapes"
    value {
      list {
        shape {
          unknown_rank: true
        }
      }
    }
  }
}
node {
  name: "Train/Model/LSTM/rnn/while/Identity_2"
  op: "Identity"
  input: "Train/Model/LSTM/rnn/while/Switch_2:1"
  attr {
    key: "T"
    value {
      type: DT_HALF
    }
  }
  attr {
    key: "_output_shapes"
    value {
      list {
        shape {
          dim {
            size: 2688
          }
          dim {
            size: 128
          }
        }
      }
    }
  }
}
node {
  name: "Train/Model/LSTM/rnn/while/Identity_3"
  op: "Identity"
  input: "Train/Model/LSTM/rnn/while/Switch_3:1"
  attr {
    key: "T"
    value {
      type: DT_HALF
    }
  }
  attr {
    key: "_output_shapes"
    value {
      list {
        shape {
          dim {
            size: 2688
          }
          dim {
            size: 128
          }
        }
      }
    }
  }
}
node {
  name: "Train/Model/LSTM/rnn/while/Identity_4"
  op: "Identity"
  input: "Train/Model/LSTM/rnn/while/Switch_4:1"
  attr {
    key: "T"
    value {
      type: DT_HALF
    }
  }
  attr {
    key: "_output_shapes"
    value {
      list {
        shape {
          dim {
            size: 2688
          }
          dim {
            size: 128
          }
        }
      }
    }
  }
}
node {
  name: "Train/Model/LSTM/rnn/while/Identity_5"
  op: "Identity"
  input: "Train/Model/LSTM/rnn/while/Switch_5:1"
  attr {
    key: "T"
    value {
      type: DT_HALF
    }
  }
  attr {
    key: "_output_shapes"
    value {
      list {
        shape {
          dim {
            size: 2688
          }
          dim {
            size: 128
          }
        }
      }
    }
  }
}
node {
  name: "Train/Model/LSTM/rnn/while/TensorArrayReadV3/Enter"
  op: "Enter"
  input: "Train/Model/LSTM/rnn/TensorArray_1"
  attr {
    key: "T"
    value {
      type: DT_RESOURCE
    }
  }
  attr {
    key: "_class"
    value {
      list {
        s: "loc:@Train/Model/LSTM/rnn/TensorArray_1"
      }
    }
  }
  attr {
    key: "_output_shapes"
    value {
      list {
        shape {
          dim {
            size: 2
          }
        }
      }
    }
  }
  attr {
    key: "frame_name"
    value {
      s: "Train/Model/LSTM/rnn/while/Train/Model/LSTM/rnn/while/"
    }
  }
  attr {
    key: "is_constant"
    value {
      b: true
    }
  }
  attr {
    key: "parallel_iterations"
    value {
      i: 32
    }
  }
}
node {
  name: "Train/Model/LSTM/rnn/while/TensorArrayReadV3/Enter_1"
  op: "Enter"
  input: "Train/Model/LSTM/rnn/TensorArrayUnstack/TensorArrayScatter/TensorArrayScatterV3"
  attr {
    key: "T"
    value {
      type: DT_FLOAT
    }
  }
  attr {
    key: "_class"
    value {
      list {
        s: "loc:@Train/Model/LSTM/rnn/TensorArray_1"
      }
    }
  }
  attr {
    key: "_output_shapes"
    value {
      list {
        shape {
        }
      }
    }
  }
  attr {
    key: "frame_name"
    value {
      s: "Train/Model/LSTM/rnn/while/Train/Model/LSTM/rnn/while/"
    }
  }
  attr {
    key: "is_constant"
    value {
      b: true
    }
  }
  attr {
    key: "parallel_iterations"
    value {
      i: 32
    }
  }
}
node {
  name: "Train/Model/LSTM/rnn/while/TensorArrayReadV3"
  op: "TensorArrayReadV3"
  input: "Train/Model/LSTM/rnn/while/TensorArrayReadV3/Enter"
  input: "Train/Model/LSTM/rnn/while/Identity"
  input: "Train/Model/LSTM/rnn/while/TensorArrayReadV3/Enter_1"
  attr {
    key: "_class"
    value {
      list {
        s: "loc:@Train/Model/LSTM/rnn/TensorArray_1"
      }
    }
  }
  attr {
    key: "_output_shapes"
    value {
      list {
        shape {
          dim {
            size: 2688
          }
          dim {
            size: 104
          }
        }
      }
    }
  }
  attr {
    key: "dtype"
    value {
      type: DT_HALF
    }
  }
}
node {
  name: "Model/LSTM/rnn/multi_rnn_cell/cell_0/basic_lstm_cell/weights/Initializer/truncated_normal/shape"
  op: "Const"
  attr {
    key: "_class"
    value {
      list {
        s: "loc:@Model/LSTM/rnn/multi_rnn_cell/cell_0/basic_lstm_cell/weights"
      }
    }
  }
  attr {
    key: "_output_shapes"
    value {
      list {
        shape {
          dim {
            size: 2
          }
        }
      }
    }
  }
  attr {
    key: "dtype"
    value {
      type: DT_INT32
    }
  }
  attr {
    key: "value"
    value {
      tensor {
        dtype: DT_INT32
        tensor_shape {
          dim {
            size: 2
          }
        }
        tensor_content: "\350\000\000\000\000\002\000\000"
      }
    }
  }
}
node {
  name: "Model/LSTM/rnn/multi_rnn_cell/cell_0/basic_lstm_cell/weights/Initializer/truncated_normal/mean"
  op: "Const"
  attr {
    key: "_class"
    value {
      list {
        s: "loc:@Model/LSTM/rnn/multi_rnn_cell/cell_0/basic_lstm_cell/weights"
      }
    }
  }
  attr {
    key: "_output_shapes"
    value {
      list {
        shape {
        }
      }
    }
  }
  attr {
    key: "dtype"
    value {
      type: DT_HALF
    }
  }
  attr {
    key: "value"
    value {
      tensor {
        dtype: DT_HALF
        tensor_shape {
        }
        half_val: 0
      }
    }
  }
}
node {
  name: "Model/LSTM/rnn/multi_rnn_cell/cell_0/basic_lstm_cell/weights/Initializer/truncated_normal/stddev"
  op: "Const"
  attr {
    key: "_class"
    value {
      list {
        s: "loc:@Model/LSTM/rnn/multi_rnn_cell/cell_0/basic_lstm_cell/weights"
      }
    }
  }
  attr {
    key: "_output_shapes"
    value {
      list {
        shape {
        }
      }
    }
  }
  attr {
    key: "dtype"
    value {
      type: DT_HALF
    }
  }
  attr {
    key: "value"
    value {
      tensor {
        dtype: DT_HALF
        tensor_shape {
        }
        half_val: 12400
      }
    }
  }
}
node {
  name: "Model/LSTM/rnn/multi_rnn_cell/cell_0/basic_lstm_cell/weights/Initializer/truncated_normal/TruncatedNormal"
  op: "TruncatedNormal"
  input: "Model/LSTM/rnn/multi_rnn_cell/cell_0/basic_lstm_cell/weights/Initializer/truncated_normal/shape"
  attr {
    key: "T"
    value {
      type: DT_INT32
    }
  }
  attr {
    key: "_class"
    value {
      list {
        s: "loc:@Model/LSTM/rnn/multi_rnn_cell/cell_0/basic_lstm_cell/weights"
      }
    }
  }
  attr {
    key: "_output_shapes"
    value {
      list {
        shape {
          dim {
            size: 232
          }
          dim {
            size: 512
          }
        }
      }
    }
  }
  attr {
    key: "dtype"
    value {
      type: DT_HALF
    }
  }
  attr {
    key: "seed"
    value {
      i: 0
    }
  }
  attr {
    key: "seed2"
    value {
      i: 0
    }
  }
}
node {
  name: "Model/LSTM/rnn/multi_rnn_cell/cell_0/basic_lstm_cell/weights/Initializer/truncated_normal/mul"
  op: "Mul"
  input: "Model/LSTM/rnn/multi_rnn_cell/cell_0/basic_lstm_cell/weights/Initializer/truncated_normal/TruncatedNormal"
  input: "Model/LSTM/rnn/multi_rnn_cell/cell_0/basic_lstm_cell/weights/Initializer/truncated_normal/stddev"
  attr {
    key: "T"
    value {
      type: DT_HALF
    }
  }
  attr {
    key: "_class"
    value {
      list {
        s: "loc:@Model/LSTM/rnn/multi_rnn_cell/cell_0/basic_lstm_cell/weights"
      }
    }
  }
  attr {
    key: "_output_shapes"
    value {
      list {
        shape {
          dim {
            size: 232
          }
          dim {
            size: 512
          }
        }
      }
    }
  }
}
node {
  name: "Model/LSTM/rnn/multi_rnn_cell/cell_0/basic_lstm_cell/weights/Initializer/truncated_normal"
  op: "Add"
  input: "Model/LSTM/rnn/multi_rnn_cell/cell_0/basic_lstm_cell/weights/Initializer/truncated_normal/mul"
  input: "Model/LSTM/rnn/multi_rnn_cell/cell_0/basic_lstm_cell/weights/Initializer/truncated_normal/mean"
  attr {
    key: "T"
    value {
      type: DT_HALF
    }
  }
  attr {
    key: "_class"
    value {
      list {
        s: "loc:@Model/LSTM/rnn/multi_rnn_cell/cell_0/basic_lstm_cell/weights"
      }
    }
  }
  attr {
    key: "_output_shapes"
    value {
      list {
        shape {
          dim {
            size: 232
          }
          dim {
            size: 512
          }
        }
      }
    }
  }
}
node {
  name: "Model/LSTM/rnn/multi_rnn_cell/cell_0/basic_lstm_cell/weights"
  op: "VariableV2"
  attr {
    key: "_class"
    value {
      list {
        s: "loc:@Model/LSTM/rnn/multi_rnn_cell/cell_0/basic_lstm_cell/weights"
      }
    }
  }
  attr {
    key: "_output_shapes"
    value {
      list {
        shape {
          dim {
            size: 232
          }
          dim {
            size: 512
          }
        }
      }
    }
  }
  attr {
    key: "container"
    value {
      s: ""
    }
  }
  attr {
    key: "dtype"
    value {
      type: DT_HALF
    }
  }
  attr {
    key: "shape"
    value {
      shape {
        dim {
          size: 232
        }
        dim {
          size: 512
        }
      }
    }
  }
  attr {
    key: "shared_name"
    value {
      s: ""
    }
  }
}
node {
  name: "Model/LSTM/rnn/multi_rnn_cell/cell_0/basic_lstm_cell/weights/Assign"
  op: "Assign"
  input: "Model/LSTM/rnn/multi_rnn_cell/cell_0/basic_lstm_cell/weights"
  input: "Model/LSTM/rnn/multi_rnn_cell/cell_0/basic_lstm_cell/weights/Initializer/truncated_normal"
  attr {
    key: "T"
    value {
      type: DT_HALF
    }
  }
  attr {
    key: "_class"
    value {
      list {
        s: "loc:@Model/LSTM/rnn/multi_rnn_cell/cell_0/basic_lstm_cell/weights"
      }
    }
  }
  attr {
    key: "_output_shapes"
    value {
      list {
        shape {
          dim {
            size: 232
          }
          dim {
            size: 512
          }
        }
      }
    }
  }
  attr {
    key: "use_locking"
    value {
      b: true
    }
  }
  attr {
    key: "validate_shape"
    value {
      b: true
    }
  }
}
node {
  name: "Model/LSTM/rnn/multi_rnn_cell/cell_0/basic_lstm_cell/weights/read"
  op: "Identity"
  input: "Model/LSTM/rnn/multi_rnn_cell/cell_0/basic_lstm_cell/weights"
  attr {
    key: "T"
    value {
      type: DT_HALF
    }
  }
  attr {
    key: "_output_shapes"
    value {
      list {
        shape {
          dim {
            size: 232
          }
          dim {
            size: 512
          }
        }
      }
    }
  }
}
node {
  name: "Train/Model/LSTM/rnn/while/multi_rnn_cell/cell_0/basic_lstm_cell/basic_lstm_cell/concat/axis"
  op: "Const"
  input: "^Train/Model/LSTM/rnn/while/Identity"
  attr {
    key: "_output_shapes"
    value {
      list {
        shape {
        }
      }
    }
  }
  attr {
    key: "dtype"
    value {
      type: DT_INT32
    }
  }
  attr {
    key: "value"
    value {
      tensor {
        dtype: DT_INT32
        tensor_shape {
        }
        int_val: 1
      }
    }
  }
}
node {
  name: "Train/Model/LSTM/rnn/while/multi_rnn_cell/cell_0/basic_lstm_cell/basic_lstm_cell/concat"
  op: "ConcatV2"
  input: "Train/Model/LSTM/rnn/while/TensorArrayReadV3"
  input: "Train/Model/LSTM/rnn/while/Identity_3"
  input: "Train/Model/LSTM/rnn/while/multi_rnn_cell/cell_0/basic_lstm_cell/basic_lstm_cell/concat/axis"
  attr {
    key: "N"
    value {
      i: 2
    }
  }
  attr {
    key: "T"
    value {
      type: DT_HALF
    }
  }
  attr {
    key: "Tidx"
    value {
      type: DT_INT32
    }
  }
  attr {
    key: "_output_shapes"
    value {
      list {
        shape {
          dim {
            size: 2688
          }
          dim {
            size: 232
          }
        }
      }
    }
  }
}
node {
  name: "Train/Model/LSTM/rnn/while/multi_rnn_cell/cell_0/basic_lstm_cell/basic_lstm_cell/MatMul/Enter"
  op: "Enter"
  input: "Model/LSTM/rnn/multi_rnn_cell/cell_0/basic_lstm_cell/weights/read"
  attr {
    key: "T"
    value {
      type: DT_HALF
    }
  }
  attr {
    key: "_output_shapes"
    value {
      list {
        shape {
          dim {
            size: 232
          }
          dim {
            size: 512
          }
        }
      }
    }
  }
  attr {
    key: "frame_name"
    value {
      s: "Train/Model/LSTM/rnn/while/Train/Model/LSTM/rnn/while/"
    }
  }
  attr {
    key: "is_constant"
    value {
      b: true
    }
  }
  attr {
    key: "parallel_iterations"
    value {
      i: 32
    }
  }
}
node {
  name: "Train/Model/LSTM/rnn/while/multi_rnn_cell/cell_0/basic_lstm_cell/basic_lstm_cell/MatMul"
  op: "MatMul"
  input: "Train/Model/LSTM/rnn/while/multi_rnn_cell/cell_0/basic_lstm_cell/basic_lstm_cell/concat"
  input: "Train/Model/LSTM/rnn/while/multi_rnn_cell/cell_0/basic_lstm_cell/basic_lstm_cell/MatMul/Enter"
  attr {
    key: "T"
    value {
      type: DT_HALF
    }
  }
  attr {
    key: "_output_shapes"
    value {
      list {
        shape {
          dim {
            size: 2688
          }
          dim {
            size: 512
          }
        }
      }
    }
  }
  attr {
    key: "transpose_a"
    value {
      b: false
    }
  }
  attr {
    key: "transpose_b"
    value {
      b: false
    }
  }
}
node {
  name: "Model/LSTM/rnn/multi_rnn_cell/cell_0/basic_lstm_cell/biases/Initializer/Const"
  op: "Const"
  attr {
    key: "_class"
    value {
      list {
        s: "loc:@Model/LSTM/rnn/multi_rnn_cell/cell_0/basic_lstm_cell/biases"
      }
    }
  }
  attr {
    key: "_output_shapes"
    value {
      list {
        shape {
          dim {
            size: 512
          }
        }
      }
    }
  }
  attr {
    key: "dtype"
    value {
      type: DT_HALF
    }
  }
  attr {
    key: "value"
    value {
      tensor {
        dtype: DT_HALF
        tensor_shape {
          dim {
            size: 512
          }
        }
        half_val: 0
      }
    }
  }
}
node {
  name: "Model/LSTM/rnn/multi_rnn_cell/cell_0/basic_lstm_cell/biases"
  op: "VariableV2"
  attr {
    key: "_class"
    value {
      list {
        s: "loc:@Model/LSTM/rnn/multi_rnn_cell/cell_0/basic_lstm_cell/biases"
      }
    }
  }
  attr {
    key: "_output_shapes"
    value {
      list {
        shape {
          dim {
            size: 512
          }
        }
      }
    }
  }
  attr {
    key: "container"
    value {
      s: ""
    }
  }
  attr {
    key: "dtype"
    value {
      type: DT_HALF
    }
  }
  attr {
    key: "shape"
    value {
      shape {
        dim {
          size: 512
        }
      }
    }
  }
  attr {
    key: "shared_name"
    value {
      s: ""
    }
  }
}
node {
  name: "Model/LSTM/rnn/multi_rnn_cell/cell_0/basic_lstm_cell/biases/Assign"
  op: "Assign"
  input: "Model/LSTM/rnn/multi_rnn_cell/cell_0/basic_lstm_cell/biases"
  input: "Model/LSTM/rnn/multi_rnn_cell/cell_0/basic_lstm_cell/biases/Initializer/Const"
  attr {
    key: "T"
    value {
      type: DT_HALF
    }
  }
  attr {
    key: "_class"
    value {
      list {
        s: "loc:@Model/LSTM/rnn/multi_rnn_cell/cell_0/basic_lstm_cell/biases"
      }
    }
  }
  attr {
    key: "_output_shapes"
    value {
      list {
        shape {
          dim {
            size: 512
          }
        }
      }
    }
  }
  attr {
    key: "use_locking"
    value {
      b: true
    }
  }
  attr {
    key: "validate_shape"
    value {
      b: true
    }
  }
}
node {
  name: "Model/LSTM/rnn/multi_rnn_cell/cell_0/basic_lstm_cell/biases/read"
  op: "Identity"
  input: "Model/LSTM/rnn/multi_rnn_cell/cell_0/basic_lstm_cell/biases"
  attr {
    key: "T"
    value {
      type: DT_HALF
    }
  }
  attr {
    key: "_output_shapes"
    value {
      list {
        shape {
          dim {
            size: 512
          }
        }
      }
    }
  }
}
node {
  name: "Train/Model/LSTM/rnn/while/multi_rnn_cell/cell_0/basic_lstm_cell/BiasAdd/Enter"
  op: "Enter"
  input: "Model/LSTM/rnn/multi_rnn_cell/cell_0/basic_lstm_cell/biases/read"
  attr {
    key: "T"
    value {
      type: DT_HALF
    }
  }
  attr {
    key: "_output_shapes"
    value {
      list {
        shape {
          dim {
            size: 512
          }
        }
      }
    }
  }
  attr {
    key: "frame_name"
    value {
      s: "Train/Model/LSTM/rnn/while/Train/Model/LSTM/rnn/while/"
    }
  }
  attr {
    key: "is_constant"
    value {
      b: true
    }
  }
  attr {
    key: "parallel_iterations"
    value {
      i: 32
    }
  }
}
node {
  name: "Train/Model/LSTM/rnn/while/multi_rnn_cell/cell_0/basic_lstm_cell/BiasAdd"
  op: "BiasAdd"
  input: "Train/Model/LSTM/rnn/while/multi_rnn_cell/cell_0/basic_lstm_cell/basic_lstm_cell/MatMul"
  input: "Train/Model/LSTM/rnn/while/multi_rnn_cell/cell_0/basic_lstm_cell/BiasAdd/Enter"
  attr {
    key: "T"
    value {
      type: DT_HALF
    }
  }
  attr {
    key: "_output_shapes"
    value {
      list {
        shape {
          dim {
            size: 2688
          }
          dim {
            size: 512
          }
        }
      }
    }
  }
  attr {
    key: "data_format"
    value {
      s: "NHWC"
    }
  }
}
node {
  name: "Train/Model/LSTM/rnn/while/multi_rnn_cell/cell_0/basic_lstm_cell/split/split_dim"
  op: "Const"
  input: "^Train/Model/LSTM/rnn/while/Identity"
  attr {
    key: "_output_shapes"
    value {
      list {
        shape {
        }
      }
    }
  }
  attr {
    key: "dtype"
    value {
      type: DT_INT32
    }
  }
  attr {
    key: "value"
    value {
      tensor {
        dtype: DT_INT32
        tensor_shape {
        }
        int_val: 1
      }
    }
  }
}
node {
  name: "Train/Model/LSTM/rnn/while/multi_rnn_cell/cell_0/basic_lstm_cell/split"
  op: "Split"
  input: "Train/Model/LSTM/rnn/while/multi_rnn_cell/cell_0/basic_lstm_cell/split/split_dim"
  input: "Train/Model/LSTM/rnn/while/multi_rnn_cell/cell_0/basic_lstm_cell/BiasAdd"
  attr {
    key: "T"
    value {
      type: DT_HALF
    }
  }
  attr {
    key: "_output_shapes"
    value {
      list {
        shape {
          dim {
            size: 2688
          }
          dim {
            size: 128
          }
        }
        shape {
          dim {
            size: 2688
          }
          dim {
            size: 128
          }
        }
        shape {
          dim {
            size: 2688
          }
          dim {
            size: 128
          }
        }
        shape {
          dim {
            size: 2688
          }
          dim {
            size: 128
          }
        }
      }
    }
  }
  attr {
    key: "num_split"
    value {
      i: 4
    }
  }
}
node {
  name: "Train/Model/LSTM/rnn/while/multi_rnn_cell/cell_0/basic_lstm_cell/add/y"
  op: "Const"
  input: "^Train/Model/LSTM/rnn/while/Identity"
  attr {
    key: "_output_shapes"
    value {
      list {
        shape {
        }
      }
    }
  }
  attr {
    key: "dtype"
    value {
      type: DT_HALF
    }
  }
  attr {
    key: "value"
    value {
      tensor {
        dtype: DT_HALF
        tensor_shape {
        }
        half_val: 15360
      }
    }
  }
}
node {
  name: "Train/Model/LSTM/rnn/while/multi_rnn_cell/cell_0/basic_lstm_cell/add"
  op: "Add"
  input: "Train/Model/LSTM/rnn/while/multi_rnn_cell/cell_0/basic_lstm_cell/split:2"
  input: "Train/Model/LSTM/rnn/while/multi_rnn_cell/cell_0/basic_lstm_cell/add/y"
  attr {
    key: "T"
    value {
      type: DT_HALF
    }
  }
  attr {
    key: "_output_shapes"
    value {
      list {
        shape {
          dim {
            size: 2688
          }
          dim {
            size: 128
          }
        }
      }
    }
  }
}
node {
  name: "Train/Model/LSTM/rnn/while/multi_rnn_cell/cell_0/basic_lstm_cell/Sigmoid"
  op: "Sigmoid"
  input: "Train/Model/LSTM/rnn/while/multi_rnn_cell/cell_0/basic_lstm_cell/add"
  attr {
    key: "T"
    value {
      type: DT_HALF
    }
  }
  attr {
    key: "_output_shapes"
    value {
      list {
        shape {
          dim {
            size: 2688
          }
          dim {
            size: 128
          }
        }
      }
    }
  }
}
node {
  name: "Train/Model/LSTM/rnn/while/multi_rnn_cell/cell_0/basic_lstm_cell/mul"
  op: "Mul"
  input: "Train/Model/LSTM/rnn/while/Identity_2"
  input: "Train/Model/LSTM/rnn/while/multi_rnn_cell/cell_0/basic_lstm_cell/Sigmoid"
  attr {
    key: "T"
    value {
      type: DT_HALF
    }
  }
  attr {
    key: "_output_shapes"
    value {
      list {
        shape {
          dim {
            size: 2688
          }
          dim {
            size: 128
          }
        }
      }
    }
  }
}
node {
  name: "Train/Model/LSTM/rnn/while/multi_rnn_cell/cell_0/basic_lstm_cell/Sigmoid_1"
  op: "Sigmoid"
  input: "Train/Model/LSTM/rnn/while/multi_rnn_cell/cell_0/basic_lstm_cell/split"
  attr {
    key: "T"
    value {
      type: DT_HALF
    }
  }
  attr {
    key: "_output_shapes"
    value {
      list {
        shape {
          dim {
            size: 2688
          }
          dim {
            size: 128
          }
        }
      }
    }
  }
}
node {
  name: "Train/Model/LSTM/rnn/while/multi_rnn_cell/cell_0/basic_lstm_cell/Tanh"
  op: "Tanh"
  input: "Train/Model/LSTM/rnn/while/multi_rnn_cell/cell_0/basic_lstm_cell/split:1"
  attr {
    key: "T"
    value {
      type: DT_HALF
    }
  }
  attr {
    key: "_output_shapes"
    value {
      list {
        shape {
          dim {
            size: 2688
          }
          dim {
            size: 128
          }
        }
      }
    }
  }
}
node {
  name: "Train/Model/LSTM/rnn/while/multi_rnn_cell/cell_0/basic_lstm_cell/mul_1"
  op: "Mul"
  input: "Train/Model/LSTM/rnn/while/multi_rnn_cell/cell_0/basic_lstm_cell/Sigmoid_1"
  input: "Train/Model/LSTM/rnn/while/multi_rnn_cell/cell_0/basic_lstm_cell/Tanh"
  attr {
    key: "T"
    value {
      type: DT_HALF
    }
  }
  attr {
    key: "_output_shapes"
    value {
      list {
        shape {
          dim {
            size: 2688
          }
          dim {
            size: 128
          }
        }
      }
    }
  }
}
node {
  name: "Train/Model/LSTM/rnn/while/multi_rnn_cell/cell_0/basic_lstm_cell/add_1"
  op: "Add"
  input: "Train/Model/LSTM/rnn/while/multi_rnn_cell/cell_0/basic_lstm_cell/mul"
  input: "Train/Model/LSTM/rnn/while/multi_rnn_cell/cell_0/basic_lstm_cell/mul_1"
  attr {
    key: "T"
    value {
      type: DT_HALF
    }
  }
  attr {
    key: "_output_shapes"
    value {
      list {
        shape {
          dim {
            size: 2688
          }
          dim {
            size: 128
          }
        }
      }
    }
  }
}
node {
  name: "Train/Model/LSTM/rnn/while/multi_rnn_cell/cell_0/basic_lstm_cell/Tanh_1"
  op: "Tanh"
  input: "Train/Model/LSTM/rnn/while/multi_rnn_cell/cell_0/basic_lstm_cell/add_1"
  attr {
    key: "T"
    value {
      type: DT_HALF
    }
  }
  attr {
    key: "_output_shapes"
    value {
      list {
        shape {
          dim {
            size: 2688
          }
          dim {
            size: 128
          }
        }
      }
    }
  }
}
node {
  name: "Train/Model/LSTM/rnn/while/multi_rnn_cell/cell_0/basic_lstm_cell/Sigmoid_2"
  op: "Sigmoid"
  input: "Train/Model/LSTM/rnn/while/multi_rnn_cell/cell_0/basic_lstm_cell/split:3"
  attr {
    key: "T"
    value {
      type: DT_HALF
    }
  }
  attr {
    key: "_output_shapes"
    value {
      list {
        shape {
          dim {
            size: 2688
          }
          dim {
            size: 128
          }
        }
      }
    }
  }
}
node {
  name: "Train/Model/LSTM/rnn/while/multi_rnn_cell/cell_0/basic_lstm_cell/mul_2"
  op: "Mul"
  input: "Train/Model/LSTM/rnn/while/multi_rnn_cell/cell_0/basic_lstm_cell/Tanh_1"
  input: "Train/Model/LSTM/rnn/while/multi_rnn_cell/cell_0/basic_lstm_cell/Sigmoid_2"
  attr {
    key: "T"
    value {
      type: DT_HALF
    }
  }
  attr {
    key: "_output_shapes"
    value {
      list {
        shape {
          dim {
            size: 2688
          }
          dim {
            size: 128
          }
        }
      }
    }
  }
}
node {
  name: "Train/Model/LSTM/rnn/while/multi_rnn_cell/cell_0/dropout/keep_prob"
  op: "Const"
  input: "^Train/Model/LSTM/rnn/while/Identity"
  attr {
    key: "_output_shapes"
    value {
      list {
        shape {
        }
      }
    }
  }
  attr {
    key: "dtype"
    value {
      type: DT_HALF
    }
  }
  attr {
    key: "value"
    value {
      tensor {
        dtype: DT_HALF
        tensor_shape {
        }
        half_val: 14336
      }
    }
  }
}
node {
  name: "Train/Model/LSTM/rnn/while/multi_rnn_cell/cell_0/dropout/Shape"
  op: "Const"
  input: "^Train/Model/LSTM/rnn/while/Identity"
  attr {
    key: "_output_shapes"
    value {
      list {
        shape {
          dim {
            size: 2
          }
        }
      }
    }
  }
  attr {
    key: "dtype"
    value {
      type: DT_INT32
    }
  }
  attr {
    key: "value"
    value {
      tensor {
        dtype: DT_INT32
        tensor_shape {
          dim {
            size: 2
          }
        }
        tensor_content: "\200\n\000\000\200\000\000\000"
      }
    }
  }
}
node {
  name: "Train/Model/LSTM/rnn/while/multi_rnn_cell/cell_0/dropout/random_uniform/min"
  op: "Const"
  input: "^Train/Model/LSTM/rnn/while/Identity"
  attr {
    key: "_output_shapes"
    value {
      list {
        shape {
        }
      }
    }
  }
  attr {
    key: "dtype"
    value {
      type: DT_HALF
    }
  }
  attr {
    key: "value"
    value {
      tensor {
        dtype: DT_HALF
        tensor_shape {
        }
        half_val: 0
      }
    }
  }
}
node {
  name: "Train/Model/LSTM/rnn/while/multi_rnn_cell/cell_0/dropout/random_uniform/max"
  op: "Const"
  input: "^Train/Model/LSTM/rnn/while/Identity"
  attr {
    key: "_output_shapes"
    value {
      list {
        shape {
        }
      }
    }
  }
  attr {
    key: "dtype"
    value {
      type: DT_HALF
    }
  }
  attr {
    key: "value"
    value {
      tensor {
        dtype: DT_HALF
        tensor_shape {
        }
        half_val: 15360
      }
    }
  }
}
node {
  name: "Train/Model/LSTM/rnn/while/multi_rnn_cell/cell_0/dropout/random_uniform/RandomUniform"
  op: "RandomUniform"
  input: "Train/Model/LSTM/rnn/while/multi_rnn_cell/cell_0/dropout/Shape"
  attr {
    key: "T"
    value {
      type: DT_INT32
    }
  }
  attr {
    key: "_output_shapes"
    value {
      list {
        shape {
          dim {
            size: 2688
          }
          dim {
            size: 128
          }
        }
      }
    }
  }
  attr {
    key: "dtype"
    value {
      type: DT_HALF
    }
  }
  attr {
    key: "seed"
    value {
      i: 0
    }
  }
  attr {
    key: "seed2"
    value {
      i: 0
    }
  }
}
node {
  name: "Train/Model/LSTM/rnn/while/multi_rnn_cell/cell_0/dropout/random_uniform/sub"
  op: "Sub"
  input: "Train/Model/LSTM/rnn/while/multi_rnn_cell/cell_0/dropout/random_uniform/max"
  input: "Train/Model/LSTM/rnn/while/multi_rnn_cell/cell_0/dropout/random_uniform/min"
  attr {
    key: "T"
    value {
      type: DT_HALF
    }
  }
  attr {
    key: "_output_shapes"
    value {
      list {
        shape {
        }
      }
    }
  }
}
node {
  name: "Train/Model/LSTM/rnn/while/multi_rnn_cell/cell_0/dropout/random_uniform/mul"
  op: "Mul"
  input: "Train/Model/LSTM/rnn/while/multi_rnn_cell/cell_0/dropout/random_uniform/RandomUniform"
  input: "Train/Model/LSTM/rnn/while/multi_rnn_cell/cell_0/dropout/random_uniform/sub"
  attr {
    key: "T"
    value {
      type: DT_HALF
    }
  }
  attr {
    key: "_output_shapes"
    value {
      list {
        shape {
          dim {
            size: 2688
          }
          dim {
            size: 128
          }
        }
      }
    }
  }
}
node {
  name: "Train/Model/LSTM/rnn/while/multi_rnn_cell/cell_0/dropout/random_uniform"
  op: "Add"
  input: "Train/Model/LSTM/rnn/while/multi_rnn_cell/cell_0/dropout/random_uniform/mul"
  input: "Train/Model/LSTM/rnn/while/multi_rnn_cell/cell_0/dropout/random_uniform/min"
  attr {
    key: "T"
    value {
      type: DT_HALF
    }
  }
  attr {
    key: "_output_shapes"
    value {
      list {
        shape {
          dim {
            size: 2688
          }
          dim {
            size: 128
          }
        }
      }
    }
  }
}
node {
  name: "Train/Model/LSTM/rnn/while/multi_rnn_cell/cell_0/dropout/add"
  op: "Add"
  input: "Train/Model/LSTM/rnn/while/multi_rnn_cell/cell_0/dropout/keep_prob"
  input: "Train/Model/LSTM/rnn/while/multi_rnn_cell/cell_0/dropout/random_uniform"
  attr {
    key: "T"
    value {
      type: DT_HALF
    }
  }
  attr {
    key: "_output_shapes"
    value {
      list {
        shape {
          dim {
            size: 2688
          }
          dim {
            size: 128
          }
        }
      }
    }
  }
}
node {
  name: "Train/Model/LSTM/rnn/while/multi_rnn_cell/cell_0/dropout/Floor"
  op: "Floor"
  input: "Train/Model/LSTM/rnn/while/multi_rnn_cell/cell_0/dropout/add"
  attr {
    key: "T"
    value {
      type: DT_HALF
    }
  }
  attr {
    key: "_output_shapes"
    value {
      list {
        shape {
          dim {
            size: 2688
          }
          dim {
            size: 128
          }
        }
      }
    }
  }
}
node {
  name: "Train/Model/LSTM/rnn/while/multi_rnn_cell/cell_0/dropout/div"
  op: "RealDiv"
  input: "Train/Model/LSTM/rnn/while/multi_rnn_cell/cell_0/basic_lstm_cell/mul_2"
  input: "Train/Model/LSTM/rnn/while/multi_rnn_cell/cell_0/dropout/keep_prob"
  attr {
    key: "T"
    value {
      type: DT_HALF
    }
  }
  attr {
    key: "_output_shapes"
    value {
      list {
        shape {
          dim {
            size: 2688
          }
          dim {
            size: 128
          }
        }
      }
    }
  }
}
node {
  name: "Train/Model/LSTM/rnn/while/multi_rnn_cell/cell_0/dropout/mul"
  op: "Mul"
  input: "Train/Model/LSTM/rnn/while/multi_rnn_cell/cell_0/dropout/div"
  input: "Train/Model/LSTM/rnn/while/multi_rnn_cell/cell_0/dropout/Floor"
  attr {
    key: "T"
    value {
      type: DT_HALF
    }
  }
  attr {
    key: "_output_shapes"
    value {
      list {
        shape {
          dim {
            size: 2688
          }
          dim {
            size: 128
          }
        }
      }
    }
  }
}
node {
  name: "Model/LSTM/rnn/multi_rnn_cell/cell_1/basic_lstm_cell/weights/Initializer/truncated_normal/shape"
  op: "Const"
  attr {
    key: "_class"
    value {
      list {
        s: "loc:@Model/LSTM/rnn/multi_rnn_cell/cell_1/basic_lstm_cell/weights"
      }
    }
  }
  attr {
    key: "_output_shapes"
    value {
      list {
        shape {
          dim {
            size: 2
          }
        }
      }
    }
  }
  attr {
    key: "dtype"
    value {
      type: DT_INT32
    }
  }
  attr {
    key: "value"
    value {
      tensor {
        dtype: DT_INT32
        tensor_shape {
          dim {
            size: 2
          }
        }
        tensor_content: "\000\001\000\000\000\002\000\000"
      }
    }
  }
}
node {
  name: "Model/LSTM/rnn/multi_rnn_cell/cell_1/basic_lstm_cell/weights/Initializer/truncated_normal/mean"
  op: "Const"
  attr {
    key: "_class"
    value {
      list {
        s: "loc:@Model/LSTM/rnn/multi_rnn_cell/cell_1/basic_lstm_cell/weights"
      }
    }
  }
  attr {
    key: "_output_shapes"
    value {
      list {
        shape {
        }
      }
    }
  }
  attr {
    key: "dtype"
    value {
      type: DT_HALF
    }
  }
  attr {
    key: "value"
    value {
      tensor {
        dtype: DT_HALF
        tensor_shape {
        }
        half_val: 0
      }
    }
  }
}
node {
  name: "Model/LSTM/rnn/multi_rnn_cell/cell_1/basic_lstm_cell/weights/Initializer/truncated_normal/stddev"
  op: "Const"
  attr {
    key: "_class"
    value {
      list {
        s: "loc:@Model/LSTM/rnn/multi_rnn_cell/cell_1/basic_lstm_cell/weights"
      }
    }
  }
  attr {
    key: "_output_shapes"
    value {
      list {
        shape {
        }
      }
    }
  }
  attr {
    key: "dtype"
    value {
      type: DT_HALF
    }
  }
  attr {
    key: "value"
    value {
      tensor {
        dtype: DT_HALF
        tensor_shape {
        }
        half_val: 12400
      }
    }
  }
}
node {
  name: "Model/LSTM/rnn/multi_rnn_cell/cell_1/basic_lstm_cell/weights/Initializer/truncated_normal/TruncatedNormal"
  op: "TruncatedNormal"
  input: "Model/LSTM/rnn/multi_rnn_cell/cell_1/basic_lstm_cell/weights/Initializer/truncated_normal/shape"
  attr {
    key: "T"
    value {
      type: DT_INT32
    }
  }
  attr {
    key: "_class"
    value {
      list {
        s: "loc:@Model/LSTM/rnn/multi_rnn_cell/cell_1/basic_lstm_cell/weights"
      }
    }
  }
  attr {
    key: "_output_shapes"
    value {
      list {
        shape {
          dim {
            size: 256
          }
          dim {
            size: 512
          }
        }
      }
    }
  }
  attr {
    key: "dtype"
    value {
      type: DT_HALF
    }
  }
  attr {
    key: "seed"
    value {
      i: 0
    }
  }
  attr {
    key: "seed2"
    value {
      i: 0
    }
  }
}
node {
  name: "Model/LSTM/rnn/multi_rnn_cell/cell_1/basic_lstm_cell/weights/Initializer/truncated_normal/mul"
  op: "Mul"
  input: "Model/LSTM/rnn/multi_rnn_cell/cell_1/basic_lstm_cell/weights/Initializer/truncated_normal/TruncatedNormal"
  input: "Model/LSTM/rnn/multi_rnn_cell/cell_1/basic_lstm_cell/weights/Initializer/truncated_normal/stddev"
  attr {
    key: "T"
    value {
      type: DT_HALF
    }
  }
  attr {
    key: "_class"
    value {
      list {
        s: "loc:@Model/LSTM/rnn/multi_rnn_cell/cell_1/basic_lstm_cell/weights"
      }
    }
  }
  attr {
    key: "_output_shapes"
    value {
      list {
        shape {
          dim {
            size: 256
          }
          dim {
            size: 512
          }
        }
      }
    }
  }
}
node {
  name: "Model/LSTM/rnn/multi_rnn_cell/cell_1/basic_lstm_cell/weights/Initializer/truncated_normal"
  op: "Add"
  input: "Model/LSTM/rnn/multi_rnn_cell/cell_1/basic_lstm_cell/weights/Initializer/truncated_normal/mul"
  input: "Model/LSTM/rnn/multi_rnn_cell/cell_1/basic_lstm_cell/weights/Initializer/truncated_normal/mean"
  attr {
    key: "T"
    value {
      type: DT_HALF
    }
  }
  attr {
    key: "_class"
    value {
      list {
        s: "loc:@Model/LSTM/rnn/multi_rnn_cell/cell_1/basic_lstm_cell/weights"
      }
    }
  }
  attr {
    key: "_output_shapes"
    value {
      list {
        shape {
          dim {
            size: 256
          }
          dim {
            size: 512
          }
        }
      }
    }
  }
}
node {
  name: "Model/LSTM/rnn/multi_rnn_cell/cell_1/basic_lstm_cell/weights"
  op: "VariableV2"
  attr {
    key: "_class"
    value {
      list {
        s: "loc:@Model/LSTM/rnn/multi_rnn_cell/cell_1/basic_lstm_cell/weights"
      }
    }
  }
  attr {
    key: "_output_shapes"
    value {
      list {
        shape {
          dim {
            size: 256
          }
          dim {
            size: 512
          }
        }
      }
    }
  }
  attr {
    key: "container"
    value {
      s: ""
    }
  }
  attr {
    key: "dtype"
    value {
      type: DT_HALF
    }
  }
  attr {
    key: "shape"
    value {
      shape {
        dim {
          size: 256
        }
        dim {
          size: 512
        }
      }
    }
  }
  attr {
    key: "shared_name"
    value {
      s: ""
    }
  }
}
node {
  name: "Model/LSTM/rnn/multi_rnn_cell/cell_1/basic_lstm_cell/weights/Assign"
  op: "Assign"
  input: "Model/LSTM/rnn/multi_rnn_cell/cell_1/basic_lstm_cell/weights"
  input: "Model/LSTM/rnn/multi_rnn_cell/cell_1/basic_lstm_cell/weights/Initializer/truncated_normal"
  attr {
    key: "T"
    value {
      type: DT_HALF
    }
  }
  attr {
    key: "_class"
    value {
      list {
        s: "loc:@Model/LSTM/rnn/multi_rnn_cell/cell_1/basic_lstm_cell/weights"
      }
    }
  }
  attr {
    key: "_output_shapes"
    value {
      list {
        shape {
          dim {
            size: 256
          }
          dim {
            size: 512
          }
        }
      }
    }
  }
  attr {
    key: "use_locking"
    value {
      b: true
    }
  }
  attr {
    key: "validate_shape"
    value {
      b: true
    }
  }
}
node {
  name: "Model/LSTM/rnn/multi_rnn_cell/cell_1/basic_lstm_cell/weights/read"
  op: "Identity"
  input: "Model/LSTM/rnn/multi_rnn_cell/cell_1/basic_lstm_cell/weights"
  attr {
    key: "T"
    value {
      type: DT_HALF
    }
  }
  attr {
    key: "_output_shapes"
    value {
      list {
        shape {
          dim {
            size: 256
          }
          dim {
            size: 512
          }
        }
      }
    }
  }
}
node {
  name: "Train/Model/LSTM/rnn/while/multi_rnn_cell/cell_1/basic_lstm_cell/basic_lstm_cell/concat/axis"
  op: "Const"
  input: "^Train/Model/LSTM/rnn/while/Identity"
  attr {
    key: "_output_shapes"
    value {
      list {
        shape {
        }
      }
    }
  }
  attr {
    key: "dtype"
    value {
      type: DT_INT32
    }
  }
  attr {
    key: "value"
    value {
      tensor {
        dtype: DT_INT32
        tensor_shape {
        }
        int_val: 1
      }
    }
  }
}
node {
  name: "Train/Model/LSTM/rnn/while/multi_rnn_cell/cell_1/basic_lstm_cell/basic_lstm_cell/concat"
  op: "ConcatV2"
  input: "Train/Model/LSTM/rnn/while/multi_rnn_cell/cell_0/dropout/mul"
  input: "Train/Model/LSTM/rnn/while/Identity_5"
  input: "Train/Model/LSTM/rnn/while/multi_rnn_cell/cell_1/basic_lstm_cell/basic_lstm_cell/concat/axis"
  attr {
    key: "N"
    value {
      i: 2
    }
  }
  attr {
    key: "T"
    value {
      type: DT_HALF
    }
  }
  attr {
    key: "Tidx"
    value {
      type: DT_INT32
    }
  }
  attr {
    key: "_output_shapes"
    value {
      list {
        shape {
          dim {
            size: 2688
          }
          dim {
            size: 256
          }
        }
      }
    }
  }
}
node {
  name: "Train/Model/LSTM/rnn/while/multi_rnn_cell/cell_1/basic_lstm_cell/basic_lstm_cell/MatMul/Enter"
  op: "Enter"
  input: "Model/LSTM/rnn/multi_rnn_cell/cell_1/basic_lstm_cell/weights/read"
  attr {
    key: "T"
    value {
      type: DT_HALF
    }
  }
  attr {
    key: "_output_shapes"
    value {
      list {
        shape {
          dim {
            size: 256
          }
          dim {
            size: 512
          }
        }
      }
    }
  }
  attr {
    key: "frame_name"
    value {
      s: "Train/Model/LSTM/rnn/while/Train/Model/LSTM/rnn/while/"
    }
  }
  attr {
    key: "is_constant"
    value {
      b: true
    }
  }
  attr {
    key: "parallel_iterations"
    value {
      i: 32
    }
  }
}
node {
  name: "Train/Model/LSTM/rnn/while/multi_rnn_cell/cell_1/basic_lstm_cell/basic_lstm_cell/MatMul"
  op: "MatMul"
  input: "Train/Model/LSTM/rnn/while/multi_rnn_cell/cell_1/basic_lstm_cell/basic_lstm_cell/concat"
  input: "Train/Model/LSTM/rnn/while/multi_rnn_cell/cell_1/basic_lstm_cell/basic_lstm_cell/MatMul/Enter"
  attr {
    key: "T"
    value {
      type: DT_HALF
    }
  }
  attr {
    key: "_output_shapes"
    value {
      list {
        shape {
          dim {
            size: 2688
          }
          dim {
            size: 512
          }
        }
      }
    }
  }
  attr {
    key: "transpose_a"
    value {
      b: false
    }
  }
  attr {
    key: "transpose_b"
    value {
      b: false
    }
  }
}
node {
  name: "Model/LSTM/rnn/multi_rnn_cell/cell_1/basic_lstm_cell/biases/Initializer/Const"
  op: "Const"
  attr {
    key: "_class"
    value {
      list {
        s: "loc:@Model/LSTM/rnn/multi_rnn_cell/cell_1/basic_lstm_cell/biases"
      }
    }
  }
  attr {
    key: "_output_shapes"
    value {
      list {
        shape {
          dim {
            size: 512
          }
        }
      }
    }
  }
  attr {
    key: "dtype"
    value {
      type: DT_HALF
    }
  }
  attr {
    key: "value"
    value {
      tensor {
        dtype: DT_HALF
        tensor_shape {
          dim {
            size: 512
          }
        }
        half_val: 0
      }
    }
  }
}
node {
  name: "Model/LSTM/rnn/multi_rnn_cell/cell_1/basic_lstm_cell/biases"
  op: "VariableV2"
  attr {
    key: "_class"
    value {
      list {
        s: "loc:@Model/LSTM/rnn/multi_rnn_cell/cell_1/basic_lstm_cell/biases"
      }
    }
  }
  attr {
    key: "_output_shapes"
    value {
      list {
        shape {
          dim {
            size: 512
          }
        }
      }
    }
  }
  attr {
    key: "container"
    value {
      s: ""
    }
  }
  attr {
    key: "dtype"
    value {
      type: DT_HALF
    }
  }
  attr {
    key: "shape"
    value {
      shape {
        dim {
          size: 512
        }
      }
    }
  }
  attr {
    key: "shared_name"
    value {
      s: ""
    }
  }
}
node {
  name: "Model/LSTM/rnn/multi_rnn_cell/cell_1/basic_lstm_cell/biases/Assign"
  op: "Assign"
  input: "Model/LSTM/rnn/multi_rnn_cell/cell_1/basic_lstm_cell/biases"
  input: "Model/LSTM/rnn/multi_rnn_cell/cell_1/basic_lstm_cell/biases/Initializer/Const"
  attr {
    key: "T"
    value {
      type: DT_HALF
    }
  }
  attr {
    key: "_class"
    value {
      list {
        s: "loc:@Model/LSTM/rnn/multi_rnn_cell/cell_1/basic_lstm_cell/biases"
      }
    }
  }
  attr {
    key: "_output_shapes"
    value {
      list {
        shape {
          dim {
            size: 512
          }
        }
      }
    }
  }
  attr {
    key: "use_locking"
    value {
      b: true
    }
  }
  attr {
    key: "validate_shape"
    value {
      b: true
    }
  }
}
node {
  name: "Model/LSTM/rnn/multi_rnn_cell/cell_1/basic_lstm_cell/biases/read"
  op: "Identity"
  input: "Model/LSTM/rnn/multi_rnn_cell/cell_1/basic_lstm_cell/biases"
  attr {
    key: "T"
    value {
      type: DT_HALF
    }
  }
  attr {
    key: "_output_shapes"
    value {
      list {
        shape {
          dim {
            size: 512
          }
        }
      }
    }
  }
}
node {
  name: "Train/Model/LSTM/rnn/while/multi_rnn_cell/cell_1/basic_lstm_cell/BiasAdd/Enter"
  op: "Enter"
  input: "Model/LSTM/rnn/multi_rnn_cell/cell_1/basic_lstm_cell/biases/read"
  attr {
    key: "T"
    value {
      type: DT_HALF
    }
  }
  attr {
    key: "_output_shapes"
    value {
      list {
        shape {
          dim {
            size: 512
          }
        }
      }
    }
  }
  attr {
    key: "frame_name"
    value {
      s: "Train/Model/LSTM/rnn/while/Train/Model/LSTM/rnn/while/"
    }
  }
  attr {
    key: "is_constant"
    value {
      b: true
    }
  }
  attr {
    key: "parallel_iterations"
    value {
      i: 32
    }
  }
}
node {
  name: "Train/Model/LSTM/rnn/while/multi_rnn_cell/cell_1/basic_lstm_cell/BiasAdd"
  op: "BiasAdd"
  input: "Train/Model/LSTM/rnn/while/multi_rnn_cell/cell_1/basic_lstm_cell/basic_lstm_cell/MatMul"
  input: "Train/Model/LSTM/rnn/while/multi_rnn_cell/cell_1/basic_lstm_cell/BiasAdd/Enter"
  attr {
    key: "T"
    value {
      type: DT_HALF
    }
  }
  attr {
    key: "_output_shapes"
    value {
      list {
        shape {
          dim {
            size: 2688
          }
          dim {
            size: 512
          }
        }
      }
    }
  }
  attr {
    key: "data_format"
    value {
      s: "NHWC"
    }
  }
}
node {
  name: "Train/Model/LSTM/rnn/while/multi_rnn_cell/cell_1/basic_lstm_cell/split/split_dim"
  op: "Const"
  input: "^Train/Model/LSTM/rnn/while/Identity"
  attr {
    key: "_output_shapes"
    value {
      list {
        shape {
        }
      }
    }
  }
  attr {
    key: "dtype"
    value {
      type: DT_INT32
    }
  }
  attr {
    key: "value"
    value {
      tensor {
        dtype: DT_INT32
        tensor_shape {
        }
        int_val: 1
      }
    }
  }
}
node {
  name: "Train/Model/LSTM/rnn/while/multi_rnn_cell/cell_1/basic_lstm_cell/split"
  op: "Split"
  input: "Train/Model/LSTM/rnn/while/multi_rnn_cell/cell_1/basic_lstm_cell/split/split_dim"
  input: "Train/Model/LSTM/rnn/while/multi_rnn_cell/cell_1/basic_lstm_cell/BiasAdd"
  attr {
    key: "T"
    value {
      type: DT_HALF
    }
  }
  attr {
    key: "_output_shapes"
    value {
      list {
        shape {
          dim {
            size: 2688
          }
          dim {
            size: 128
          }
        }
        shape {
          dim {
            size: 2688
          }
          dim {
            size: 128
          }
        }
        shape {
          dim {
            size: 2688
          }
          dim {
            size: 128
          }
        }
        shape {
          dim {
            size: 2688
          }
          dim {
            size: 128
          }
        }
      }
    }
  }
  attr {
    key: "num_split"
    value {
      i: 4
    }
  }
}
node {
  name: "Train/Model/LSTM/rnn/while/multi_rnn_cell/cell_1/basic_lstm_cell/add/y"
  op: "Const"
  input: "^Train/Model/LSTM/rnn/while/Identity"
  attr {
    key: "_output_shapes"
    value {
      list {
        shape {
        }
      }
    }
  }
  attr {
    key: "dtype"
    value {
      type: DT_HALF
    }
  }
  attr {
    key: "value"
    value {
      tensor {
        dtype: DT_HALF
        tensor_shape {
        }
        half_val: 15360
      }
    }
  }
}
node {
  name: "Train/Model/LSTM/rnn/while/multi_rnn_cell/cell_1/basic_lstm_cell/add"
  op: "Add"
  input: "Train/Model/LSTM/rnn/while/multi_rnn_cell/cell_1/basic_lstm_cell/split:2"
  input: "Train/Model/LSTM/rnn/while/multi_rnn_cell/cell_1/basic_lstm_cell/add/y"
  attr {
    key: "T"
    value {
      type: DT_HALF
    }
  }
  attr {
    key: "_output_shapes"
    value {
      list {
        shape {
          dim {
            size: 2688
          }
          dim {
            size: 128
          }
        }
      }
    }
  }
}
node {
  name: "Train/Model/LSTM/rnn/while/multi_rnn_cell/cell_1/basic_lstm_cell/Sigmoid"
  op: "Sigmoid"
  input: "Train/Model/LSTM/rnn/while/multi_rnn_cell/cell_1/basic_lstm_cell/add"
  attr {
    key: "T"
    value {
      type: DT_HALF
    }
  }
  attr {
    key: "_output_shapes"
    value {
      list {
        shape {
          dim {
            size: 2688
          }
          dim {
            size: 128
          }
        }
      }
    }
  }
}
node {
  name: "Train/Model/LSTM/rnn/while/multi_rnn_cell/cell_1/basic_lstm_cell/mul"
  op: "Mul"
  input: "Train/Model/LSTM/rnn/while/Identity_4"
  input: "Train/Model/LSTM/rnn/while/multi_rnn_cell/cell_1/basic_lstm_cell/Sigmoid"
  attr {
    key: "T"
    value {
      type: DT_HALF
    }
  }
  attr {
    key: "_output_shapes"
    value {
      list {
        shape {
          dim {
            size: 2688
          }
          dim {
            size: 128
          }
        }
      }
    }
  }
}
node {
  name: "Train/Model/LSTM/rnn/while/multi_rnn_cell/cell_1/basic_lstm_cell/Sigmoid_1"
  op: "Sigmoid"
  input: "Train/Model/LSTM/rnn/while/multi_rnn_cell/cell_1/basic_lstm_cell/split"
  attr {
    key: "T"
    value {
      type: DT_HALF
    }
  }
  attr {
    key: "_output_shapes"
    value {
      list {
        shape {
          dim {
            size: 2688
          }
          dim {
            size: 128
          }
        }
      }
    }
  }
}
node {
  name: "Train/Model/LSTM/rnn/while/multi_rnn_cell/cell_1/basic_lstm_cell/Tanh"
  op: "Tanh"
  input: "Train/Model/LSTM/rnn/while/multi_rnn_cell/cell_1/basic_lstm_cell/split:1"
  attr {
    key: "T"
    value {
      type: DT_HALF
    }
  }
  attr {
    key: "_output_shapes"
    value {
      list {
        shape {
          dim {
            size: 2688
          }
          dim {
            size: 128
          }
        }
      }
    }
  }
}
node {
  name: "Train/Model/LSTM/rnn/while/multi_rnn_cell/cell_1/basic_lstm_cell/mul_1"
  op: "Mul"
  input: "Train/Model/LSTM/rnn/while/multi_rnn_cell/cell_1/basic_lstm_cell/Sigmoid_1"
  input: "Train/Model/LSTM/rnn/while/multi_rnn_cell/cell_1/basic_lstm_cell/Tanh"
  attr {
    key: "T"
    value {
      type: DT_HALF
    }
  }
  attr {
    key: "_output_shapes"
    value {
      list {
        shape {
          dim {
            size: 2688
          }
          dim {
            size: 128
          }
        }
      }
    }
  }
}
node {
  name: "Train/Model/LSTM/rnn/while/multi_rnn_cell/cell_1/basic_lstm_cell/add_1"
  op: "Add"
  input: "Train/Model/LSTM/rnn/while/multi_rnn_cell/cell_1/basic_lstm_cell/mul"
  input: "Train/Model/LSTM/rnn/while/multi_rnn_cell/cell_1/basic_lstm_cell/mul_1"
  attr {
    key: "T"
    value {
      type: DT_HALF
    }
  }
  attr {
    key: "_output_shapes"
    value {
      list {
        shape {
          dim {
            size: 2688
          }
          dim {
            size: 128
          }
        }
      }
    }
  }
}
node {
  name: "Train/Model/LSTM/rnn/while/multi_rnn_cell/cell_1/basic_lstm_cell/Tanh_1"
  op: "Tanh"
  input: "Train/Model/LSTM/rnn/while/multi_rnn_cell/cell_1/basic_lstm_cell/add_1"
  attr {
    key: "T"
    value {
      type: DT_HALF
    }
  }
  attr {
    key: "_output_shapes"
    value {
      list {
        shape {
          dim {
            size: 2688
          }
          dim {
            size: 128
          }
        }
      }
    }
  }
}
node {
  name: "Train/Model/LSTM/rnn/while/multi_rnn_cell/cell_1/basic_lstm_cell/Sigmoid_2"
  op: "Sigmoid"
  input: "Train/Model/LSTM/rnn/while/multi_rnn_cell/cell_1/basic_lstm_cell/split:3"
  attr {
    key: "T"
    value {
      type: DT_HALF
    }
  }
  attr {
    key: "_output_shapes"
    value {
      list {
        shape {
          dim {
            size: 2688
          }
          dim {
            size: 128
          }
        }
      }
    }
  }
}
node {
  name: "Train/Model/LSTM/rnn/while/multi_rnn_cell/cell_1/basic_lstm_cell/mul_2"
  op: "Mul"
  input: "Train/Model/LSTM/rnn/while/multi_rnn_cell/cell_1/basic_lstm_cell/Tanh_1"
  input: "Train/Model/LSTM/rnn/while/multi_rnn_cell/cell_1/basic_lstm_cell/Sigmoid_2"
  attr {
    key: "T"
    value {
      type: DT_HALF
    }
  }
  attr {
    key: "_output_shapes"
    value {
      list {
        shape {
          dim {
            size: 2688
          }
          dim {
            size: 128
          }
        }
      }
    }
  }
}
node {
  name: "Train/Model/LSTM/rnn/while/multi_rnn_cell/cell_1/dropout/keep_prob"
  op: "Const"
  input: "^Train/Model/LSTM/rnn/while/Identity"
  attr {
    key: "_output_shapes"
    value {
      list {
        shape {
        }
      }
    }
  }
  attr {
    key: "dtype"
    value {
      type: DT_HALF
    }
  }
  attr {
    key: "value"
    value {
      tensor {
        dtype: DT_HALF
        tensor_shape {
        }
        half_val: 14336
      }
    }
  }
}
node {
  name: "Train/Model/LSTM/rnn/while/multi_rnn_cell/cell_1/dropout/Shape"
  op: "Const"
  input: "^Train/Model/LSTM/rnn/while/Identity"
  attr {
    key: "_output_shapes"
    value {
      list {
        shape {
          dim {
            size: 2
          }
        }
      }
    }
  }
  attr {
    key: "dtype"
    value {
      type: DT_INT32
    }
  }
  attr {
    key: "value"
    value {
      tensor {
        dtype: DT_INT32
        tensor_shape {
          dim {
            size: 2
          }
        }
        tensor_content: "\200\n\000\000\200\000\000\000"
      }
    }
  }
}
node {
  name: "Train/Model/LSTM/rnn/while/multi_rnn_cell/cell_1/dropout/random_uniform/min"
  op: "Const"
  input: "^Train/Model/LSTM/rnn/while/Identity"
  attr {
    key: "_output_shapes"
    value {
      list {
        shape {
        }
      }
    }
  }
  attr {
    key: "dtype"
    value {
      type: DT_HALF
    }
  }
  attr {
    key: "value"
    value {
      tensor {
        dtype: DT_HALF
        tensor_shape {
        }
        half_val: 0
      }
    }
  }
}
node {
  name: "Train/Model/LSTM/rnn/while/multi_rnn_cell/cell_1/dropout/random_uniform/max"
  op: "Const"
  input: "^Train/Model/LSTM/rnn/while/Identity"
  attr {
    key: "_output_shapes"
    value {
      list {
        shape {
        }
      }
    }
  }
  attr {
    key: "dtype"
    value {
      type: DT_HALF
    }
  }
  attr {
    key: "value"
    value {
      tensor {
        dtype: DT_HALF
        tensor_shape {
        }
        half_val: 15360
      }
    }
  }
}
node {
  name: "Train/Model/LSTM/rnn/while/multi_rnn_cell/cell_1/dropout/random_uniform/RandomUniform"
  op: "RandomUniform"
  input: "Train/Model/LSTM/rnn/while/multi_rnn_cell/cell_1/dropout/Shape"
  attr {
    key: "T"
    value {
      type: DT_INT32
    }
  }
  attr {
    key: "_output_shapes"
    value {
      list {
        shape {
          dim {
            size: 2688
          }
          dim {
            size: 128
          }
        }
      }
    }
  }
  attr {
    key: "dtype"
    value {
      type: DT_HALF
    }
  }
  attr {
    key: "seed"
    value {
      i: 0
    }
  }
  attr {
    key: "seed2"
    value {
      i: 0
    }
  }
}
node {
  name: "Train/Model/LSTM/rnn/while/multi_rnn_cell/cell_1/dropout/random_uniform/sub"
  op: "Sub"
  input: "Train/Model/LSTM/rnn/while/multi_rnn_cell/cell_1/dropout/random_uniform/max"
  input: "Train/Model/LSTM/rnn/while/multi_rnn_cell/cell_1/dropout/random_uniform/min"
  attr {
    key: "T"
    value {
      type: DT_HALF
    }
  }
  attr {
    key: "_output_shapes"
    value {
      list {
        shape {
        }
      }
    }
  }
}
node {
  name: "Train/Model/LSTM/rnn/while/multi_rnn_cell/cell_1/dropout/random_uniform/mul"
  op: "Mul"
  input: "Train/Model/LSTM/rnn/while/multi_rnn_cell/cell_1/dropout/random_uniform/RandomUniform"
  input: "Train/Model/LSTM/rnn/while/multi_rnn_cell/cell_1/dropout/random_uniform/sub"
  attr {
    key: "T"
    value {
      type: DT_HALF
    }
  }
  attr {
    key: "_output_shapes"
    value {
      list {
        shape {
          dim {
            size: 2688
          }
          dim {
            size: 128
          }
        }
      }
    }
  }
}
node {
  name: "Train/Model/LSTM/rnn/while/multi_rnn_cell/cell_1/dropout/random_uniform"
  op: "Add"
  input: "Train/Model/LSTM/rnn/while/multi_rnn_cell/cell_1/dropout/random_uniform/mul"
  input: "Train/Model/LSTM/rnn/while/multi_rnn_cell/cell_1/dropout/random_uniform/min"
  attr {
    key: "T"
    value {
      type: DT_HALF
    }
  }
  attr {
    key: "_output_shapes"
    value {
      list {
        shape {
          dim {
            size: 2688
          }
          dim {
            size: 128
          }
        }
      }
    }
  }
}
node {
  name: "Train/Model/LSTM/rnn/while/multi_rnn_cell/cell_1/dropout/add"
  op: "Add"
  input: "Train/Model/LSTM/rnn/while/multi_rnn_cell/cell_1/dropout/keep_prob"
  input: "Train/Model/LSTM/rnn/while/multi_rnn_cell/cell_1/dropout/random_uniform"
  attr {
    key: "T"
    value {
      type: DT_HALF
    }
  }
  attr {
    key: "_output_shapes"
    value {
      list {
        shape {
          dim {
            size: 2688
          }
          dim {
            size: 128
          }
        }
      }
    }
  }
}
node {
  name: "Train/Model/LSTM/rnn/while/multi_rnn_cell/cell_1/dropout/Floor"
  op: "Floor"
  input: "Train/Model/LSTM/rnn/while/multi_rnn_cell/cell_1/dropout/add"
  attr {
    key: "T"
    value {
      type: DT_HALF
    }
  }
  attr {
    key: "_output_shapes"
    value {
      list {
        shape {
          dim {
            size: 2688
          }
          dim {
            size: 128
          }
        }
      }
    }
  }
}
node {
  name: "Train/Model/LSTM/rnn/while/multi_rnn_cell/cell_1/dropout/div"
  op: "RealDiv"
  input: "Train/Model/LSTM/rnn/while/multi_rnn_cell/cell_1/basic_lstm_cell/mul_2"
  input: "Train/Model/LSTM/rnn/while/multi_rnn_cell/cell_1/dropout/keep_prob"
  attr {
    key: "T"
    value {
      type: DT_HALF
    }
  }
  attr {
    key: "_output_shapes"
    value {
      list {
        shape {
          dim {
            size: 2688
          }
          dim {
            size: 128
          }
        }
      }
    }
  }
}
node {
  name: "Train/Model/LSTM/rnn/while/multi_rnn_cell/cell_1/dropout/mul"
  op: "Mul"
  input: "Train/Model/LSTM/rnn/while/multi_rnn_cell/cell_1/dropout/div"
  input: "Train/Model/LSTM/rnn/while/multi_rnn_cell/cell_1/dropout/Floor"
  attr {
    key: "T"
    value {
      type: DT_HALF
    }
  }
  attr {
    key: "_output_shapes"
    value {
      list {
        shape {
          dim {
            size: 2688
          }
          dim {
            size: 128
          }
        }
      }
    }
  }
}
node {
  name: "Train/Model/LSTM/rnn/while/TensorArrayWrite/TensorArrayWriteV3/Enter"
  op: "Enter"
  input: "Train/Model/LSTM/rnn/TensorArray"
  attr {
    key: "T"
    value {
      type: DT_RESOURCE
    }
  }
  attr {
    key: "_class"
    value {
      list {
        s: "loc:@Train/Model/LSTM/rnn/TensorArray"
      }
    }
  }
  attr {
    key: "_output_shapes"
    value {
      list {
        shape {
          dim {
            size: 2
          }
        }
      }
    }
  }
  attr {
    key: "frame_name"
    value {
      s: "Train/Model/LSTM/rnn/while/Train/Model/LSTM/rnn/while/"
    }
  }
  attr {
    key: "is_constant"
    value {
      b: true
    }
  }
  attr {
    key: "parallel_iterations"
    value {
      i: 32
    }
  }
}
node {
  name: "Train/Model/LSTM/rnn/while/TensorArrayWrite/TensorArrayWriteV3"
  op: "TensorArrayWriteV3"
  input: "Train/Model/LSTM/rnn/while/TensorArrayWrite/TensorArrayWriteV3/Enter"
  input: "Train/Model/LSTM/rnn/while/Identity"
  input: "Train/Model/LSTM/rnn/while/multi_rnn_cell/cell_1/dropout/mul"
  input: "Train/Model/LSTM/rnn/while/Identity_1"
  attr {
    key: "T"
    value {
      type: DT_HALF
    }
  }
  attr {
    key: "_class"
    value {
      list {
        s: "loc:@Train/Model/LSTM/rnn/TensorArray"
      }
    }
  }
  attr {
    key: "_output_shapes"
    value {
      list {
        shape {
        }
      }
    }
  }
}
node {
  name: "Train/Model/LSTM/rnn/while/add/y"
  op: "Const"
  input: "^Train/Model/LSTM/rnn/while/Identity"
  attr {
    key: "_output_shapes"
    value {
      list {
        shape {
        }
      }
    }
  }
  attr {
    key: "dtype"
    value {
      type: DT_INT32
    }
  }
  attr {
    key: "value"
    value {
      tensor {
        dtype: DT_INT32
        tensor_shape {
        }
        int_val: 1
      }
    }
  }
}
node {
  name: "Train/Model/LSTM/rnn/while/add"
  op: "Add"
  input: "Train/Model/LSTM/rnn/while/Identity"
  input: "Train/Model/LSTM/rnn/while/add/y"
  attr {
    key: "T"
    value {
      type: DT_INT32
    }
  }
  attr {
    key: "_output_shapes"
    value {
      list {
        shape {
        }
      }
    }
  }
}
node {
  name: "Train/Model/LSTM/rnn/while/NextIteration"
  op: "NextIteration"
  input: "Train/Model/LSTM/rnn/while/add"
  attr {
    key: "T"
    value {
      type: DT_INT32
    }
  }
  attr {
    key: "_output_shapes"
    value {
      list {
        shape {
        }
      }
    }
  }
}
node {
  name: "Train/Model/LSTM/rnn/while/NextIteration_1"
  op: "NextIteration"
  input: "Train/Model/LSTM/rnn/while/TensorArrayWrite/TensorArrayWriteV3"
  attr {
    key: "T"
    value {
      type: DT_FLOAT
    }
  }
  attr {
    key: "_output_shapes"
    value {
      list {
        shape {
        }
      }
    }
  }
}
node {
  name: "Train/Model/LSTM/rnn/while/NextIteration_2"
  op: "NextIteration"
  input: "Train/Model/LSTM/rnn/while/multi_rnn_cell/cell_0/basic_lstm_cell/add_1"
  attr {
    key: "T"
    value {
      type: DT_HALF
    }
  }
  attr {
    key: "_output_shapes"
    value {
      list {
        shape {
          dim {
            size: 2688
          }
          dim {
            size: 128
          }
        }
      }
    }
  }
}
node {
  name: "Train/Model/LSTM/rnn/while/NextIteration_3"
  op: "NextIteration"
  input: "Train/Model/LSTM/rnn/while/multi_rnn_cell/cell_0/basic_lstm_cell/mul_2"
  attr {
    key: "T"
    value {
      type: DT_HALF
    }
  }
  attr {
    key: "_output_shapes"
    value {
      list {
        shape {
          dim {
            size: 2688
          }
          dim {
            size: 128
          }
        }
      }
    }
  }
}
node {
  name: "Train/Model/LSTM/rnn/while/NextIteration_4"
  op: "NextIteration"
  input: "Train/Model/LSTM/rnn/while/multi_rnn_cell/cell_1/basic_lstm_cell/add_1"
  attr {
    key: "T"
    value {
      type: DT_HALF
    }
  }
  attr {
    key: "_output_shapes"
    value {
      list {
        shape {
          dim {
            size: 2688
          }
          dim {
            size: 128
          }
        }
      }
    }
  }
}
node {
  name: "Train/Model/LSTM/rnn/while/NextIteration_5"
  op: "NextIteration"
  input: "Train/Model/LSTM/rnn/while/multi_rnn_cell/cell_1/basic_lstm_cell/mul_2"
  attr {
    key: "T"
    value {
      type: DT_HALF
    }
  }
  attr {
    key: "_output_shapes"
    value {
      list {
        shape {
          dim {
            size: 2688
          }
          dim {
            size: 128
          }
        }
      }
    }
  }
}
node {
  name: "Train/Model/LSTM/rnn/while/Exit"
  op: "Exit"
  input: "Train/Model/LSTM/rnn/while/Switch"
  attr {
    key: "T"
    value {
      type: DT_INT32
    }
  }
  attr {
    key: "_output_shapes"
    value {
      list {
        shape {
        }
      }
    }
  }
}
node {
  name: "Train/Model/LSTM/rnn/while/Exit_1"
  op: "Exit"
  input: "Train/Model/LSTM/rnn/while/Switch_1"
  attr {
    key: "T"
    value {
      type: DT_FLOAT
    }
  }
  attr {
    key: "_output_shapes"
    value {
      list {
        shape {
          unknown_rank: true
        }
      }
    }
  }
}
node {
  name: "Train/Model/LSTM/rnn/while/Exit_2"
  op: "Exit"
  input: "Train/Model/LSTM/rnn/while/Switch_2"
  attr {
    key: "T"
    value {
      type: DT_HALF
    }
  }
  attr {
    key: "_output_shapes"
    value {
      list {
        shape {
          dim {
            size: 2688
          }
          dim {
            size: 128
          }
        }
      }
    }
  }
}
node {
  name: "Train/Model/LSTM/rnn/while/Exit_3"
  op: "Exit"
  input: "Train/Model/LSTM/rnn/while/Switch_3"
  attr {
    key: "T"
    value {
      type: DT_HALF
    }
  }
  attr {
    key: "_output_shapes"
    value {
      list {
        shape {
          dim {
            size: 2688
          }
          dim {
            size: 128
          }
        }
      }
    }
  }
}
node {
  name: "Train/Model/LSTM/rnn/while/Exit_4"
  op: "Exit"
  input: "Train/Model/LSTM/rnn/while/Switch_4"
  attr {
    key: "T"
    value {
      type: DT_HALF
    }
  }
  attr {
    key: "_output_shapes"
    value {
      list {
        shape {
          dim {
            size: 2688
          }
          dim {
            size: 128
          }
        }
      }
    }
  }
}
node {
  name: "Train/Model/LSTM/rnn/while/Exit_5"
  op: "Exit"
  input: "Train/Model/LSTM/rnn/while/Switch_5"
  attr {
    key: "T"
    value {
      type: DT_HALF
    }
  }
  attr {
    key: "_output_shapes"
    value {
      list {
        shape {
          dim {
            size: 2688
          }
          dim {
            size: 128
          }
        }
      }
    }
  }
}
node {
  name: "Train/Model/LSTM/rnn/TensorArrayStack/TensorArraySizeV3"
  op: "TensorArraySizeV3"
  input: "Train/Model/LSTM/rnn/TensorArray"
  input: "Train/Model/LSTM/rnn/while/Exit_1"
  attr {
    key: "_class"
    value {
      list {
        s: "loc:@Train/Model/LSTM/rnn/TensorArray"
      }
    }
  }
  attr {
    key: "_output_shapes"
    value {
      list {
        shape {
        }
      }
    }
  }
}
node {
  name: "Train/Model/LSTM/rnn/TensorArrayStack/range/start"
  op: "Const"
  attr {
    key: "_class"
    value {
      list {
        s: "loc:@Train/Model/LSTM/rnn/TensorArray"
      }
    }
  }
  attr {
    key: "_output_shapes"
    value {
      list {
        shape {
        }
      }
    }
  }
  attr {
    key: "dtype"
    value {
      type: DT_INT32
    }
  }
  attr {
    key: "value"
    value {
      tensor {
        dtype: DT_INT32
        tensor_shape {
        }
        int_val: 0
      }
    }
  }
}
node {
  name: "Train/Model/LSTM/rnn/TensorArrayStack/range/delta"
  op: "Const"
  attr {
    key: "_class"
    value {
      list {
        s: "loc:@Train/Model/LSTM/rnn/TensorArray"
      }
    }
  }
  attr {
    key: "_output_shapes"
    value {
      list {
        shape {
        }
      }
    }
  }
  attr {
    key: "dtype"
    value {
      type: DT_INT32
    }
  }
  attr {
    key: "value"
    value {
      tensor {
        dtype: DT_INT32
        tensor_shape {
        }
        int_val: 1
      }
    }
  }
}
node {
  name: "Train/Model/LSTM/rnn/TensorArrayStack/range"
  op: "Range"
  input: "Train/Model/LSTM/rnn/TensorArrayStack/range/start"
  input: "Train/Model/LSTM/rnn/TensorArrayStack/TensorArraySizeV3"
  input: "Train/Model/LSTM/rnn/TensorArrayStack/range/delta"
  attr {
    key: "Tidx"
    value {
      type: DT_INT32
    }
  }
  attr {
    key: "_class"
    value {
      list {
        s: "loc:@Train/Model/LSTM/rnn/TensorArray"
      }
    }
  }
  attr {
    key: "_output_shapes"
    value {
      list {
        shape {
          dim {
            size: -1
          }
        }
      }
    }
  }
}
node {
  name: "Train/Model/LSTM/rnn/TensorArrayStack/TensorArrayGatherV3"
  op: "TensorArrayGatherV3"
  input: "Train/Model/LSTM/rnn/TensorArray"
  input: "Train/Model/LSTM/rnn/TensorArrayStack/range"
  input: "Train/Model/LSTM/rnn/while/Exit_1"
  attr {
    key: "_class"
    value {
      list {
        s: "loc:@Train/Model/LSTM/rnn/TensorArray"
      }
    }
  }
  attr {
    key: "_output_shapes"
    value {
      list {
        shape {
          dim {
            size: 50
          }
          dim {
            size: 2688
          }
          dim {
            size: 128
          }
        }
      }
    }
  }
  attr {
    key: "dtype"
    value {
      type: DT_HALF
    }
  }
  attr {
    key: "element_shape"
    value {
      shape {
        dim {
          size: 2688
        }
        dim {
          size: 128
        }
      }
    }
  }
}
node {
  name: "Train/Model/LSTM/rnn/transpose/perm"
  op: "Const"
  attr {
    key: "_output_shapes"
    value {
      list {
        shape {
          dim {
            size: 3
          }
        }
      }
    }
  }
  attr {
    key: "dtype"
    value {
      type: DT_INT32
    }
  }
  attr {
    key: "value"
    value {
      tensor {
        dtype: DT_INT32
        tensor_shape {
          dim {
            size: 3
          }
        }
        tensor_content: "\001\000\000\000\000\000\000\000\002\000\000\000"
      }
    }
  }
}
node {
  name: "Train/Model/LSTM/rnn/transpose"
  op: "Transpose"
  input: "Train/Model/LSTM/rnn/TensorArrayStack/TensorArrayGatherV3"
  input: "Train/Model/LSTM/rnn/transpose/perm"
  attr {
    key: "T"
    value {
      type: DT_HALF
    }
  }
  attr {
    key: "Tperm"
    value {
      type: DT_INT32
    }
  }
  attr {
    key: "_output_shapes"
    value {
      list {
        shape {
          dim {
            size: 2688
          }
          dim {
            size: 50
          }
          dim {
            size: 128
          }
        }
      }
    }
  }
}
node {
  name: "Train/Model/LSTM/Reshape/shape"
  op: "Const"
  attr {
    key: "_output_shapes"
    value {
      list {
        shape {
          dim {
            size: 2
          }
        }
      }
    }
  }
  attr {
    key: "dtype"
    value {
      type: DT_INT32
    }
  }
  attr {
    key: "value"
    value {
      tensor {
        dtype: DT_INT32
        tensor_shape {
          dim {
            size: 2
          }
        }
        tensor_content: "\377\377\377\377\200\000\000\000"
      }
    }
  }
}
node {
  name: "Train/Model/LSTM/Reshape"
  op: "Reshape"
  input: "Train/Model/LSTM/rnn/transpose"
  input: "Train/Model/LSTM/Reshape/shape"
  attr {
    key: "T"
    value {
      type: DT_HALF
    }
  }
  attr {
    key: "Tshape"
    value {
      type: DT_INT32
    }
  }
  attr {
    key: "_output_shapes"
    value {
      list {
        shape {
          dim {
            size: 134400
          }
          dim {
            size: 128
          }
        }
      }
    }
  }
}
node {
  name: "Model/LSTM/softmax_w/Initializer/truncated_normal/shape"
  op: "Const"
  attr {
    key: "_class"
    value {
      list {
        s: "loc:@Model/LSTM/softmax_w"
      }
    }
  }
  attr {
    key: "_output_shapes"
    value {
      list {
        shape {
          dim {
            size: 2
          }
        }
      }
    }
  }
  attr {
    key: "dtype"
    value {
      type: DT_INT32
    }
  }
  attr {
    key: "value"
    value {
      tensor {
        dtype: DT_INT32
        tensor_shape {
          dim {
            size: 2
          }
        }
        tensor_content: "\200\000\000\000h\000\000\000"
      }
    }
  }
}
node {
  name: "Model/LSTM/softmax_w/Initializer/truncated_normal/mean"
  op: "Const"
  attr {
    key: "_class"
    value {
      list {
        s: "loc:@Model/LSTM/softmax_w"
      }
    }
  }
  attr {
    key: "_output_shapes"
    value {
      list {
        shape {
        }
      }
    }
  }
  attr {
    key: "dtype"
    value {
      type: DT_HALF
    }
  }
  attr {
    key: "value"
    value {
      tensor {
        dtype: DT_HALF
        tensor_shape {
        }
        half_val: 0
      }
    }
  }
}
node {
  name: "Model/LSTM/softmax_w/Initializer/truncated_normal/stddev"
  op: "Const"
  attr {
    key: "_class"
    value {
      list {
        s: "loc:@Model/LSTM/softmax_w"
      }
    }
  }
  attr {
    key: "_output_shapes"
    value {
      list {
        shape {
        }
      }
    }
  }
  attr {
    key: "dtype"
    value {
      type: DT_HALF
    }
  }
  attr {
    key: "value"
    value {
      tensor {
        dtype: DT_HALF
        tensor_shape {
        }
        half_val: 12400
      }
    }
  }
}
node {
  name: "Model/LSTM/softmax_w/Initializer/truncated_normal/TruncatedNormal"
  op: "TruncatedNormal"
  input: "Model/LSTM/softmax_w/Initializer/truncated_normal/shape"
  attr {
    key: "T"
    value {
      type: DT_INT32
    }
  }
  attr {
    key: "_class"
    value {
      list {
        s: "loc:@Model/LSTM/softmax_w"
      }
    }
  }
  attr {
    key: "_output_shapes"
    value {
      list {
        shape {
          dim {
            size: 128
          }
          dim {
            size: 104
          }
        }
      }
    }
  }
  attr {
    key: "dtype"
    value {
      type: DT_HALF
    }
  }
  attr {
    key: "seed"
    value {
      i: 0
    }
  }
  attr {
    key: "seed2"
    value {
      i: 0
    }
  }
}
node {
  name: "Model/LSTM/softmax_w/Initializer/truncated_normal/mul"
  op: "Mul"
  input: "Model/LSTM/softmax_w/Initializer/truncated_normal/TruncatedNormal"
  input: "Model/LSTM/softmax_w/Initializer/truncated_normal/stddev"
  attr {
    key: "T"
    value {
      type: DT_HALF
    }
  }
  attr {
    key: "_class"
    value {
      list {
        s: "loc:@Model/LSTM/softmax_w"
      }
    }
  }
  attr {
    key: "_output_shapes"
    value {
      list {
        shape {
          dim {
            size: 128
          }
          dim {
            size: 104
          }
        }
      }
    }
  }
}
node {
  name: "Model/LSTM/softmax_w/Initializer/truncated_normal"
  op: "Add"
  input: "Model/LSTM/softmax_w/Initializer/truncated_normal/mul"
  input: "Model/LSTM/softmax_w/Initializer/truncated_normal/mean"
  attr {
    key: "T"
    value {
      type: DT_HALF
    }
  }
  attr {
    key: "_class"
    value {
      list {
        s: "loc:@Model/LSTM/softmax_w"
      }
    }
  }
  attr {
    key: "_output_shapes"
    value {
      list {
        shape {
          dim {
            size: 128
          }
          dim {
            size: 104
          }
        }
      }
    }
  }
}
node {
  name: "Model/LSTM/softmax_w"
  op: "VariableV2"
  attr {
    key: "_class"
    value {
      list {
        s: "loc:@Model/LSTM/softmax_w"
      }
    }
  }
  attr {
    key: "_output_shapes"
    value {
      list {
        shape {
          dim {
            size: 128
          }
          dim {
            size: 104
          }
        }
      }
    }
  }
  attr {
    key: "container"
    value {
      s: ""
    }
  }
  attr {
    key: "dtype"
    value {
      type: DT_HALF
    }
  }
  attr {
    key: "shape"
    value {
      shape {
        dim {
          size: 128
        }
        dim {
          size: 104
        }
      }
    }
  }
  attr {
    key: "shared_name"
    value {
      s: ""
    }
  }
}
node {
  name: "Model/LSTM/softmax_w/Assign"
  op: "Assign"
  input: "Model/LSTM/softmax_w"
  input: "Model/LSTM/softmax_w/Initializer/truncated_normal"
  attr {
    key: "T"
    value {
      type: DT_HALF
    }
  }
  attr {
    key: "_class"
    value {
      list {
        s: "loc:@Model/LSTM/softmax_w"
      }
    }
  }
  attr {
    key: "_output_shapes"
    value {
      list {
        shape {
          dim {
            size: 128
          }
          dim {
            size: 104
          }
        }
      }
    }
  }
  attr {
    key: "use_locking"
    value {
      b: true
    }
  }
  attr {
    key: "validate_shape"
    value {
      b: true
    }
  }
}
node {
  name: "Model/LSTM/softmax_w/read"
  op: "Identity"
  input: "Model/LSTM/softmax_w"
  attr {
    key: "T"
    value {
      type: DT_HALF
    }
  }
  attr {
    key: "_class"
    value {
      list {
        s: "loc:@Model/LSTM/softmax_w"
      }
    }
  }
  attr {
    key: "_output_shapes"
    value {
      list {
        shape {
          dim {
            size: 128
          }
          dim {
            size: 104
          }
        }
      }
    }
  }
}
node {
  name: "Model/LSTM/softmax_b/Initializer/truncated_normal/shape"
  op: "Const"
  attr {
    key: "_class"
    value {
      list {
        s: "loc:@Model/LSTM/softmax_b"
      }
    }
  }
  attr {
    key: "_output_shapes"
    value {
      list {
        shape {
          dim {
            size: 1
          }
        }
      }
    }
  }
  attr {
    key: "dtype"
    value {
      type: DT_INT32
    }
  }
  attr {
    key: "value"
    value {
      tensor {
        dtype: DT_INT32
        tensor_shape {
          dim {
            size: 1
          }
        }
        int_val: 104
      }
    }
  }
}
node {
  name: "Model/LSTM/softmax_b/Initializer/truncated_normal/mean"
  op: "Const"
  attr {
    key: "_class"
    value {
      list {
        s: "loc:@Model/LSTM/softmax_b"
      }
    }
  }
  attr {
    key: "_output_shapes"
    value {
      list {
        shape {
        }
      }
    }
  }
  attr {
    key: "dtype"
    value {
      type: DT_HALF
    }
  }
  attr {
    key: "value"
    value {
      tensor {
        dtype: DT_HALF
        tensor_shape {
        }
        half_val: 0
      }
    }
  }
}
node {
  name: "Model/LSTM/softmax_b/Initializer/truncated_normal/stddev"
  op: "Const"
  attr {
    key: "_class"
    value {
      list {
        s: "loc:@Model/LSTM/softmax_b"
      }
    }
  }
  attr {
    key: "_output_shapes"
    value {
      list {
        shape {
        }
      }
    }
  }
  attr {
    key: "dtype"
    value {
      type: DT_HALF
    }
  }
  attr {
    key: "value"
    value {
      tensor {
        dtype: DT_HALF
        tensor_shape {
        }
        half_val: 12400
      }
    }
  }
}
node {
  name: "Model/LSTM/softmax_b/Initializer/truncated_normal/TruncatedNormal"
  op: "TruncatedNormal"
  input: "Model/LSTM/softmax_b/Initializer/truncated_normal/shape"
  attr {
    key: "T"
    value {
      type: DT_INT32
    }
  }
  attr {
    key: "_class"
    value {
      list {
        s: "loc:@Model/LSTM/softmax_b"
      }
    }
  }
  attr {
    key: "_output_shapes"
    value {
      list {
        shape {
          dim {
            size: 104
          }
        }
      }
    }
  }
  attr {
    key: "dtype"
    value {
      type: DT_HALF
    }
  }
  attr {
    key: "seed"
    value {
      i: 0
    }
  }
  attr {
    key: "seed2"
    value {
      i: 0
    }
  }
}
node {
  name: "Model/LSTM/softmax_b/Initializer/truncated_normal/mul"
  op: "Mul"
  input: "Model/LSTM/softmax_b/Initializer/truncated_normal/TruncatedNormal"
  input: "Model/LSTM/softmax_b/Initializer/truncated_normal/stddev"
  attr {
    key: "T"
    value {
      type: DT_HALF
    }
  }
  attr {
    key: "_class"
    value {
      list {
        s: "loc:@Model/LSTM/softmax_b"
      }
    }
  }
  attr {
    key: "_output_shapes"
    value {
      list {
        shape {
          dim {
            size: 104
          }
        }
      }
    }
  }
}
node {
  name: "Model/LSTM/softmax_b/Initializer/truncated_normal"
  op: "Add"
  input: "Model/LSTM/softmax_b/Initializer/truncated_normal/mul"
  input: "Model/LSTM/softmax_b/Initializer/truncated_normal/mean"
  attr {
    key: "T"
    value {
      type: DT_HALF
    }
  }
  attr {
    key: "_class"
    value {
      list {
        s: "loc:@Model/LSTM/softmax_b"
      }
    }
  }
  attr {
    key: "_output_shapes"
    value {
      list {
        shape {
          dim {
            size: 104
          }
        }
      }
    }
  }
}
node {
  name: "Model/LSTM/softmax_b"
  op: "VariableV2"
  attr {
    key: "_class"
    value {
      list {
        s: "loc:@Model/LSTM/softmax_b"
      }
    }
  }
  attr {
    key: "_output_shapes"
    value {
      list {
        shape {
          dim {
            size: 104
          }
        }
      }
    }
  }
  attr {
    key: "container"
    value {
      s: ""
    }
  }
  attr {
    key: "dtype"
    value {
      type: DT_HALF
    }
  }
  attr {
    key: "shape"
    value {
      shape {
        dim {
          size: 104
        }
      }
    }
  }
  attr {
    key: "shared_name"
    value {
      s: ""
    }
  }
}
node {
  name: "Model/LSTM/softmax_b/Assign"
  op: "Assign"
  input: "Model/LSTM/softmax_b"
  input: "Model/LSTM/softmax_b/Initializer/truncated_normal"
  attr {
    key: "T"
    value {
      type: DT_HALF
    }
  }
  attr {
    key: "_class"
    value {
      list {
        s: "loc:@Model/LSTM/softmax_b"
      }
    }
  }
  attr {
    key: "_output_shapes"
    value {
      list {
        shape {
          dim {
            size: 104
          }
        }
      }
    }
  }
  attr {
    key: "use_locking"
    value {
      b: true
    }
  }
  attr {
    key: "validate_shape"
    value {
      b: true
    }
  }
}
node {
  name: "Model/LSTM/softmax_b/read"
  op: "Identity"
  input: "Model/LSTM/softmax_b"
  attr {
    key: "T"
    value {
      type: DT_HALF
    }
  }
  attr {
    key: "_class"
    value {
      list {
        s: "loc:@Model/LSTM/softmax_b"
      }
    }
  }
  attr {
    key: "_output_shapes"
    value {
      list {
        shape {
          dim {
            size: 104
          }
        }
      }
    }
  }
}
node {
  name: "Train/Model/LSTM/MatMul"
  op: "MatMul"
  input: "Train/Model/LSTM/Reshape"
  input: "Model/LSTM/softmax_w/read"
  attr {
    key: "T"
    value {
      type: DT_HALF
    }
  }
  attr {
    key: "_output_shapes"
    value {
      list {
        shape {
          dim {
            size: 134400
          }
          dim {
            size: 104
          }
        }
      }
    }
  }
  attr {
    key: "transpose_a"
    value {
      b: false
    }
  }
  attr {
    key: "transpose_b"
    value {
      b: false
    }
  }
}
node {
  name: "Train/Model/LSTM/add"
  op: "Add"
  input: "Train/Model/LSTM/MatMul"
  input: "Model/LSTM/softmax_b/read"
  attr {
    key: "T"
    value {
      type: DT_HALF
    }
  }
  attr {
    key: "_output_shapes"
    value {
      list {
        shape {
          dim {
            size: 134400
          }
          dim {
            size: 104
          }
        }
      }
    }
  }
}
node {
  name: "Train/Model/LSTM/Output/prediction"
  op: "Softmax"
  input: "Train/Model/LSTM/add"
  attr {
    key: "T"
    value {
      type: DT_HALF
    }
  }
  attr {
    key: "_output_shapes"
    value {
      list {
        shape {
          dim {
            size: 134400
          }
          dim {
            size: 104
          }
        }
      }
    }
  }
}
node {
  name: "Train/Model/LSTM/Reshape_1/shape"
  op: "Const"
  attr {
    key: "_output_shapes"
    value {
      list {
        shape {
          dim {
            size: 2
          }
        }
      }
    }
  }
  attr {
    key: "dtype"
    value {
      type: DT_INT32
    }
  }
  attr {
    key: "value"
    value {
      tensor {
        dtype: DT_INT32
        tensor_shape {
          dim {
            size: 2
          }
        }
        tensor_content: "\377\377\377\377h\000\000\000"
      }
    }
  }
}
node {
  name: "Train/Model/LSTM/Reshape_1"
  op: "Reshape"
  input: "Train/Model/LSTM/Input/labels"
  input: "Train/Model/LSTM/Reshape_1/shape"
  attr {
    key: "T"
    value {
      type: DT_HALF
    }
  }
  attr {
    key: "Tshape"
    value {
      type: DT_INT32
    }
  }
  attr {
    key: "_output_shapes"
    value {
      list {
        shape {
          dim {
            size: 134400
          }
          dim {
            size: 104
          }
        }
      }
    }
  }
}
node {
  name: "Train/Model/LSTM/Cast"
  op: "Cast"
  input: "Train/Model/LSTM/add"
  attr {
    key: "DstT"
    value {
      type: DT_FLOAT
    }
  }
  attr {
    key: "SrcT"
    value {
      type: DT_HALF
    }
  }
  attr {
    key: "_output_shapes"
    value {
      list {
        shape {
          dim {
            size: 134400
          }
          dim {
            size: 104
          }
        }
      }
    }
  }
}
node {
  name: "Train/Model/LSTM/Cast_1"
  op: "Cast"
  input: "Train/Model/LSTM/Reshape_1"
  attr {
    key: "DstT"
    value {
      type: DT_FLOAT
    }
  }
  attr {
    key: "SrcT"
    value {
      type: DT_HALF
    }
  }
  attr {
    key: "_output_shapes"
    value {
      list {
        shape {
          dim {
            size: 134400
          }
          dim {
            size: 104
          }
        }
      }
    }
  }
}
node {
  name: "Train/Model/LSTM/Rank"
  op: "Const"
  attr {
    key: "_output_shapes"
    value {
      list {
        shape {
        }
      }
    }
  }
  attr {
    key: "dtype"
    value {
      type: DT_INT32
    }
  }
  attr {
    key: "value"
    value {
      tensor {
        dtype: DT_INT32
        tensor_shape {
        }
        int_val: 2
      }
    }
  }
}
node {
  name: "Train/Model/LSTM/Shape"
  op: "Const"
  attr {
    key: "_output_shapes"
    value {
      list {
        shape {
          dim {
            size: 2
          }
        }
      }
    }
  }
  attr {
    key: "dtype"
    value {
      type: DT_INT32
    }
  }
  attr {
    key: "value"
    value {
      tensor {
        dtype: DT_INT32
        tensor_shape {
          dim {
            size: 2
          }
        }
        tensor_content: "\000\r\002\000h\000\000\000"
      }
    }
  }
}
node {
  name: "Train/Model/LSTM/Rank_1"
  op: "Const"
  attr {
    key: "_output_shapes"
    value {
      list {
        shape {
        }
      }
    }
  }
  attr {
    key: "dtype"
    value {
      type: DT_INT32
    }
  }
  attr {
    key: "value"
    value {
      tensor {
        dtype: DT_INT32
        tensor_shape {
        }
        int_val: 2
      }
    }
  }
}
node {
  name: "Train/Model/LSTM/Shape_1"
  op: "Const"
  attr {
    key: "_output_shapes"
    value {
      list {
        shape {
          dim {
            size: 2
          }
        }
      }
    }
  }
  attr {
    key: "dtype"
    value {
      type: DT_INT32
    }
  }
  attr {
    key: "value"
    value {
      tensor {
        dtype: DT_INT32
        tensor_shape {
          dim {
            size: 2
          }
        }
        tensor_content: "\000\r\002\000h\000\000\000"
      }
    }
  }
}
node {
  name: "Train/Model/LSTM/Sub/y"
  op: "Const"
  attr {
    key: "_output_shapes"
    value {
      list {
        shape {
        }
      }
    }
  }
  attr {
    key: "dtype"
    value {
      type: DT_INT32
    }
  }
  attr {
    key: "value"
    value {
      tensor {
        dtype: DT_INT32
        tensor_shape {
        }
        int_val: 1
      }
    }
  }
}
node {
  name: "Train/Model/LSTM/Sub"
  op: "Sub"
  input: "Train/Model/LSTM/Rank_1"
  input: "Train/Model/LSTM/Sub/y"
  attr {
    key: "T"
    value {
      type: DT_INT32
    }
  }
  attr {
    key: "_output_shapes"
    value {
      list {
        shape {
        }
      }
    }
  }
}
node {
  name: "Train/Model/LSTM/Slice/begin"
  op: "Pack"
  input: "Train/Model/LSTM/Sub"
  attr {
    key: "N"
    value {
      i: 1
    }
  }
  attr {
    key: "T"
    value {
      type: DT_INT32
    }
  }
  attr {
    key: "_output_shapes"
    value {
      list {
        shape {
          dim {
            size: 1
          }
        }
      }
    }
  }
  attr {
    key: "axis"
    value {
      i: 0
    }
  }
}
node {
  name: "Train/Model/LSTM/Slice/size"
  op: "Const"
  attr {
    key: "_output_shapes"
    value {
      list {
        shape {
          dim {
            size: 1
          }
        }
      }
    }
  }
  attr {
    key: "dtype"
    value {
      type: DT_INT32
    }
  }
  attr {
    key: "value"
    value {
      tensor {
        dtype: DT_INT32
        tensor_shape {
          dim {
            size: 1
          }
        }
        int_val: 1
      }
    }
  }
}
node {
  name: "Train/Model/LSTM/Slice"
  op: "Slice"
  input: "Train/Model/LSTM/Shape_1"
  input: "Train/Model/LSTM/Slice/begin"
  input: "Train/Model/LSTM/Slice/size"
  attr {
    key: "Index"
    value {
      type: DT_INT32
    }
  }
  attr {
    key: "T"
    value {
      type: DT_INT32
    }
  }
  attr {
    key: "_output_shapes"
    value {
      list {
        shape {
          dim {
            size: 1
          }
        }
      }
    }
  }
}
node {
  name: "Train/Model/LSTM/concat/values_0"
  op: "Const"
  attr {
    key: "_output_shapes"
    value {
      list {
        shape {
          dim {
            size: 1
          }
        }
      }
    }
  }
  attr {
    key: "dtype"
    value {
      type: DT_INT32
    }
  }
  attr {
    key: "value"
    value {
      tensor {
        dtype: DT_INT32
        tensor_shape {
          dim {
            size: 1
          }
        }
        int_val: -1
      }
    }
  }
}
node {
  name: "Train/Model/LSTM/concat/axis"
  op: "Const"
  attr {
    key: "_output_shapes"
    value {
      list {
        shape {
        }
      }
    }
  }
  attr {
    key: "dtype"
    value {
      type: DT_INT32
    }
  }
  attr {
    key: "value"
    value {
      tensor {
        dtype: DT_INT32
        tensor_shape {
        }
        int_val: 0
      }
    }
  }
}
node {
  name: "Train/Model/LSTM/concat"
  op: "ConcatV2"
  input: "Train/Model/LSTM/concat/values_0"
  input: "Train/Model/LSTM/Slice"
  input: "Train/Model/LSTM/concat/axis"
  attr {
    key: "N"
    value {
      i: 2
    }
  }
  attr {
    key: "T"
    value {
      type: DT_INT32
    }
  }
  attr {
    key: "Tidx"
    value {
      type: DT_INT32
    }
  }
  attr {
    key: "_output_shapes"
    value {
      list {
        shape {
          dim {
            size: 2
          }
        }
      }
    }
  }
}
node {
  name: "Train/Model/LSTM/Reshape_2"
  op: "Reshape"
  input: "Train/Model/LSTM/Cast"
  input: "Train/Model/LSTM/concat"
  attr {
    key: "T"
    value {
      type: DT_FLOAT
    }
  }
  attr {
    key: "Tshape"
    value {
      type: DT_INT32
    }
  }
  attr {
    key: "_output_shapes"
    value {
      list {
        shape {
          dim {
            size: 134400
          }
          dim {
            size: 104
          }
        }
      }
    }
  }
}
node {
  name: "Train/Model/LSTM/Rank_2"
  op: "Const"
  attr {
    key: "_output_shapes"
    value {
      list {
        shape {
        }
      }
    }
  }
  attr {
    key: "dtype"
    value {
      type: DT_INT32
    }
  }
  attr {
    key: "value"
    value {
      tensor {
        dtype: DT_INT32
        tensor_shape {
        }
        int_val: 2
      }
    }
  }
}
node {
  name: "Train/Model/LSTM/Shape_2"
  op: "Const"
  attr {
    key: "_output_shapes"
    value {
      list {
        shape {
          dim {
            size: 2
          }
        }
      }
    }
  }
  attr {
    key: "dtype"
    value {
      type: DT_INT32
    }
  }
  attr {
    key: "value"
    value {
      tensor {
        dtype: DT_INT32
        tensor_shape {
          dim {
            size: 2
          }
        }
        tensor_content: "\000\r\002\000h\000\000\000"
      }
    }
  }
}
node {
  name: "Train/Model/LSTM/Sub_1/y"
  op: "Const"
  attr {
    key: "_output_shapes"
    value {
      list {
        shape {
        }
      }
    }
  }
  attr {
    key: "dtype"
    value {
      type: DT_INT32
    }
  }
  attr {
    key: "value"
    value {
      tensor {
        dtype: DT_INT32
        tensor_shape {
        }
        int_val: 1
      }
    }
  }
}
node {
  name: "Train/Model/LSTM/Sub_1"
  op: "Sub"
  input: "Train/Model/LSTM/Rank_2"
  input: "Train/Model/LSTM/Sub_1/y"
  attr {
    key: "T"
    value {
      type: DT_INT32
    }
  }
  attr {
    key: "_output_shapes"
    value {
      list {
        shape {
        }
      }
    }
  }
}
node {
  name: "Train/Model/LSTM/Slice_1/begin"
  op: "Pack"
  input: "Train/Model/LSTM/Sub_1"
  attr {
    key: "N"
    value {
      i: 1
    }
  }
  attr {
    key: "T"
    value {
      type: DT_INT32
    }
  }
  attr {
    key: "_output_shapes"
    value {
      list {
        shape {
          dim {
            size: 1
          }
        }
      }
    }
  }
  attr {
    key: "axis"
    value {
      i: 0
    }
  }
}
node {
  name: "Train/Model/LSTM/Slice_1/size"
  op: "Const"
  attr {
    key: "_output_shapes"
    value {
      list {
        shape {
          dim {
            size: 1
          }
        }
      }
    }
  }
  attr {
    key: "dtype"
    value {
      type: DT_INT32
    }
  }
  attr {
    key: "value"
    value {
      tensor {
        dtype: DT_INT32
        tensor_shape {
          dim {
            size: 1
          }
        }
        int_val: 1
      }
    }
  }
}
node {
  name: "Train/Model/LSTM/Slice_1"
  op: "Slice"
  input: "Train/Model/LSTM/Shape_2"
  input: "Train/Model/LSTM/Slice_1/begin"
  input: "Train/Model/LSTM/Slice_1/size"
  attr {
    key: "Index"
    value {
      type: DT_INT32
    }
  }
  attr {
    key: "T"
    value {
      type: DT_INT32
    }
  }
  attr {
    key: "_output_shapes"
    value {
      list {
        shape {
          dim {
            size: 1
          }
        }
      }
    }
  }
}
node {
  name: "Train/Model/LSTM/concat_1/values_0"
  op: "Const"
  attr {
    key: "_output_shapes"
    value {
      list {
        shape {
          dim {
            size: 1
          }
        }
      }
    }
  }
  attr {
    key: "dtype"
    value {
      type: DT_INT32
    }
  }
  attr {
    key: "value"
    value {
      tensor {
        dtype: DT_INT32
        tensor_shape {
          dim {
            size: 1
          }
        }
        int_val: -1
      }
    }
  }
}
node {
  name: "Train/Model/LSTM/concat_1/axis"
  op: "Const"
  attr {
    key: "_output_shapes"
    value {
      list {
        shape {
        }
      }
    }
  }
  attr {
    key: "dtype"
    value {
      type: DT_INT32
    }
  }
  attr {
    key: "value"
    value {
      tensor {
        dtype: DT_INT32
        tensor_shape {
        }
        int_val: 0
      }
    }
  }
}
node {
  name: "Train/Model/LSTM/concat_1"
  op: "ConcatV2"
  input: "Train/Model/LSTM/concat_1/values_0"
  input: "Train/Model/LSTM/Slice_1"
  input: "Train/Model/LSTM/concat_1/axis"
  attr {
    key: "N"
    value {
      i: 2
    }
  }
  attr {
    key: "T"
    value {
      type: DT_INT32
    }
  }
  attr {
    key: "Tidx"
    value {
      type: DT_INT32
    }
  }
  attr {
    key: "_output_shapes"
    value {
      list {
        shape {
          dim {
            size: 2
          }
        }
      }
    }
  }
}
node {
  name: "Train/Model/LSTM/Reshape_3"
  op: "Reshape"
  input: "Train/Model/LSTM/Cast_1"
  input: "Train/Model/LSTM/concat_1"
  attr {
    key: "T"
    value {
      type: DT_FLOAT
    }
  }
  attr {
    key: "Tshape"
    value {
      type: DT_INT32
    }
  }
  attr {
    key: "_output_shapes"
    value {
      list {
        shape {
          dim {
            size: 134400
          }
          dim {
            size: 104
          }
        }
      }
    }
  }
}
node {
  name: "Train/Model/LSTM/SoftmaxCrossEntropyWithLogits"
  op: "SoftmaxCrossEntropyWithLogits"
  input: "Train/Model/LSTM/Reshape_2"
  input: "Train/Model/LSTM/Reshape_3"
  attr {
    key: "T"
    value {
      type: DT_FLOAT
    }
  }
  attr {
    key: "_output_shapes"
    value {
      list {
        shape {
          dim {
            size: 134400
          }
        }
        shape {
          dim {
            size: 134400
          }
          dim {
            size: 104
          }
        }
      }
    }
  }
}
node {
  name: "Train/Model/LSTM/Sub_2/y"
  op: "Const"
  attr {
    key: "_output_shapes"
    value {
      list {
        shape {
        }
      }
    }
  }
  attr {
    key: "dtype"
    value {
      type: DT_INT32
    }
  }
  attr {
    key: "value"
    value {
      tensor {
        dtype: DT_INT32
        tensor_shape {
        }
        int_val: 1
      }
    }
  }
}
node {
  name: "Train/Model/LSTM/Sub_2"
  op: "Sub"
  input: "Train/Model/LSTM/Rank"
  input: "Train/Model/LSTM/Sub_2/y"
  attr {
    key: "T"
    value {
      type: DT_INT32
    }
  }
  attr {
    key: "_output_shapes"
    value {
      list {
        shape {
        }
      }
    }
  }
}
node {
  name: "Train/Model/LSTM/Slice_2/begin"
  op: "Const"
  attr {
    key: "_output_shapes"
    value {
      list {
        shape {
          dim {
            size: 1
          }
        }
      }
    }
  }
  attr {
    key: "dtype"
    value {
      type: DT_INT32
    }
  }
  attr {
    key: "value"
    value {
      tensor {
        dtype: DT_INT32
        tensor_shape {
          dim {
            size: 1
          }
        }
        int_val: 0
      }
    }
  }
}
node {
  name: "Train/Model/LSTM/Slice_2/size"
  op: "Pack"
  input: "Train/Model/LSTM/Sub_2"
  attr {
    key: "N"
    value {
      i: 1
    }
  }
  attr {
    key: "T"
    value {
      type: DT_INT32
    }
  }
  attr {
    key: "_output_shapes"
    value {
      list {
        shape {
          dim {
            size: 1
          }
        }
      }
    }
  }
  attr {
    key: "axis"
    value {
      i: 0
    }
  }
}
node {
  name: "Train/Model/LSTM/Slice_2"
  op: "Slice"
  input: "Train/Model/LSTM/Shape"
  input: "Train/Model/LSTM/Slice_2/begin"
  input: "Train/Model/LSTM/Slice_2/size"
  attr {
    key: "Index"
    value {
      type: DT_INT32
    }
  }
  attr {
    key: "T"
    value {
      type: DT_INT32
    }
  }
  attr {
    key: "_output_shapes"
    value {
      list {
        shape {
          dim {
            size: -1
          }
        }
      }
    }
  }
}
node {
  name: "Train/Model/LSTM/Reshape_4"
  op: "Reshape"
  input: "Train/Model/LSTM/SoftmaxCrossEntropyWithLogits"
  input: "Train/Model/LSTM/Slice_2"
  attr {
    key: "T"
    value {
      type: DT_FLOAT
    }
  }
  attr {
    key: "Tshape"
    value {
      type: DT_INT32
    }
  }
  attr {
    key: "_output_shapes"
    value {
      list {
        shape {
          dim {
            size: 134400
          }
        }
      }
    }
  }
}
node {
  name: "Train/Model/LSTM/Cast_2"
  op: "Cast"
  input: "Train/Model/LSTM/Reshape_4"
  attr {
    key: "DstT"
    value {
      type: DT_HALF
    }
  }
  attr {
    key: "SrcT"
    value {
      type: DT_FLOAT
    }
  }
  attr {
    key: "_output_shapes"
    value {
      list {
        shape {
          dim {
            size: 134400
          }
        }
      }
    }
  }
}
node {
  name: "Train/Model/LSTM/Const"
  op: "Const"
  attr {
    key: "_output_shapes"
    value {
      list {
        shape {
          dim {
            size: 1
          }
        }
      }
    }
  }
  attr {
    key: "dtype"
    value {
      type: DT_INT32
    }
  }
  attr {
    key: "value"
    value {
      tensor {
        dtype: DT_INT32
        tensor_shape {
          dim {
            size: 1
          }
        }
        int_val: 0
      }
    }
  }
}
node {
  name: "Train/Model/LSTM/cost"
  op: "Mean"
  input: "Train/Model/LSTM/Cast_2"
  input: "Train/Model/LSTM/Const"
  attr {
    key: "T"
    value {
      type: DT_HALF
    }
  }
  attr {
    key: "Tidx"
    value {
      type: DT_INT32
    }
  }
  attr {
    key: "_output_shapes"
    value {
      list {
        shape {
        }
      }
    }
  }
  attr {
    key: "keep_dims"
    value {
      b: false
    }
  }
}
node {
  name: "Train/Model/Variable/initial_value"
  op: "Const"
  attr {
    key: "_output_shapes"
    value {
      list {
        shape {
        }
      }
    }
  }
  attr {
    key: "dtype"
    value {
      type: DT_FLOAT
    }
  }
  attr {
    key: "value"
    value {
      tensor {
        dtype: DT_FLOAT
        tensor_shape {
        }
        float_val: 0.0010000000474974513
      }
    }
  }
}
node {
  name: "Train/Model/Variable"
  op: "VariableV2"
  attr {
    key: "_output_shapes"
    value {
      list {
        shape {
        }
      }
    }
  }
  attr {
    key: "container"
    value {
      s: ""
    }
  }
  attr {
    key: "dtype"
    value {
      type: DT_FLOAT
    }
  }
  attr {
    key: "shape"
    value {
      shape {
      }
    }
  }
  attr {
    key: "shared_name"
    value {
      s: ""
    }
  }
}
node {
  name: "Train/Model/Variable/Assign"
  op: "Assign"
  input: "Train/Model/Variable"
  input: "Train/Model/Variable/initial_value"
  attr {
    key: "T"
    value {
      type: DT_FLOAT
    }
  }
  attr {
    key: "_class"
    value {
      list {
        s: "loc:@Train/Model/Variable"
      }
    }
  }
  attr {
    key: "_output_shapes"
    value {
      list {
        shape {
        }
      }
    }
  }
  attr {
    key: "use_locking"
    value {
      b: true
    }
  }
  attr {
    key: "validate_shape"
    value {
      b: true
    }
  }
}
node {
  name: "Train/Model/Variable/read"
  op: "Identity"
  input: "Train/Model/Variable"
  attr {
    key: "T"
    value {
      type: DT_FLOAT
    }
  }
  attr {
    key: "_class"
    value {
      list {
        s: "loc:@Train/Model/Variable"
      }
    }
  }
  attr {
    key: "_output_shapes"
    value {
      list {
        shape {
        }
      }
    }
  }
}
node {
  name: "Train/Model/gradients/Shape"
  op: "Const"
  attr {
    key: "_output_shapes"
    value {
      list {
        shape {
          dim {
          }
        }
      }
    }
  }
  attr {
    key: "dtype"
    value {
      type: DT_INT32
    }
  }
  attr {
    key: "value"
    value {
      tensor {
        dtype: DT_INT32
        tensor_shape {
          dim {
          }
        }
      }
    }
  }
}
node {
  name: "Train/Model/gradients/Const"
  op: "Const"
  attr {
    key: "_output_shapes"
    value {
      list {
        shape {
        }
      }
    }
  }
  attr {
    key: "dtype"
    value {
      type: DT_HALF
    }
  }
  attr {
    key: "value"
    value {
      tensor {
        dtype: DT_HALF
        tensor_shape {
        }
        half_val: 15360
      }
    }
  }
}
node {
  name: "Train/Model/gradients/Fill"
  op: "Fill"
  input: "Train/Model/gradients/Shape"
  input: "Train/Model/gradients/Const"
  attr {
    key: "T"
    value {
      type: DT_HALF
    }
  }
  attr {
    key: "_output_shapes"
    value {
      list {
        shape {
        }
      }
    }
  }
}
node {
  name: "Train/Model/gradients/f_count"
  op: "Const"
  attr {
    key: "_output_shapes"
    value {
      list {
        shape {
        }
      }
    }
  }
  attr {
    key: "dtype"
    value {
      type: DT_INT32
    }
  }
  attr {
    key: "value"
    value {
      tensor {
        dtype: DT_INT32
        tensor_shape {
        }
        int_val: 0
      }
    }
  }
}
node {
  name: "Train/Model/gradients/f_count_1"
  op: "Enter"
  input: "Train/Model/gradients/f_count"
  attr {
    key: "T"
    value {
      type: DT_INT32
    }
  }
  attr {
    key: "_output_shapes"
    value {
      list {
        shape {
        }
      }
    }
  }
  attr {
    key: "frame_name"
    value {
      s: "Train/Model/LSTM/rnn/while/Train/Model/LSTM/rnn/while/"
    }
  }
  attr {
    key: "is_constant"
    value {
      b: false
    }
  }
  attr {
    key: "parallel_iterations"
    value {
      i: 32
    }
  }
}
node {
  name: "Train/Model/gradients/Merge"
  op: "Merge"
  input: "Train/Model/gradients/f_count_1"
  input: "Train/Model/gradients/NextIteration"
  attr {
    key: "N"
    value {
      i: 2
    }
  }
  attr {
    key: "T"
    value {
      type: DT_INT32
    }
  }
  attr {
    key: "_output_shapes"
    value {
      list {
        shape {
        }
        shape {
        }
      }
    }
  }
}
node {
  name: "Train/Model/gradients/Switch"
  op: "Switch"
  input: "Train/Model/gradients/Merge"
  input: "Train/Model/LSTM/rnn/while/LoopCond"
  attr {
    key: "T"
    value {
      type: DT_INT32
    }
  }
  attr {
    key: "_output_shapes"
    value {
      list {
        shape {
        }
        shape {
        }
      }
    }
  }
}
node {
  name: "Train/Model/gradients/Add/y"
  op: "Const"
  input: "^Train/Model/LSTM/rnn/while/Identity"
  attr {
    key: "_output_shapes"
    value {
      list {
        shape {
        }
      }
    }
  }
  attr {
    key: "dtype"
    value {
      type: DT_INT32
    }
  }
  attr {
    key: "value"
    value {
      tensor {
        dtype: DT_INT32
        tensor_shape {
        }
        int_val: 1
      }
    }
  }
}
node {
  name: "Train/Model/gradients/Add"
  op: "Add"
  input: "Train/Model/gradients/Switch:1"
  input: "Train/Model/gradients/Add/y"
  attr {
    key: "T"
    value {
      type: DT_INT32
    }
  }
  attr {
    key: "_output_shapes"
    value {
      list {
        shape {
        }
      }
    }
  }
}
node {
  name: "Train/Model/gradients/NextIteration"
  op: "NextIteration"
  input: "Train/Model/gradients/Add"
  input: "^Train/Model/gradients/Train/Model/LSTM/rnn/while/TensorArrayWrite/TensorArrayWriteV3_grad/TensorArrayReadV3/StackPush"
  input: "^Train/Model/gradients/Train/Model/LSTM/rnn/while/multi_rnn_cell/cell_1/dropout/mul_grad/mul/StackPush"
  input: "^Train/Model/gradients/Train/Model/LSTM/rnn/while/multi_rnn_cell/cell_1/dropout/mul_grad/mul_1/StackPush"
  input: "^Train/Model/gradients/Train/Model/LSTM/rnn/while/multi_rnn_cell/cell_1/dropout/div_grad/RealDiv/StackPush"
  input: "^Train/Model/gradients/Train/Model/LSTM/rnn/while/multi_rnn_cell/cell_1/dropout/div_grad/Neg/StackPush"
  input: "^Train/Model/gradients/Train/Model/LSTM/rnn/while/multi_rnn_cell/cell_1/basic_lstm_cell/mul_2_grad/mul/StackPush"
  input: "^Train/Model/gradients/Train/Model/LSTM/rnn/while/multi_rnn_cell/cell_1/basic_lstm_cell/mul_2_grad/mul_1/StackPush"
  input: "^Train/Model/gradients/Train/Model/LSTM/rnn/while/multi_rnn_cell/cell_1/basic_lstm_cell/mul_grad/mul/StackPush"
  input: "^Train/Model/gradients/Train/Model/LSTM/rnn/while/multi_rnn_cell/cell_1/basic_lstm_cell/mul_grad/mul_1/StackPush"
  input: "^Train/Model/gradients/Train/Model/LSTM/rnn/while/multi_rnn_cell/cell_1/basic_lstm_cell/mul_1_grad/mul/StackPush"
  input: "^Train/Model/gradients/Train/Model/LSTM/rnn/while/multi_rnn_cell/cell_1/basic_lstm_cell/mul_1_grad/mul_1/StackPush"
  input: "^Train/Model/gradients/Train/Model/LSTM/rnn/while/multi_rnn_cell/cell_1/basic_lstm_cell/split_grad/concat/StackPush"
  input: "^Train/Model/gradients/Train/Model/LSTM/rnn/while/multi_rnn_cell/cell_1/basic_lstm_cell/basic_lstm_cell/MatMul_grad/MatMul_1/StackPush"
  input: "^Train/Model/gradients/Train/Model/LSTM/rnn/while/multi_rnn_cell/cell_1/basic_lstm_cell/basic_lstm_cell/concat_grad/mod/StackPush"
  input: "^Train/Model/gradients/Train/Model/LSTM/rnn/while/multi_rnn_cell/cell_0/dropout/mul_grad/mul/StackPush"
  input: "^Train/Model/gradients/Train/Model/LSTM/rnn/while/multi_rnn_cell/cell_0/dropout/mul_grad/mul_1/StackPush"
  input: "^Train/Model/gradients/Train/Model/LSTM/rnn/while/multi_rnn_cell/cell_0/dropout/div_grad/RealDiv/StackPush"
  input: "^Train/Model/gradients/Train/Model/LSTM/rnn/while/multi_rnn_cell/cell_0/dropout/div_grad/Neg/StackPush"
  input: "^Train/Model/gradients/Train/Model/LSTM/rnn/while/multi_rnn_cell/cell_0/basic_lstm_cell/mul_2_grad/mul/StackPush"
  input: "^Train/Model/gradients/Train/Model/LSTM/rnn/while/multi_rnn_cell/cell_0/basic_lstm_cell/mul_2_grad/mul_1/StackPush"
  input: "^Train/Model/gradients/Train/Model/LSTM/rnn/while/multi_rnn_cell/cell_0/basic_lstm_cell/mul_grad/mul/StackPush"
  input: "^Train/Model/gradients/Train/Model/LSTM/rnn/while/multi_rnn_cell/cell_0/basic_lstm_cell/mul_grad/mul_1/StackPush"
  input: "^Train/Model/gradients/Train/Model/LSTM/rnn/while/multi_rnn_cell/cell_0/basic_lstm_cell/mul_1_grad/mul/StackPush"
  input: "^Train/Model/gradients/Train/Model/LSTM/rnn/while/multi_rnn_cell/cell_0/basic_lstm_cell/mul_1_grad/mul_1/StackPush"
  input: "^Train/Model/gradients/Train/Model/LSTM/rnn/while/multi_rnn_cell/cell_0/basic_lstm_cell/split_grad/concat/StackPush"
  input: "^Train/Model/gradients/Train/Model/LSTM/rnn/while/multi_rnn_cell/cell_0/basic_lstm_cell/basic_lstm_cell/MatMul_grad/MatMul_1/StackPush"
  input: "^Train/Model/gradients/Train/Model/LSTM/rnn/while/multi_rnn_cell/cell_0/basic_lstm_cell/basic_lstm_cell/concat_grad/mod/StackPush"
  attr {
    key: "T"
    value {
      type: DT_INT32
    }
  }
  attr {
    key: "_output_shapes"
    value {
      list {
        shape {
        }
      }
    }
  }
}
node {
  name: "Train/Model/gradients/f_count_2"
  op: "Exit"
  input: "Train/Model/gradients/Switch"
  attr {
    key: "T"
    value {
      type: DT_INT32
    }
  }
  attr {
    key: "_output_shapes"
    value {
      list {
        shape {
        }
      }
    }
  }
}
node {
  name: "Train/Model/gradients/b_count"
  op: "Const"
  attr {
    key: "_output_shapes"
    value {
      list {
        shape {
        }
      }
    }
  }
  attr {
    key: "dtype"
    value {
      type: DT_INT32
    }
  }
  attr {
    key: "value"
    value {
      tensor {
        dtype: DT_INT32
        tensor_shape {
        }
        int_val: 1
      }
    }
  }
}
node {
  name: "Train/Model/gradients/b_count_1"
  op: "Enter"
  input: "Train/Model/gradients/f_count_2"
  attr {
    key: "T"
    value {
      type: DT_INT32
    }
  }
  attr {
    key: "_output_shapes"
    value {
      list {
        shape {
        }
      }
    }
  }
  attr {
    key: "frame_name"
    value {
      s: "Train/Model/gradients/Train/Model/LSTM/rnn/while/Train/Model/LSTM/rnn/while/"
    }
  }
  attr {
    key: "is_constant"
    value {
      b: false
    }
  }
  attr {
    key: "parallel_iterations"
    value {
      i: 32
    }
  }
}
node {
  name: "Train/Model/gradients/Merge_1"
  op: "Merge"
  input: "Train/Model/gradients/b_count_1"
  input: "Train/Model/gradients/NextIteration_1"
  attr {
    key: "N"
    value {
      i: 2
    }
  }
  attr {
    key: "T"
    value {
      type: DT_INT32
    }
  }
  attr {
    key: "_output_shapes"
    value {
      list {
        shape {
        }
        shape {
        }
      }
    }
  }
}
node {
  name: "Train/Model/gradients/GreaterEqual/Enter"
  op: "Enter"
  input: "Train/Model/gradients/b_count"
  attr {
    key: "T"
    value {
      type: DT_INT32
    }
  }
  attr {
    key: "_output_shapes"
    value {
      list {
        shape {
        }
      }
    }
  }
  attr {
    key: "frame_name"
    value {
      s: "Train/Model/gradients/Train/Model/LSTM/rnn/while/Train/Model/LSTM/rnn/while/"
    }
  }
  attr {
    key: "is_constant"
    value {
      b: true
    }
  }
  attr {
    key: "parallel_iterations"
    value {
      i: 32
    }
  }
}
node {
  name: "Train/Model/gradients/GreaterEqual"
  op: "GreaterEqual"
  input: "Train/Model/gradients/Merge_1"
  input: "Train/Model/gradients/GreaterEqual/Enter"
  attr {
    key: "T"
    value {
      type: DT_INT32
    }
  }
  attr {
    key: "_output_shapes"
    value {
      list {
        shape {
        }
      }
    }
  }
}
node {
  name: "Train/Model/gradients/b_count_2"
  op: "LoopCond"
  input: "Train/Model/gradients/GreaterEqual"
  attr {
    key: "_output_shapes"
    value {
      list {
        shape {
        }
      }
    }
  }
}
node {
  name: "Train/Model/gradients/Switch_1"
  op: "Switch"
  input: "Train/Model/gradients/Merge_1"
  input: "Train/Model/gradients/b_count_2"
  attr {
    key: "T"
    value {
      type: DT_INT32
    }
  }
  attr {
    key: "_output_shapes"
    value {
      list {
        shape {
        }
        shape {
        }
      }
    }
  }
}
node {
  name: "Train/Model/gradients/Sub"
  op: "Sub"
  input: "Train/Model/gradients/Switch_1:1"
  input: "Train/Model/gradients/GreaterEqual/Enter"
  attr {
    key: "T"
    value {
      type: DT_INT32
    }
  }
  attr {
    key: "_output_shapes"
    value {
      list {
        shape {
        }
      }
    }
  }
}
node {
  name: "Train/Model/gradients/NextIteration_1"
  op: "NextIteration"
  input: "Train/Model/gradients/Sub"
  input: "^Train/Model/gradients/Train/Model/LSTM/rnn/while/TensorArrayWrite/TensorArrayWriteV3_grad/TensorArrayReadV3/b_sync"
  attr {
    key: "T"
    value {
      type: DT_INT32
    }
  }
  attr {
    key: "_output_shapes"
    value {
      list {
        shape {
        }
      }
    }
  }
}
node {
  name: "Train/Model/gradients/b_count_3"
  op: "Exit"
  input: "Train/Model/gradients/Switch_1"
  attr {
    key: "T"
    value {
      type: DT_INT32
    }
  }
  attr {
    key: "_output_shapes"
    value {
      list {
        shape {
        }
      }
    }
  }
}
node {
  name: "Train/Model/gradients/Train/Model/LSTM/cost_grad/Reshape/shape"
  op: "Const"
  attr {
    key: "_output_shapes"
    value {
      list {
        shape {
          dim {
            size: 1
          }
        }
      }
    }
  }
  attr {
    key: "dtype"
    value {
      type: DT_INT32
    }
  }
  attr {
    key: "value"
    value {
      tensor {
        dtype: DT_INT32
        tensor_shape {
          dim {
            size: 1
          }
        }
        int_val: 1
      }
    }
  }
}
node {
  name: "Train/Model/gradients/Train/Model/LSTM/cost_grad/Reshape"
  op: "Reshape"
  input: "Train/Model/gradients/Fill"
  input: "Train/Model/gradients/Train/Model/LSTM/cost_grad/Reshape/shape"
  attr {
    key: "T"
    value {
      type: DT_HALF
    }
  }
  attr {
    key: "Tshape"
    value {
      type: DT_INT32
    }
  }
  attr {
    key: "_output_shapes"
    value {
      list {
        shape {
          dim {
            size: 1
          }
        }
      }
    }
  }
}
node {
  name: "Train/Model/gradients/Train/Model/LSTM/cost_grad/Tile/multiples"
  op: "Const"
  attr {
    key: "_output_shapes"
    value {
      list {
        shape {
          dim {
            size: 1
          }
        }
      }
    }
  }
  attr {
    key: "dtype"
    value {
      type: DT_INT32
    }
  }
  attr {
    key: "value"
    value {
      tensor {
        dtype: DT_INT32
        tensor_shape {
          dim {
            size: 1
          }
        }
        int_val: 134400
      }
    }
  }
}
node {
  name: "Train/Model/gradients/Train/Model/LSTM/cost_grad/Tile"
  op: "Tile"
  input: "Train/Model/gradients/Train/Model/LSTM/cost_grad/Reshape"
  input: "Train/Model/gradients/Train/Model/LSTM/cost_grad/Tile/multiples"
  attr {
    key: "T"
    value {
      type: DT_HALF
    }
  }
  attr {
    key: "Tmultiples"
    value {
      type: DT_INT32
    }
  }
  attr {
    key: "_output_shapes"
    value {
      list {
        shape {
          dim {
            size: 134400
          }
        }
      }
    }
  }
}
node {
  name: "Train/Model/gradients/Train/Model/LSTM/cost_grad/Shape"
  op: "Const"
  attr {
    key: "_output_shapes"
    value {
      list {
        shape {
          dim {
            size: 1
          }
        }
      }
    }
  }
  attr {
    key: "dtype"
    value {
      type: DT_INT32
    }
  }
  attr {
    key: "value"
    value {
      tensor {
        dtype: DT_INT32
        tensor_shape {
          dim {
            size: 1
          }
        }
        int_val: 134400
      }
    }
  }
}
node {
  name: "Train/Model/gradients/Train/Model/LSTM/cost_grad/Shape_1"
  op: "Const"
  attr {
    key: "_output_shapes"
…
  input: "^Model/Model/LSTM/rnn/multi_rnn_cell/cell_1/basic_lstm_cell/biases/Adam/Assign"
  input: "^Model/Model/LSTM/rnn/multi_rnn_cell/cell_1/basic_lstm_cell/biases/Adam_1/Assign"
  input: "^Model/Model/LSTM/softmax_w/Adam/Assign"
  input: "^Model/Model/LSTM/softmax_w/Adam_1/Assign"
  input: "^Model/Model/LSTM/softmax_b/Adam/Assign"
  input: "^Model/Model/LSTM/softmax_b/Adam_1/Assign"
}
node {
  name: "init_1"
  op: "NoOp"
}
node {
  name: "init_all_tables"
  op: "NoOp"
}
node {
  name: "group_deps"
  op: "NoOp"
  input: "^init_1"
  input: "^init_all_tables"
}
node {
  name: "save/Const"
  op: "Const"
  attr {
    key: "_output_shapes"
    value {
      list {
        shape {
        }
      }
    }
  }
  attr {
    key: "dtype"
    value {
      type: DT_STRING
    }
  }
  attr {
    key: "value"
    value {
      tensor {
        dtype: DT_STRING
        tensor_shape {
        }
        string_val: "model"
      }
    }
  }
}
node {
  name: "save/SaveV2/tensor_names"
  op: "Const"
  attr {
    key: "_output_shapes"
    value {
      list {
        shape {
          dim {
            size: 21
          }
        }
      }
    }
  }
  attr {
    key: "dtype"
    value {
      type: DT_STRING
    }
  }
  attr {
    key: "value"
    value {
      tensor {
        dtype: DT_STRING
        tensor_shape {
          dim {
            size: 21
          }
        }
        string_val: "Model/LSTM/rnn/multi_rnn_cell/cell_0/basic_lstm_cell/biases"
        string_val: "Model/LSTM/rnn/multi_rnn_cell/cell_0/basic_lstm_cell/weights"
        string_val: "Model/LSTM/rnn/multi_rnn_cell/cell_1/basic_lstm_cell/biases"
        string_val: "Model/LSTM/rnn/multi_rnn_cell/cell_1/basic_lstm_cell/weights"
        string_val: "Model/LSTM/softmax_b"
        string_val: "Model/LSTM/softmax_w"
        string_val: "Model/Model/LSTM/rnn/multi_rnn_cell/cell_0/basic_lstm_cell/biases/Adam"
        string_val: "Model/Model/LSTM/rnn/multi_rnn_cell/cell_0/basic_lstm_cell/biases/Adam_1"
        string_val: "Model/Model/LSTM/rnn/multi_rnn_cell/cell_0/basic_lstm_cell/weights/Adam"
        string_val: "Model/Model/LSTM/rnn/multi_rnn_cell/cell_0/basic_lstm_cell/weights/Adam_1"
        string_val: "Model/Model/LSTM/rnn/multi_rnn_cell/cell_1/basic_lstm_cell/biases/Adam"
        string_val: "Model/Model/LSTM/rnn/multi_rnn_cell/cell_1/basic_lstm_cell/biases/Adam_1"
        string_val: "Model/Model/LSTM/rnn/multi_rnn_cell/cell_1/basic_lstm_cell/weights/Adam"
        string_val: "Model/Model/LSTM/rnn/multi_rnn_cell/cell_1/basic_lstm_cell/weights/Adam_1"
        string_val: "Model/Model/LSTM/softmax_b/Adam"
        string_val: "Model/Model/LSTM/softmax_b/Adam_1"
        string_val: "Model/Model/LSTM/softmax_w/Adam"
        string_val: "Model/Model/LSTM/softmax_w/Adam_1"
        string_val: "Train/Model/Variable"
        string_val: "Train/Model/beta1_power"
        string_val: "Train/Model/beta2_power"
      }
    }
  }
}
node {
  name: "save/SaveV2/shape_and_slices"
  op: "Const"
  attr {
    key: "_output_shapes"
    value {
      list {
        shape {
          dim {
            size: 21
          }
        }
      }
    }
  }
  attr {
    key: "dtype"
    value {
      type: DT_STRING
    }
  }
  attr {
    key: "value"
    value {
      tensor {
        dtype: DT_STRING
        tensor_shape {
          dim {
            size: 21
          }
        }
        string_val: ""
        string_val: ""
        string_val: ""
        string_val: ""
        string_val: ""
        string_val: ""
        string_val: ""
        string_val: ""
        string_val: ""
        string_val: ""
        string_val: ""
        string_val: ""
        string_val: ""
        string_val: ""
        string_val: ""
        string_val: ""
        string_val: ""
        string_val: ""
        string_val: ""
        string_val: ""
        string_val: ""
      }
    }
  }
}
node {
  name: "save/SaveV2"
  op: "SaveV2"
  input: "save/Const"
  input: "save/SaveV2/tensor_names"
  input: "save/SaveV2/shape_and_slices"
  input: "Model/LSTM/rnn/multi_rnn_cell/cell_0/basic_lstm_cell/biases"
  input: "Model/LSTM/rnn/multi_rnn_cell/cell_0/basic_lstm_cell/weights"
  input: "Model/LSTM/rnn/multi_rnn_cell/cell_1/basic_lstm_cell/biases"
  input: "Model/LSTM/rnn/multi_rnn_cell/cell_1/basic_lstm_cell/weights"
  input: "Model/LSTM/softmax_b"
  input: "Model/LSTM/softmax_w"
  input: "Model/Model/LSTM/rnn/multi_rnn_cell/cell_0/basic_lstm_cell/biases/Adam"
  input: "Model/Model/LSTM/rnn/multi_rnn_cell/cell_0/basic_lstm_cell/biases/Adam_1"
  input: "Model/Model/LSTM/rnn/multi_rnn_cell/cell_0/basic_lstm_cell/weights/Adam"
  input: "Model/Model/LSTM/rnn/multi_rnn_cell/cell_0/basic_lstm_cell/weights/Adam_1"
  input: "Model/Model/LSTM/rnn/multi_rnn_cell/cell_1/basic_lstm_cell/biases/Adam"
  input: "Model/Model/LSTM/rnn/multi_rnn_cell/cell_1/basic_lstm_cell/biases/Adam_1"
  input: "Model/Model/LSTM/rnn/multi_rnn_cell/cell_1/basic_lstm_cell/weights/Adam"
  input: "Model/Model/LSTM/rnn/multi_rnn_cell/cell_1/basic_lstm_cell/weights/Adam_1"
  input: "Model/Model/LSTM/softmax_b/Adam"
  input: "Model/Model/LSTM/softmax_b/Adam_1"
  input: "Model/Model/LSTM/softmax_w/Adam"
  input: "Model/Model/LSTM/softmax_w/Adam_1"
  input: "Train/Model/Variable"
  input: "Train/Model/beta1_power"
  input: "Train/Model/beta2_power"
  attr {
    key: "dtypes"
    value {
      list {
        type: DT_HALF
        type: DT_HALF
        type: DT_HALF
        type: DT_HALF
        type: DT_HALF
        type: DT_HALF
        type: DT_HALF
        type: DT_HALF
        type: DT_HALF
        type: DT_HALF
        type: DT_HALF
        type: DT_HALF
        type: DT_HALF
        type: DT_HALF
        type: DT_HALF
        type: DT_HALF
        type: DT_HALF
        type: DT_HALF
        type: DT_FLOAT
        type: DT_FLOAT
        type: DT_FLOAT
      }
    }
  }
}
node {
  name: "save/control_dependency"
  op: "Identity"
  input: "save/Const"
  input: "^save/SaveV2"
  attr {
    key: "T"
    value {
      type: DT_STRING
    }
  }
  attr {
    key: "_class"
    value {
      list {
        s: "loc:@save/Const"
      }
    }
  }
  attr {
    key: "_output_shapes"
    value {
      list {
        shape {
        }
      }
    }
  }
}
node {
  name: "save/RestoreV2/tensor_names"
  op: "Const"
  attr {
    key: "_output_shapes"
    value {
      list {
        shape {
          dim {
            size: 1
          }
        }
      }
    }
  }
  attr {
    key: "dtype"
    value {
      type: DT_STRING
    }
  }
  attr {
    key: "value"
    value {
      tensor {
        dtype: DT_STRING
        tensor_shape {
          dim {
            size: 1
          }
        }
        string_val: "Model/LSTM/rnn/multi_rnn_cell/cell_0/basic_lstm_cell/biases"
      }
    }
  }
}
node {
  name: "save/RestoreV2/shape_and_slices"
  op: "Const"
  attr {
    key: "_output_shapes"
    value {
      list {
        shape {
          dim {
            size: 1
          }
        }
      }
    }
  }
  attr {
    key: "dtype"
    value {
      type: DT_STRING
    }
  }
  attr {
    key: "value"
    value {
      tensor {
        dtype: DT_STRING
        tensor_shape {
          dim {
            size: 1
          }
        }
        string_val: ""
      }
    }
  }
}
node {
  name: "save/RestoreV2"
  op: "RestoreV2"
  input: "save/Const"
  input: "save/RestoreV2/tensor_names"
  input: "save/RestoreV2/shape_and_slices"
  attr {
    key: "_output_shapes"
    value {
      list {
        shape {
          unknown_rank: true
        }
      }
    }
  }
  attr {
    key: "dtypes"
    value {
      list {
        type: DT_HALF
      }
    }
  }
}
node {
  name: "save/Assign"
  op: "Assign"
  input: "Model/LSTM/rnn/multi_rnn_cell/cell_0/basic_lstm_cell/biases"
  input: "save/RestoreV2"
  attr {
    key: "T"
    value {
      type: DT_HALF
    }
  }
  attr {
    key: "_class"
    value {
      list {
        s: "loc:@Model/LSTM/rnn/multi_rnn_cell/cell_0/basic_lstm_cell/biases"
      }
    }
  }
  attr {
    key: "_output_shapes"
    value {
      list {
        shape {
          dim {
            size: 512
          }
        }
      }
    }
  }
  attr {
    key: "use_locking"
    value {
      b: true
    }
  }
  attr {
    key: "validate_shape"
    value {
      b: true
    }
  }
}
node {
  name: "save/RestoreV2_1/tensor_names"
  op: "Const"
  attr {
    key: "_output_shapes"
    value {
      list {
        shape {
          dim {
            size: 1
          }
        }
      }
    }
  }
  attr {
    key: "dtype"
    value {
      type: DT_STRING
    }
  }
  attr {
    key: "value"
    value {
      tensor {
        dtype: DT_STRING
        tensor_shape {
          dim {
            size: 1
          }
        }
        string_val: "Model/LSTM/rnn/multi_rnn_cell/cell_0/basic_lstm_cell/weights"
      }
    }
  }
}
node {
  name: "save/RestoreV2_1/shape_and_slices"
  op: "Const"
  attr {
    key: "_output_shapes"
    value {
      list {
        shape {
          dim {
            size: 1
          }
        }
      }
    }
  }
  attr {
    key: "dtype"
    value {
      type: DT_STRING
    }
  }
  attr {
    key: "value"
    value {
      tensor {
        dtype: DT_STRING
        tensor_shape {
          dim {
            size: 1
          }
        }
        string_val: ""
      }
    }
  }
}
node {
  name: "save/RestoreV2_1"
  op: "RestoreV2"
  input: "save/Const"
  input: "save/RestoreV2_1/tensor_names"
  input: "save/RestoreV2_1/shape_and_slices"
  attr {
    key: "_output_shapes"
    value {
      list {
        shape {
          unknown_rank: true
        }
      }
    }
  }
  attr {
    key: "dtypes"
    value {
      list {
        type: DT_HALF
      }
    }
  }
}
node {
  name: "save/Assign_1"
  op: "Assign"
  input: "Model/LSTM/rnn/multi_rnn_cell/cell_0/basic_lstm_cell/weights"
  input: "save/RestoreV2_1"
  attr {
    key: "T"
    value {
      type: DT_HALF
    }
  }
  attr {
    key: "_class"
    value {
      list {
        s: "loc:@Model/LSTM/rnn/multi_rnn_cell/cell_0/basic_lstm_cell/weights"
      }
    }
  }
  attr {
    key: "_output_shapes"
    value {
      list {
        shape {
          dim {
            size: 232
          }
          dim {
            size: 512
          }
        }
      }
    }
  }
  attr {
    key: "use_locking"
    value {
      b: true
    }
  }
  attr {
    key: "validate_shape"
    value {
      b: true
    }
  }
}
node {
  name: "save/RestoreV2_2/tensor_names"
  op: "Const"
  attr {
    key: "_output_shapes"
    value {
      list {
        shape {
          dim {
            size: 1
          }
        }
      }
    }
  }
  attr {
    key: "dtype"
    value {
      type: DT_STRING
    }
  }
  attr {
    key: "value"
    value {
      tensor {
        dtype: DT_STRING
        tensor_shape {
          dim {
            size: 1
          }
        }
        string_val: "Model/LSTM/rnn/multi_rnn_cell/cell_1/basic_lstm_cell/biases"
      }
    }
  }
}
node {
  name: "save/RestoreV2_2/shape_and_slices"
  op: "Const"
  attr {
    key: "_output_shapes"
    value {
      list {
        shape {
          dim {
            size: 1
          }
        }
      }
    }
  }
  attr {
    key: "dtype"
    value {
      type: DT_STRING
    }
  }
  attr {
    key: "value"
    value {
      tensor {
        dtype: DT_STRING
        tensor_shape {
          dim {
            size: 1
          }
        }
        string_val: ""
      }
    }
  }
}
node {
  name: "save/RestoreV2_2"
  op: "RestoreV2"
  input: "save/Const"
  input: "save/RestoreV2_2/tensor_names"
  input: "save/RestoreV2_2/shape_and_slices"
  attr {
    key: "_output_shapes"
    value {
      list {
        shape {
          unknown_rank: true
        }
      }
    }
  }
  attr {
    key: "dtypes"
    value {
      list {
        type: DT_HALF
      }
    }
  }
}
node {
  name: "save/Assign_2"
  op: "Assign"
  input: "Model/LSTM/rnn/multi_rnn_cell/cell_1/basic_lstm_cell/biases"
  input: "save/RestoreV2_2"
  attr {
    key: "T"
    value {
      type: DT_HALF
    }
  }
  attr {
    key: "_class"
    value {
      list {
        s: "loc:@Model/LSTM/rnn/multi_rnn_cell/cell_1/basic_lstm_cell/biases"
      }
    }
  }
  attr {
    key: "_output_shapes"
    value {
      list {
        shape {
          dim {
            size: 512
          }
        }
      }
    }
  }
  attr {
    key: "use_locking"
    value {
      b: true
    }
  }
  attr {
    key: "validate_shape"
    value {
      b: true
    }
  }
}
node {
  name: "save/RestoreV2_3/tensor_names"
  op: "Const"
  attr {
    key: "_output_shapes"
    value {
      list {
        shape {
          dim {
            size: 1
          }
        }
      }
    }
  }
  attr {
    key: "dtype"
    value {
      type: DT_STRING
    }
  }
  attr {
    key: "value"
    value {
      tensor {
        dtype: DT_STRING
        tensor_shape {
          dim {
            size: 1
          }
        }
        string_val: "Model/LSTM/rnn/multi_rnn_cell/cell_1/basic_lstm_cell/weights"
      }
    }
  }
}
node {
  name: "save/RestoreV2_3/shape_and_slices"
  op: "Const"
  attr {
    key: "_output_shapes"
    value {
      list {
        shape {
          dim {
            size: 1
          }
        }
      }
    }
  }
  attr {
    key: "dtype"
    value {
      type: DT_STRING
    }
  }
  attr {
    key: "value"
    value {
      tensor {
        dtype: DT_STRING
        tensor_shape {
          dim {
            size: 1
          }
        }
        string_val: ""
      }
    }
  }
}
node {
  name: "save/RestoreV2_3"
  op: "RestoreV2"
  input: "save/Const"
  input: "save/RestoreV2_3/tensor_names"
  input: "save/RestoreV2_3/shape_and_slices"
  attr {
    key: "_output_shapes"
    value {
      list {
        shape {
          unknown_rank: true
        }
      }
    }
  }
  attr {
    key: "dtypes"
    value {
      list {
        type: DT_HALF
      }
    }
  }
}
node {
  name: "save/Assign_3"
  op: "Assign"
  input: "Model/LSTM/rnn/multi_rnn_cell/cell_1/basic_lstm_cell/weights"
  input: "save/RestoreV2_3"
  attr {
    key: "T"
    value {
      type: DT_HALF
    }
  }
  attr {
    key: "_class"
    value {
      list {
        s: "loc:@Model/LSTM/rnn/multi_rnn_cell/cell_1/basic_lstm_cell/weights"
      }
    }
  }
  attr {
    key: "_output_shapes"
    value {
      list {
        shape {
          dim {
            size: 256
          }
          dim {
            size: 512
          }
        }
      }
    }
  }
  attr {
    key: "use_locking"
    value {
      b: true
    }
  }
  attr {
    key: "validate_shape"
    value {
      b: true
    }
  }
}
node {
  name: "save/RestoreV2_4/tensor_names"
  op: "Const"
  attr {
    key: "_output_shapes"
    value {
      list {
        shape {
          dim {
            size: 1
          }
        }
      }
    }
  }
  attr {
    key: "dtype"
    value {
      type: DT_STRING
    }
  }
  attr {
    key: "value"
    value {
      tensor {
        dtype: DT_STRING
        tensor_shape {
          dim {
            size: 1
          }
        }
        string_val: "Model/LSTM/softmax_b"
      }
    }
  }
}
node {
  name: "save/RestoreV2_4/shape_and_slices"
  op: "Const"
  attr {
    key: "_output_shapes"
    value {
      list {
        shape {
          dim {
            size: 1
          }
        }
      }
    }
  }
  attr {
    key: "dtype"
    value {
      type: DT_STRING
    }
  }
  attr {
    key: "value"
    value {
      tensor {
        dtype: DT_STRING
        tensor_shape {
          dim {
            size: 1
          }
        }
        string_val: ""
      }
    }
  }
}
node {
  name: "save/RestoreV2_4"
  op: "RestoreV2"
  input: "save/Const"
  input: "save/RestoreV2_4/tensor_names"
  input: "save/RestoreV2_4/shape_and_slices"
  attr {
    key: "_output_shapes"
    value {
      list {
        shape {
          unknown_rank: true
        }
      }
    }
  }
  attr {
    key: "dtypes"
    value {
      list {
        type: DT_HALF
      }
    }
  }
}
node {
  name: "save/Assign_4"
  op: "Assign"
  input: "Model/LSTM/softmax_b"
  input: "save/RestoreV2_4"
  attr {
    key: "T"
    value {
      type: DT_HALF
    }
  }
  attr {
    key: "_class"
    value {
      list {
        s: "loc:@Model/LSTM/softmax_b"
      }
    }
  }
  attr {
    key: "_output_shapes"
    value {
      list {
        shape {
          dim {
            size: 104
          }
        }
      }
    }
  }
  attr {
    key: "use_locking"
    value {
      b: true
    }
  }
  attr {
    key: "validate_shape"
    value {
      b: true
    }
  }
}
node {
  name: "save/RestoreV2_5/tensor_names"
  op: "Const"
  attr {
    key: "_output_shapes"
    value {
      list {
        shape {
          dim {
            size: 1
          }
        }
      }
    }
  }
  attr {
    key: "dtype"
    value {
      type: DT_STRING
    }
  }
  attr {
    key: "value"
    value {
      tensor {
        dtype: DT_STRING
        tensor_shape {
          dim {
            size: 1
          }
        }
        string_val: "Model/LSTM/softmax_w"
      }
    }
  }
}
node {
  name: "save/RestoreV2_5/shape_and_slices"
  op: "Const"
  attr {
    key: "_output_shapes"
    value {
      list {
        shape {
          dim {
            size: 1
          }
        }
      }
    }
  }
  attr {
    key: "dtype"
    value {
      type: DT_STRING
    }
  }
  attr {
    key: "value"
    value {
      tensor {
        dtype: DT_STRING
        tensor_shape {
          dim {
            size: 1
          }
        }
        string_val: ""
      }
    }
  }
}
node {
  name: "save/RestoreV2_5"
  op: "RestoreV2"
  input: "save/Const"
  input: "save/RestoreV2_5/tensor_names"
  input: "save/RestoreV2_5/shape_and_slices"
  attr {
    key: "_output_shapes"
    value {
      list {
        shape {
          unknown_rank: true
        }
      }
    }
  }
  attr {
    key: "dtypes"
    value {
      list {
        type: DT_HALF
      }
    }
  }
}
node {
  name: "save/Assign_5"
  op: "Assign"
  input: "Model/LSTM/softmax_w"
  input: "save/RestoreV2_5"
  attr {
    key: "T"
    value {
      type: DT_HALF
    }
  }
  attr {
    key: "_class"
    value {
      list {
        s: "loc:@Model/LSTM/softmax_w"
      }
    }
  }
  attr {
    key: "_output_shapes"
    value {
      list {
        shape {
          dim {
            size: 128
          }
          dim {
            size: 104
          }
        }
      }
    }
  }
  attr {
    key: "use_locking"
    value {
      b: true
    }
  }
  attr {
    key: "validate_shape"
    value {
      b: true
    }
  }
}
node {
  name: "save/RestoreV2_6/tensor_names"
  op: "Const"
  attr {
    key: "_output_shapes"
    value {
      list {
        shape {
          dim {
            size: 1
          }
        }
      }
    }
  }
  attr {
    key: "dtype"
    value {
      type: DT_STRING
    }
  }
  attr {
    key: "value"
    value {
      tensor {
        dtype: DT_STRING
        tensor_shape {
          dim {
            size: 1
          }
        }
        string_val: "Model/Model/LSTM/rnn/multi_rnn_cell/cell_0/basic_lstm_cell/biases/Adam"
      }
    }
  }
}
node {
  name: "save/RestoreV2_6/shape_and_slices"
  op: "Const"
  attr {
    key: "_output_shapes"
    value {
      list {
        shape {
          dim {
            size: 1
          }
        }
      }
    }
  }
  attr {
    key: "dtype"
    value {
      type: DT_STRING
    }
  }
  attr {
    key: "value"
    value {
      tensor {
        dtype: DT_STRING
        tensor_shape {
          dim {
            size: 1
          }
        }
        string_val: ""
      }
    }
  }
}
node {
  name: "save/RestoreV2_6"
  op: "RestoreV2"
  input: "save/Const"
  input: "save/RestoreV2_6/tensor_names"
  input: "save/RestoreV2_6/shape_and_slices"
  attr {
    key: "_output_shapes"
    value {
      list {
        shape {
          unknown_rank: true
        }
      }
    }
  }
  attr {
    key: "dtypes"
    value {
      list {
        type: DT_HALF
      }
    }
  }
}
node {
  name: "save/Assign_6"
  op: "Assign"
  input: "Model/Model/LSTM/rnn/multi_rnn_cell/cell_0/basic_lstm_cell/biases/Adam"
  input: "save/RestoreV2_6"
  attr {
    key: "T"
    value {
      type: DT_HALF
    }
  }
  attr {
    key: "_class"
    value {
      list {
        s: "loc:@Model/LSTM/rnn/multi_rnn_cell/cell_0/basic_lstm_cell/biases"
      }
    }
  }
  attr {
    key: "_output_shapes"
    value {
      list {
        shape {
          dim {
            size: 512
          }
        }
      }
    }
  }
  attr {
    key: "use_locking"
    value {
      b: true
    }
  }
  attr {
    key: "validate_shape"
    value {
      b: true
    }
  }
}
node {
  name: "save/RestoreV2_7/tensor_names"
  op: "Const"
  attr {
    key: "_output_shapes"
    value {
      list {
        shape {
          dim {
            size: 1
          }
        }
      }
    }
  }
  attr {
    key: "dtype"
    value {
      type: DT_STRING
    }
  }
  attr {
    key: "value"
    value {
      tensor {
        dtype: DT_STRING
        tensor_shape {
          dim {
            size: 1
          }
        }
        string_val: "Model/Model/LSTM/rnn/multi_rnn_cell/cell_0/basic_lstm_cell/biases/Adam_1"
      }
    }
  }
}
node {
  name: "save/RestoreV2_7/shape_and_slices"
  op: "Const"
  attr {
    key: "_output_shapes"
    value {
      list {
        shape {
          dim {
            size: 1
          }
        }
      }
    }
  }
  attr {
    key: "dtype"
    value {
      type: DT_STRING
    }
  }
  attr {
    key: "value"
    value {
      tensor {
        dtype: DT_STRING
        tensor_shape {
          dim {
            size: 1
          }
        }
        string_val: ""
      }
    }
  }
}
node {
  name: "save/RestoreV2_7"
  op: "RestoreV2"
  input: "save/Const"
  input: "save/RestoreV2_7/tensor_names"
  input: "save/RestoreV2_7/shape_and_slices"
  attr {
    key: "_output_shapes"
    value {
      list {
        shape {
          unknown_rank: true
        }
      }
    }
  }
  attr {
    key: "dtypes"
    value {
      list {
        type: DT_HALF
      }
    }
  }
}
node {
  name: "save/Assign_7"
  op: "Assign"
  input: "Model/Model/LSTM/rnn/multi_rnn_cell/cell_0/basic_lstm_cell/biases/Adam_1"
  input: "save/RestoreV2_7"
  attr {
    key: "T"
    value {
      type: DT_HALF
    }
  }
  attr {
    key: "_class"
    value {
      list {
        s: "loc:@Model/LSTM/rnn/multi_rnn_cell/cell_0/basic_lstm_cell/biases"
      }
    }
  }
  attr {
    key: "_output_shapes"
    value {
      list {
        shape {
          dim {
            size: 512
          }
        }
      }
    }
  }
  attr {
    key: "use_locking"
    value {
      b: true
    }
  }
  attr {
    key: "validate_shape"
    value {
      b: true
    }
  }
}
node {
  name: "save/RestoreV2_8/tensor_names"
  op: "Const"
  attr {
    key: "_output_shapes"
    value {
      list {
        shape {
          dim {
            size: 1
          }
        }
      }
    }
  }
  attr {
    key: "dtype"
    value {
      type: DT_STRING
    }
  }
  attr {
    key: "value"
    value {
      tensor {
        dtype: DT_STRING
        tensor_shape {
          dim {
            size: 1
          }
        }
        string_val: "Model/Model/LSTM/rnn/multi_rnn_cell/cell_0/basic_lstm_cell/weights/Adam"
      }
    }
  }
}
node {
  name: "save/RestoreV2_8/shape_and_slices"
  op: "Const"
  attr {
    key: "_output_shapes"
    value {
      list {
        shape {
          dim {
            size: 1
          }
        }
      }
    }
  }
  attr {
    key: "dtype"
    value {
      type: DT_STRING
    }
  }
  attr {
    key: "value"
    value {
      tensor {
        dtype: DT_STRING
        tensor_shape {
          dim {
            size: 1
          }
        }
        string_val: ""
      }
    }
  }
}
node {
  name: "save/RestoreV2_8"
  op: "RestoreV2"
  input: "save/Const"
  input: "save/RestoreV2_8/tensor_names"
  input: "save/RestoreV2_8/shape_and_slices"
  attr {
    key: "_output_shapes"
    value {
      list {
        shape {
          unknown_rank: true
        }
      }
    }
  }
  attr {
    key: "dtypes"
    value {
      list {
        type: DT_HALF
      }
    }
  }
}
node {
  name: "save/Assign_8"
  op: "Assign"
  input: "Model/Model/LSTM/rnn/multi_rnn_cell/cell_0/basic_lstm_cell/weights/Adam"
  input: "save/RestoreV2_8"
  attr {
    key: "T"
    value {
      type: DT_HALF
    }
  }
  attr {
    key: "_class"
    value {
      list {
        s: "loc:@Model/LSTM/rnn/multi_rnn_cell/cell_0/basic_lstm_cell/weights"
      }
    }
  }
  attr {
    key: "_output_shapes"
    value {
      list {
        shape {
          dim {
            size: 232
          }
          dim {
            size: 512
          }
        }
      }
    }
  }
  attr {
    key: "use_locking"
    value {
      b: true
    }
  }
  attr {
    key: "validate_shape"
    value {
      b: true
    }
  }
}
node {
  name: "save/RestoreV2_9/tensor_names"
  op: "Const"
  attr {
    key: "_output_shapes"
    value {
      list {
        shape {
          dim {
            size: 1
          }
        }
      }
    }
  }
  attr {
    key: "dtype"
    value {
      type: DT_STRING
    }
  }
  attr {
    key: "value"
    value {
      tensor {
        dtype: DT_STRING
        tensor_shape {
          dim {
            size: 1
          }
        }
        string_val: "Model/Model/LSTM/rnn/multi_rnn_cell/cell_0/basic_lstm_cell/weights/Adam_1"
      }
    }
  }
}
node {
  name: "save/RestoreV2_9/shape_and_slices"
  op: "Const"
  attr {
    key: "_output_shapes"
    value {
      list {
        shape {
          dim {
            size: 1
          }
        }
      }
    }
  }
  attr {
    key: "dtype"
    value {
      type: DT_STRING
    }
  }
  attr {
    key: "value"
    value {
      tensor {
        dtype: DT_STRING
        tensor_shape {
          dim {
            size: 1
          }
        }
        string_val: ""
      }
    }
  }
}
node {
  name: "save/RestoreV2_9"
  op: "RestoreV2"
  input: "save/Const"
  input: "save/RestoreV2_9/tensor_names"
  input: "save/RestoreV2_9/shape_and_slices"
  attr {
    key: "_output_shapes"
    value {
      list {
        shape {
          unknown_rank: true
        }
      }
    }
  }
  attr {
    key: "dtypes"
    value {
      list {
        type: DT_HALF
      }
    }
  }
}
node {
  name: "save/Assign_9"
  op: "Assign"
  input: "Model/Model/LSTM/rnn/multi_rnn_cell/cell_0/basic_lstm_cell/weights/Adam_1"
  input: "save/RestoreV2_9"
  attr {
    key: "T"
    value {
      type: DT_HALF
    }
  }
  attr {
    key: "_class"
    value {
      list {
        s: "loc:@Model/LSTM/rnn/multi_rnn_cell/cell_0/basic_lstm_cell/weights"
      }
    }
  }
  attr {
    key: "_output_shapes"
    value {
      list {
        shape {
          dim {
            size: 232
          }
          dim {
            size: 512
          }
        }
      }
    }
  }
  attr {
    key: "use_locking"
    value {
      b: true
    }
  }
  attr {
    key: "validate_shape"
    value {
      b: true
    }
  }
}
node {
  name: "save/RestoreV2_10/tensor_names"
  op: "Const"
  attr {
    key: "_output_shapes"
    value {
      list {
        shape {
          dim {
            size: 1
          }
        }
      }
    }
  }
  attr {
    key: "dtype"
    value {
      type: DT_STRING
    }
  }
  attr {
    key: "value"
    value {
      tensor {
        dtype: DT_STRING
        tensor_shape {
          dim {
            size: 1
          }
        }
        string_val: "Model/Model/LSTM/rnn/multi_rnn_cell/cell_1/basic_lstm_cell/biases/Adam"
      }
    }
  }
}
node {
  name: "save/RestoreV2_10/shape_and_slices"
  op: "Const"
  attr {
    key: "_output_shapes"
    value {
      list {
        shape {
          dim {
            size: 1
          }
        }
      }
    }
  }
  attr {
    key: "dtype"
    value {
      type: DT_STRING
    }
  }
  attr {
    key: "value"
    value {
      tensor {
        dtype: DT_STRING
        tensor_shape {
          dim {
            size: 1
          }
        }
        string_val: ""
      }
    }
  }
}
node {
  name: "save/RestoreV2_10"
  op: "RestoreV2"
  input: "save/Const"
  input: "save/RestoreV2_10/tensor_names"
  input: "save/RestoreV2_10/shape_and_slices"
  attr {
    key: "_output_shapes"
    value {
      list {
        shape {
          unknown_rank: true
        }
      }
    }
  }
  attr {
    key: "dtypes"
    value {
      list {
        type: DT_HALF
      }
    }
  }
}
node {
  name: "save/Assign_10"
  op: "Assign"
  input: "Model/Model/LSTM/rnn/multi_rnn_cell/cell_1/basic_lstm_cell/biases/Adam"
  input: "save/RestoreV2_10"
  attr {
    key: "T"
    value {
      type: DT_HALF
    }
  }
  attr {
    key: "_class"
    value {
      list {
        s: "loc:@Model/LSTM/rnn/multi_rnn_cell/cell_1/basic_lstm_cell/biases"
      }
    }
  }
  attr {
    key: "_output_shapes"
    value {
      list {
        shape {
          dim {
            size: 512
          }
        }
      }
    }
  }
  attr {
    key: "use_locking"
    value {
      b: true
    }
  }
  attr {
    key: "validate_shape"
    value {
      b: true
    }
  }
}
node {
  name: "save/RestoreV2_11/tensor_names"
  op: "Const"
  attr {
    key: "_output_shapes"
    value {
      list {
        shape {
          dim {
            size: 1
          }
        }
      }
    }
  }
  attr {
    key: "dtype"
    value {
      type: DT_STRING
    }
  }
  attr {
    key: "value"
    value {
      tensor {
        dtype: DT_STRING
        tensor_shape {
          dim {
            size: 1
          }
        }
        string_val: "Model/Model/LSTM/rnn/multi_rnn_cell/cell_1/basic_lstm_cell/biases/Adam_1"
      }
    }
  }
}
node {
  name: "save/RestoreV2_11/shape_and_slices"
  op: "Const"
  attr {
    key: "_output_shapes"
    value {
      list {
        shape {
          dim {
            size: 1
          }
        }
      }
    }
  }
  attr {
    key: "dtype"
    value {
      type: DT_STRING
    }
  }
  attr {
    key: "value"
    value {
      tensor {
        dtype: DT_STRING
        tensor_shape {
          dim {
            size: 1
          }
        }
        string_val: ""
      }
    }
  }
}
node {
  name: "save/RestoreV2_11"
  op: "RestoreV2"
  input: "save/Const"
  input: "save/RestoreV2_11/tensor_names"
  input: "save/RestoreV2_11/shape_and_slices"
  attr {
    key: "_output_shapes"
    value {
      list {
        shape {
          unknown_rank: true
        }
      }
    }
  }
  attr {
    key: "dtypes"
    value {
      list {
        type: DT_HALF
      }
    }
  }
}
node {
  name: "save/Assign_11"
  op: "Assign"
  input: "Model/Model/LSTM/rnn/multi_rnn_cell/cell_1/basic_lstm_cell/biases/Adam_1"
  input: "save/RestoreV2_11"
  attr {
    key: "T"
    value {
      type: DT_HALF
    }
  }
  attr {
    key: "_class"
    value {
      list {
        s: "loc:@Model/LSTM/rnn/multi_rnn_cell/cell_1/basic_lstm_cell/biases"
      }
    }
  }
  attr {
    key: "_output_shapes"
    value {
      list {
        shape {
          dim {
            size: 512
          }
        }
      }
    }
  }
  attr {
    key: "use_locking"
    value {
      b: true
    }
  }
  attr {
    key: "validate_shape"
    value {
      b: true
    }
  }
}
node {
  name: "save/RestoreV2_12/tensor_names"
  op: "Const"
  attr {
    key: "_output_shapes"
    value {
      list {
        shape {
          dim {
            size: 1
          }
        }
      }
    }
  }
  attr {
    key: "dtype"
    value {
      type: DT_STRING
    }
  }
  attr {
    key: "value"
    value {
      tensor {
        dtype: DT_STRING
        tensor_shape {
          dim {
            size: 1
          }
        }
        string_val: "Model/Model/LSTM/rnn/multi_rnn_cell/cell_1/basic_lstm_cell/weights/Adam"
      }
    }
  }
}
node {
  name: "save/RestoreV2_12/shape_and_slices"
  op: "Const"
  attr {
    key: "_output_shapes"
    value {
      list {
        shape {
          dim {
            size: 1
          }
        }
      }
    }
  }
  attr {
    key: "dtype"
    value {
      type: DT_STRING
    }
  }
  attr {
    key: "value"
    value {
      tensor {
        dtype: DT_STRING
        tensor_shape {
          dim {
            size: 1
          }
        }
        string_val: ""
      }
    }
  }
}
node {
  name: "save/RestoreV2_12"
  op: "RestoreV2"
  input: "save/Const"
  input: "save/RestoreV2_12/tensor_names"
  input: "save/RestoreV2_12/shape_and_slices"
  attr {
    key: "_output_shapes"
    value {
      list {
        shape {
          unknown_rank: true
        }
      }
    }
  }
  attr {
    key: "dtypes"
    value {
      list {
        type: DT_HALF
      }
    }
  }
}
node {
  name: "save/Assign_12"
  op: "Assign"
  input: "Model/Model/LSTM/rnn/multi_rnn_cell/cell_1/basic_lstm_cell/weights/Adam"
  input: "save/RestoreV2_12"
  attr {
    key: "T"
    value {
      type: DT_HALF
    }
  }
  attr {
    key: "_class"
    value {
      list {
        s: "loc:@Model/LSTM/rnn/multi_rnn_cell/cell_1/basic_lstm_cell/weights"
      }
    }
  }
  attr {
    key: "_output_shapes"
    value {
      list {
        shape {
          dim {
            size: 256
          }
          dim {
            size: 512
          }
        }
      }
    }
  }
  attr {
    key: "use_locking"
    value {
      b: true
    }
  }
  attr {
    key: "validate_shape"
    value {
      b: true
    }
  }
}
node {
  name: "save/RestoreV2_13/tensor_names"
  op: "Const"
  attr {
    key: "_output_shapes"
    value {
      list {
        shape {
          dim {
            size: 1
          }
        }
      }
    }
  }
  attr {
    key: "dtype"
    value {
      type: DT_STRING
    }
  }
  attr {
    key: "value"
    value {
      tensor {
        dtype: DT_STRING
        tensor_shape {
          dim {
            size: 1
          }
        }
        string_val: "Model/Model/LSTM/rnn/multi_rnn_cell/cell_1/basic_lstm_cell/weights/Adam_1"
      }
    }
  }
}
node {
  name: "save/RestoreV2_13/shape_and_slices"
  op: "Const"
  attr {
    key: "_output_shapes"
    value {
      list {
        shape {
          dim {
            size: 1
          }
        }
      }
    }
  }
  attr {
    key: "dtype"
    value {
      type: DT_STRING
    }
  }
  attr {
    key: "value"
    value {
      tensor {
        dtype: DT_STRING
        tensor_shape {
          dim {
            size: 1
          }
        }
        string_val: ""
      }
    }
  }
}
node {
  name: "save/RestoreV2_13"
  op: "RestoreV2"
  input: "save/Const"
  input: "save/RestoreV2_13/tensor_names"
  input: "save/RestoreV2_13/shape_and_slices"
  attr {
    key: "_output_shapes"
    value {
      list {
        shape {
          unknown_rank: true
        }
      }
    }
  }
  attr {
    key: "dtypes"
    value {
      list {
        type: DT_HALF
      }
    }
  }
}
node {
  name: "save/Assign_13"
  op: "Assign"
  input: "Model/Model/LSTM/rnn/multi_rnn_cell/cell_1/basic_lstm_cell/weights/Adam_1"
  input: "save/RestoreV2_13"
  attr {
    key: "T"
    value {
      type: DT_HALF
    }
  }
  attr {
    key: "_class"
    value {
      list {
        s: "loc:@Model/LSTM/rnn/multi_rnn_cell/cell_1/basic_lstm_cell/weights"
      }
    }
  }
  attr {
    key: "_output_shapes"
    value {
      list {
        shape {
          dim {
            size: 256
          }
          dim {
            size: 512
          }
        }
      }
    }
  }
  attr {
    key: "use_locking"
    value {
      b: true
    }
  }
  attr {
    key: "validate_shape"
    value {
      b: true
    }
  }
}
node {
  name: "save/RestoreV2_14/tensor_names"
  op: "Const"
  attr {
    key: "_output_shapes"
    value {
      list {
        shape {
          dim {
            size: 1
          }
        }
      }
    }
  }
  attr {
    key: "dtype"
    value {
      type: DT_STRING
    }
  }
  attr {
    key: "value"
    value {
      tensor {
        dtype: DT_STRING
        tensor_shape {
          dim {
            size: 1
          }
        }
        string_val: "Model/Model/LSTM/softmax_b/Adam"
      }
    }
  }
}
node {
  name: "save/RestoreV2_14/shape_and_slices"
  op: "Const"
  attr {
    key: "_output_shapes"
    value {
      list {
        shape {
          dim {
            size: 1
          }
        }
      }
    }
  }
  attr {
    key: "dtype"
    value {
      type: DT_STRING
    }
  }
  attr {
    key: "value"
    value {
      tensor {
        dtype: DT_STRING
        tensor_shape {
          dim {
            size: 1
          }
        }
        string_val: ""
      }
    }
  }
}
node {
  name: "save/RestoreV2_14"
  op: "RestoreV2"
  input: "save/Const"
  input: "save/RestoreV2_14/tensor_names"
  input: "save/RestoreV2_14/shape_and_slices"
  attr {
    key: "_output_shapes"
    value {
      list {
        shape {
          unknown_rank: true
        }
      }
    }
  }
  attr {
    key: "dtypes"
    value {
      list {
        type: DT_HALF
      }
    }
  }
}
node {
  name: "save/Assign_14"
  op: "Assign"
  input: "Model/Model/LSTM/softmax_b/Adam"
  input: "save/RestoreV2_14"
  attr {
    key: "T"
    value {
      type: DT_HALF
    }
  }
  attr {
    key: "_class"
    value {
      list {
        s: "loc:@Model/LSTM/softmax_b"
      }
    }
  }
  attr {
    key: "_output_shapes"
    value {
      list {
        shape {
          dim {
            size: 104
          }
        }
      }
    }
  }
  attr {
    key: "use_locking"
    value {
      b: true
    }
  }
  attr {
    key: "validate_shape"
    value {
      b: true
    }
  }
}
node {
  name: "save/RestoreV2_15/tensor_names"
  op: "Const"
  attr {
    key: "_output_shapes"
    value {
      list {
        shape {
          dim {
            size: 1
          }
        }
      }
    }
  }
  attr {
    key: "dtype"
    value {
      type: DT_STRING
    }
  }
  attr {
    key: "value"
    value {
      tensor {
        dtype: DT_STRING
        tensor_shape {
          dim {
            size: 1
          }
        }
        string_val: "Model/Model/LSTM/softmax_b/Adam_1"
      }
    }
  }
}
node {
  name: "save/RestoreV2_15/shape_and_slices"
  op: "Const"
  attr {
    key: "_output_shapes"
    value {
      list {
        shape {
          dim {
            size: 1
          }
        }
      }
    }
  }
  attr {
    key: "dtype"
    value {
      type: DT_STRING
    }
  }
  attr {
    key: "value"
    value {
      tensor {
        dtype: DT_STRING
        tensor_shape {
          dim {
            size: 1
          }
        }
        string_val: ""
      }
    }
  }
}
node {
  name: "save/RestoreV2_15"
  op: "RestoreV2"
  input: "save/Const"
  input: "save/RestoreV2_15/tensor_names"
  input: "save/RestoreV2_15/shape_and_slices"
  attr {
    key: "_output_shapes"
    value {
      list {
        shape {
          unknown_rank: true
        }
      }
    }
  }
  attr {
    key: "dtypes"
    value {
      list {
        type: DT_HALF
      }
    }
  }
}
node {
  name: "save/Assign_15"
  op: "Assign"
  input: "Model/Model/LSTM/softmax_b/Adam_1"
  input: "save/RestoreV2_15"
  attr {
    key: "T"
    value {
      type: DT_HALF
    }
  }
  attr {
    key: "_class"
    value {
      list {
        s: "loc:@Model/LSTM/softmax_b"
      }
    }
  }
  attr {
    key: "_output_shapes"
    value {
      list {
        shape {
          dim {
            size: 104
          }
        }
      }
    }
  }
  attr {
    key: "use_locking"
    value {
      b: true
    }
  }
  attr {
    key: "validate_shape"
    value {
      b: true
    }
  }
}
node {
  name: "save/RestoreV2_16/tensor_names"
  op: "Const"
  attr {
    key: "_output_shapes"
    value {
      list {
        shape {
          dim {
            size: 1
          }
        }
      }
    }
  }
  attr {
    key: "dtype"
    value {
      type: DT_STRING
    }
  }
  attr {
    key: "value"
    value {
      tensor {
        dtype: DT_STRING
        tensor_shape {
          dim {
            size: 1
          }
        }
        string_val: "Model/Model/LSTM/softmax_w/Adam"
      }
    }
  }
}
node {
  name: "save/RestoreV2_16/shape_and_slices"
  op: "Const"
  attr {
    key: "_output_shapes"
    value {
      list {
        shape {
          dim {
            size: 1
          }
        }
      }
    }
  }
  attr {
    key: "dtype"
    value {
      type: DT_STRING
    }
  }
  attr {
    key: "value"
    value {
      tensor {
        dtype: DT_STRING
        tensor_shape {
          dim {
            size: 1
          }
        }
        string_val: ""
      }
    }
  }
}
node {
  name: "save/RestoreV2_16"
  op: "RestoreV2"
  input: "save/Const"
  input: "save/RestoreV2_16/tensor_names"
  input: "save/RestoreV2_16/shape_and_slices"
  attr {
    key: "_output_shapes"
    value {
      list {
        shape {
          unknown_rank: true
        }
      }
    }
  }
  attr {
    key: "dtypes"
    value {
      list {
        type: DT_HALF
      }
    }
  }
}
node {
  name: "save/Assign_16"
  op: "Assign"
  input: "Model/Model/LSTM/softmax_w/Adam"
  input: "save/RestoreV2_16"
  attr {
    key: "T"
    value {
      type: DT_HALF
    }
  }
  attr {
    key: "_class"
    value {
      list {
        s: "loc:@Model/LSTM/softmax_w"
      }
    }
  }
  attr {
    key: "_output_shapes"
    value {
      list {
        shape {
          dim {
            size: 128
          }
          dim {
            size: 104
          }
        }
      }
    }
  }
  attr {
    key: "use_locking"
    value {
      b: true
    }
  }
  attr {
    key: "validate_shape"
    value {
      b: true
    }
  }
}
node {
  name: "save/RestoreV2_17/tensor_names"
  op: "Const"
  attr {
    key: "_output_shapes"
    value {
      list {
        shape {
          dim {
            size: 1
          }
        }
      }
    }
  }
  attr {
    key: "dtype"
    value {
      type: DT_STRING
    }
  }
  attr {
    key: "value"
    value {
      tensor {
        dtype: DT_STRING
        tensor_shape {
          dim {
            size: 1
          }
        }
        string_val: "Model/Model/LSTM/softmax_w/Adam_1"
      }
    }
  }
}
node {
  name: "save/RestoreV2_17/shape_and_slices"
  op: "Const"
  attr {
    key: "_output_shapes"
    value {
      list {
        shape {
          dim {
            size: 1
          }
        }
      }
    }
  }
  attr {
    key: "dtype"
    value {
      type: DT_STRING
    }
  }
  attr {
    key: "value"
    value {
      tensor {
        dtype: DT_STRING
        tensor_shape {
          dim {
            size: 1
          }
        }
        string_val: ""
      }
    }
  }
}
node {
  name: "save/RestoreV2_17"
  op: "RestoreV2"
  input: "save/Const"
  input: "save/RestoreV2_17/tensor_names"
  input: "save/RestoreV2_17/shape_and_slices"
  attr {
    key: "_output_shapes"
    value {
      list {
        shape {
          unknown_rank: true
        }
      }
    }
  }
  attr {
    key: "dtypes"
    value {
      list {
        type: DT_HALF
      }
    }
  }
}
node {
  name: "save/Assign_17"
  op: "Assign"
  input: "Model/Model/LSTM/softmax_w/Adam_1"
  input: "save/RestoreV2_17"
  attr {
    key: "T"
    value {
      type: DT_HALF
    }
  }
  attr {
    key: "_class"
    value {
      list {
        s: "loc:@Model/LSTM/softmax_w"
      }
    }
  }
  attr {
    key: "_output_shapes"
    value {
      list {
        shape {
          dim {
            size: 128
          }
          dim {
            size: 104
          }
        }
      }
    }
  }
  attr {
    key: "use_locking"
    value {
      b: true
    }
  }
  attr {
    key: "validate_shape"
    value {
      b: true
    }
  }
}
node {
  name: "save/RestoreV2_18/tensor_names"
  op: "Const"
  attr {
    key: "_output_shapes"
    value {
      list {
        shape {
          dim {
            size: 1
          }
        }
      }
    }
  }
  attr {
    key: "dtype"
    value {
      type: DT_STRING
    }
  }
  attr {
    key: "value"
    value {
      tensor {
        dtype: DT_STRING
        tensor_shape {
          dim {
            size: 1
          }
        }
        string_val: "Train/Model/Variable"
      }
    }
  }
}
node {
  name: "save/RestoreV2_18/shape_and_slices"
  op: "Const"
  attr {
    key: "_output_shapes"
    value {
      list {
        shape {
          dim {
            size: 1
          }
        }
      }
    }
  }
  attr {
    key: "dtype"
    value {
      type: DT_STRING
    }
  }
  attr {
    key: "value"
    value {
      tensor {
        dtype: DT_STRING
        tensor_shape {
          dim {
            size: 1
          }
        }
        string_val: ""
      }
    }
  }
}
node {
  name: "save/RestoreV2_18"
  op: "RestoreV2"
  input: "save/Const"
  input: "save/RestoreV2_18/tensor_names"
  input: "save/RestoreV2_18/shape_and_slices"
  attr {
    key: "_output_shapes"
    value {
      list {
        shape {
          unknown_rank: true
        }
      }
    }
  }
  attr {
    key: "dtypes"
    value {
      list {
        type: DT_FLOAT
      }
    }
  }
}
node {
  name: "save/Assign_18"
  op: "Assign"
  input: "Train/Model/Variable"
  input: "save/RestoreV2_18"
  attr {
    key: "T"
    value {
      type: DT_FLOAT
    }
  }
  attr {
    key: "_class"
    value {
      list {
        s: "loc:@Train/Model/Variable"
      }
    }
  }
  attr {
    key: "_output_shapes"
    value {
      list {
        shape {
        }
      }
    }
  }
  attr {
    key: "use_locking"
    value {
      b: true
    }
  }
  attr {
    key: "validate_shape"
    value {
      b: true
    }
  }
}
node {
  name: "save/RestoreV2_19/tensor_names"
  op: "Const"
  attr {
    key: "_output_shapes"
    value {
      list {
        shape {
          dim {
            size: 1
          }
        }
      }
    }
  }
  attr {
    key: "dtype"
    value {
      type: DT_STRING
    }
  }
  attr {
    key: "value"
    value {
      tensor {
        dtype: DT_STRING
        tensor_shape {
          dim {
            size: 1
          }
        }
        string_val: "Train/Model/beta1_power"
      }
    }
  }
}
node {
  name: "save/RestoreV2_19/shape_and_slices"
  op: "Const"
  attr {
    key: "_output_shapes"
    value {
      list {
        shape {
          dim {
            size: 1
          }
        }
      }
    }
  }
  attr {
    key: "dtype"
    value {
      type: DT_STRING
    }
  }
  attr {
    key: "value"
    value {
      tensor {
        dtype: DT_STRING
        tensor_shape {
          dim {
            size: 1
          }
        }
        string_val: ""
      }
    }
  }
}
node {
  name: "save/RestoreV2_19"
  op: "RestoreV2"
  input: "save/Const"
  input: "save/RestoreV2_19/tensor_names"
  input: "save/RestoreV2_19/shape_and_slices"
  attr {
    key: "_output_shapes"
    value {
      list {
        shape {
          unknown_rank: true
        }
      }
    }
  }
  attr {
    key: "dtypes"
    value {
      list {
        type: DT_FLOAT
      }
    }
  }
}
node {
  name: "save/Assign_19"
  op: "Assign"
  input: "Train/Model/beta1_power"
  input: "save/RestoreV2_19"
  attr {
    key: "T"
    value {
      type: DT_FLOAT
    }
  }
  attr {
    key: "_class"
    value {
      list {
        s: "loc:@Model/LSTM/rnn/multi_rnn_cell/cell_0/basic_lstm_cell/weights"
      }
    }
  }
  attr {
    key: "_output_shapes"
    value {
      list {
        shape {
        }
      }
    }
  }
  attr {
    key: "use_locking"
    value {
      b: true
    }
  }
  attr {
    key: "validate_shape"
    value {
      b: true
    }
  }
}
node {
  name: "save/RestoreV2_20/tensor_names"
  op: "Const"
  attr {
    key: "_output_shapes"
    value {
      list {
        shape {
          dim {
            size: 1
          }
        }
      }
    }
  }
  attr {
    key: "dtype"
    value {
      type: DT_STRING
    }
  }
  attr {
    key: "value"
    value {
      tensor {
        dtype: DT_STRING
        tensor_shape {
          dim {
            size: 1
          }
        }
        string_val: "Train/Model/beta2_power"
      }
    }
  }
}
node {
  name: "save/RestoreV2_20/shape_and_slices"
  op: "Const"
  attr {
    key: "_output_shapes"
    value {
      list {
        shape {
          dim {
            size: 1
          }
        }
      }
    }
  }
  attr {
    key: "dtype"
    value {
      type: DT_STRING
    }
  }
  attr {
    key: "value"
    value {
      tensor {
        dtype: DT_STRING
        tensor_shape {
          dim {
            size: 1
          }
        }
        string_val: ""
      }
    }
  }
}
node {
  name: "save/RestoreV2_20"
  op: "RestoreV2"
  input: "save/Const"
  input: "save/RestoreV2_20/tensor_names"
  input: "save/RestoreV2_20/shape_and_slices"
  attr {
    key: "_output_shapes"
    value {
      list {
        shape {
          unknown_rank: true
        }
      }
    }
  }
  attr {
    key: "dtypes"
    value {
      list {
        type: DT_FLOAT
      }
    }
  }
}
node {
  name: "save/Assign_20"
  op: "Assign"
  input: "Train/Model/beta2_power"
  input: "save/RestoreV2_20"
  attr {
    key: "T"
    value {
      type: DT_FLOAT
    }
  }
  attr {
    key: "_class"
    value {
      list {
        s: "loc:@Model/LSTM/rnn/multi_rnn_cell/cell_0/basic_lstm_cell/weights"
      }
    }
  }
  attr {
    key: "_output_shapes"
    value {
      list {
        shape {
        }
      }
    }
  }
  attr {
    key: "use_locking"
    value {
      b: true
    }
  }
  attr {
    key: "validate_shape"
    value {
      b: true
    }
  }
}
node {
  name: "save/restore_all"
  op: "NoOp"
  input: "^save/Assign"
  input: "^save/Assign_1"
  input: "^save/Assign_2"
  input: "^save/Assign_3"
  input: "^save/Assign_4"
  input: "^save/Assign_5"
  input: "^save/Assign_6"
  input: "^save/Assign_7"
  input: "^save/Assign_8"
  input: "^save/Assign_9"
  input: "^save/Assign_10"
  input: "^save/Assign_11"
  input: "^save/Assign_12"
  input: "^save/Assign_13"
  input: "^save/Assign_14"
  input: "^save/Assign_15"
  input: "^save/Assign_16"
  input: "^save/Assign_17"
  input: "^save/Assign_18"
  input: "^save/Assign_19"
  input: "^save/Assign_20"
}
versions {
  producer: 21
}
