node {
  name: "Train/Model/LSTM/Input/inputs"
  op: "Placeholder"
  attr {
    key: "_output_shapes"
    value {
      list {
        shape {
          dim {
            size: 1024
          }
          dim {
            size: 50
          }
          dim {
            size: 157
          }
        }
      }
    }
  }
  attr {
    key: "dtype"
    value {
      type: DT_HALF
    }
  }
  attr {
    key: "shape"
    value {
      shape {
        dim {
          size: 1024
        }
        dim {
          size: 50
        }
        dim {
          size: 157
        }
      }
    }
  }
}
node {
  name: "Train/Model/LSTM/Input/labels"
  op: "Placeholder"
  attr {
    key: "_output_shapes"
    value {
      list {
        shape {
          dim {
            size: 1024
          }
          dim {
            size: 50
          }
          dim {
            size: 157
          }
        }
      }
    }
  }
  attr {
    key: "dtype"
    value {
      type: DT_HALF
    }
  }
  attr {
    key: "shape"
    value {
      shape {
        dim {
          size: 1024
        }
        dim {
          size: 50
        }
        dim {
          size: 157
        }
      }
    }
  }
}
node {
  name: "Train/Model/LSTM/stack"
  op: "Const"
  attr {
    key: "_output_shapes"
    value {
      list {
        shape {
          dim {
            size: 2
          }
        }
      }
    }
  }
  attr {
    key: "dtype"
    value {
      type: DT_INT32
    }
  }
  attr {
    key: "value"
    value {
      tensor {
        dtype: DT_INT32
        tensor_shape {
          dim {
            size: 2
          }
        }
        tensor_content: "\000\004\000\000\000\004\000\000"
      }
    }
  }
}
node {
  name: "Train/Model/LSTM/zeros/Const"
  op: "Const"
  attr {
    key: "_output_shapes"
    value {
      list {
        shape {
        }
      }
    }
  }
  attr {
    key: "dtype"
    value {
      type: DT_HALF
    }
  }
  attr {
    key: "value"
    value {
      tensor {
        dtype: DT_HALF
        tensor_shape {
        }
        half_val: 0
      }
    }
  }
}
node {
  name: "Train/Model/LSTM/zeros"
  op: "Fill"
  input: "Train/Model/LSTM/stack"
  input: "Train/Model/LSTM/zeros/Const"
  attr {
    key: "T"
    value {
      type: DT_HALF
    }
  }
  attr {
    key: "_output_shapes"
    value {
      list {
        shape {
          dim {
            size: 1024
          }
          dim {
            size: 1024
          }
        }
      }
    }
  }
}
node {
  name: "Train/Model/LSTM/stack_1"
  op: "Const"
  attr {
    key: "_output_shapes"
    value {
      list {
        shape {
          dim {
            size: 2
          }
        }
      }
    }
  }
  attr {
    key: "dtype"
    value {
      type: DT_INT32
    }
  }
  attr {
    key: "value"
    value {
      tensor {
        dtype: DT_INT32
        tensor_shape {
          dim {
            size: 2
          }
        }
        tensor_content: "\000\004\000\000\000\004\000\000"
      }
    }
  }
}
node {
  name: "Train/Model/LSTM/zeros_1/Const"
  op: "Const"
  attr {
    key: "_output_shapes"
    value {
      list {
        shape {
        }
      }
    }
  }
  attr {
    key: "dtype"
    value {
      type: DT_HALF
    }
  }
  attr {
    key: "value"
    value {
      tensor {
        dtype: DT_HALF
        tensor_shape {
        }
        half_val: 0
      }
    }
  }
}
node {
  name: "Train/Model/LSTM/zeros_1"
  op: "Fill"
  input: "Train/Model/LSTM/stack_1"
  input: "Train/Model/LSTM/zeros_1/Const"
  attr {
    key: "T"
    value {
      type: DT_HALF
    }
  }
  attr {
    key: "_output_shapes"
    value {
      list {
        shape {
          dim {
            size: 1024
          }
          dim {
            size: 1024
          }
        }
      }
    }
  }
}
node {
  name: "Train/Model/LSTM/transpose/perm"
  op: "Const"
  attr {
    key: "_output_shapes"
    value {
      list {
        shape {
          dim {
            size: 3
          }
        }
      }
    }
  }
  attr {
    key: "dtype"
    value {
      type: DT_INT32
    }
  }
  attr {
    key: "value"
    value {
      tensor {
        dtype: DT_INT32
        tensor_shape {
          dim {
            size: 3
          }
        }
        tensor_content: "\001\000\000\000\000\000\000\000\002\000\000\000"
      }
    }
  }
}
node {
  name: "Train/Model/LSTM/transpose"
  op: "Transpose"
  input: "Train/Model/LSTM/Input/inputs"
  input: "Train/Model/LSTM/transpose/perm"
  attr {
    key: "T"
    value {
      type: DT_HALF
    }
  }
  attr {
    key: "Tperm"
    value {
      type: DT_INT32
    }
  }
  attr {
    key: "_output_shapes"
    value {
      list {
        shape {
          dim {
            size: 50
          }
          dim {
            size: 1024
          }
          dim {
            size: 157
          }
        }
      }
    }
  }
}
node {
  name: "Train/Model/LSTM/rnn/Shape"
  op: "Const"
  attr {
    key: "_output_shapes"
    value {
      list {
        shape {
          dim {
            size: 3
          }
        }
      }
    }
  }
  attr {
    key: "dtype"
    value {
      type: DT_INT32
    }
  }
  attr {
    key: "value"
    value {
      tensor {
        dtype: DT_INT32
        tensor_shape {
          dim {
            size: 3
          }
        }
        tensor_content: "2\000\000\000\000\004\000\000\235\000\000\000"
      }
    }
  }
}
node {
  name: "Train/Model/LSTM/rnn/strided_slice/stack"
  op: "Const"
  attr {
    key: "_output_shapes"
    value {
      list {
        shape {
          dim {
            size: 1
          }
        }
      }
    }
  }
  attr {
    key: "dtype"
    value {
      type: DT_INT32
    }
  }
  attr {
    key: "value"
    value {
      tensor {
        dtype: DT_INT32
        tensor_shape {
          dim {
            size: 1
          }
        }
        int_val: 1
      }
    }
  }
}
node {
  name: "Train/Model/LSTM/rnn/strided_slice/stack_1"
  op: "Const"
  attr {
    key: "_output_shapes"
    value {
      list {
        shape {
          dim {
            size: 1
          }
        }
      }
    }
  }
  attr {
    key: "dtype"
    value {
      type: DT_INT32
    }
  }
  attr {
    key: "value"
    value {
      tensor {
        dtype: DT_INT32
        tensor_shape {
          dim {
            size: 1
          }
        }
        int_val: 2
      }
    }
  }
}
node {
  name: "Train/Model/LSTM/rnn/strided_slice/stack_2"
  op: "Const"
  attr {
    key: "_output_shapes"
    value {
      list {
        shape {
          dim {
            size: 1
          }
        }
      }
    }
  }
  attr {
    key: "dtype"
    value {
      type: DT_INT32
    }
  }
  attr {
    key: "value"
    value {
      tensor {
        dtype: DT_INT32
        tensor_shape {
          dim {
            size: 1
          }
        }
        int_val: 1
      }
    }
  }
}
node {
  name: "Train/Model/LSTM/rnn/strided_slice"
  op: "StridedSlice"
  input: "Train/Model/LSTM/rnn/Shape"
  input: "Train/Model/LSTM/rnn/strided_slice/stack"
  input: "Train/Model/LSTM/rnn/strided_slice/stack_1"
  input: "Train/Model/LSTM/rnn/strided_slice/stack_2"
  attr {
    key: "Index"
    value {
      type: DT_INT32
    }
  }
  attr {
    key: "T"
    value {
      type: DT_INT32
    }
  }
  attr {
    key: "_output_shapes"
    value {
      list {
        shape {
        }
      }
    }
  }
  attr {
    key: "begin_mask"
    value {
      i: 0
    }
  }
  attr {
    key: "ellipsis_mask"
    value {
      i: 0
    }
  }
  attr {
    key: "end_mask"
    value {
      i: 0
    }
  }
  attr {
    key: "new_axis_mask"
    value {
      i: 0
    }
  }
  attr {
    key: "shrink_axis_mask"
    value {
      i: 1
    }
  }
}
node {
  name: "Train/Model/LSTM/rnn/strided_slice_1/stack"
  op: "Const"
  attr {
    key: "_output_shapes"
    value {
      list {
        shape {
          dim {
            size: 1
          }
        }
      }
    }
  }
  attr {
    key: "dtype"
    value {
      type: DT_INT32
    }
  }
  attr {
    key: "value"
    value {
      tensor {
        dtype: DT_INT32
        tensor_shape {
          dim {
            size: 1
          }
        }
        int_val: 1
      }
    }
  }
}
node {
  name: "Train/Model/LSTM/rnn/strided_slice_1/stack_1"
  op: "Const"
  attr {
    key: "_output_shapes"
    value {
      list {
        shape {
          dim {
            size: 1
          }
        }
      }
    }
  }
  attr {
    key: "dtype"
    value {
      type: DT_INT32
    }
  }
  attr {
    key: "value"
    value {
      tensor {
        dtype: DT_INT32
        tensor_shape {
          dim {
            size: 1
          }
        }
        int_val: 2
      }
    }
  }
}
node {
  name: "Train/Model/LSTM/rnn/strided_slice_1/stack_2"
  op: "Const"
  attr {
    key: "_output_shapes"
    value {
      list {
        shape {
          dim {
            size: 1
          }
        }
      }
    }
  }
  attr {
    key: "dtype"
    value {
      type: DT_INT32
    }
  }
  attr {
    key: "value"
    value {
      tensor {
        dtype: DT_INT32
        tensor_shape {
          dim {
            size: 1
          }
        }
        int_val: 1
      }
    }
  }
}
node {
  name: "Train/Model/LSTM/rnn/strided_slice_1"
  op: "StridedSlice"
  input: "Train/Model/LSTM/rnn/Shape"
  input: "Train/Model/LSTM/rnn/strided_slice_1/stack"
  input: "Train/Model/LSTM/rnn/strided_slice_1/stack_1"
  input: "Train/Model/LSTM/rnn/strided_slice_1/stack_2"
  attr {
    key: "Index"
    value {
      type: DT_INT32
    }
  }
  attr {
    key: "T"
    value {
      type: DT_INT32
    }
  }
  attr {
    key: "_output_shapes"
    value {
      list {
        shape {
        }
      }
    }
  }
  attr {
    key: "begin_mask"
    value {
      i: 0
    }
  }
  attr {
    key: "ellipsis_mask"
    value {
      i: 0
    }
  }
  attr {
    key: "end_mask"
    value {
      i: 0
    }
  }
  attr {
    key: "new_axis_mask"
    value {
      i: 0
    }
  }
  attr {
    key: "shrink_axis_mask"
    value {
      i: 1
    }
  }
}
node {
  name: "Train/Model/LSTM/rnn/Shape_1"
  op: "Const"
  attr {
    key: "_output_shapes"
    value {
      list {
        shape {
          dim {
            size: 3
          }
        }
      }
    }
  }
  attr {
    key: "dtype"
    value {
      type: DT_INT32
    }
  }
  attr {
    key: "value"
    value {
      tensor {
        dtype: DT_INT32
        tensor_shape {
          dim {
            size: 3
          }
        }
        tensor_content: "2\000\000\000\000\004\000\000\235\000\000\000"
      }
    }
  }
}
node {
  name: "Train/Model/LSTM/rnn/strided_slice_2/stack"
  op: "Const"
  attr {
    key: "_output_shapes"
    value {
      list {
        shape {
          dim {
            size: 1
          }
        }
      }
    }
  }
  attr {
    key: "dtype"
    value {
      type: DT_INT32
    }
  }
  attr {
    key: "value"
    value {
      tensor {
        dtype: DT_INT32
        tensor_shape {
          dim {
            size: 1
          }
        }
        int_val: 0
      }
    }
  }
}
node {
  name: "Train/Model/LSTM/rnn/strided_slice_2/stack_1"
  op: "Const"
  attr {
    key: "_output_shapes"
    value {
      list {
        shape {
          dim {
            size: 1
          }
        }
      }
    }
  }
  attr {
    key: "dtype"
    value {
      type: DT_INT32
    }
  }
  attr {
    key: "value"
    value {
      tensor {
        dtype: DT_INT32
        tensor_shape {
          dim {
            size: 1
          }
        }
        int_val: 1
      }
    }
  }
}
node {
  name: "Train/Model/LSTM/rnn/strided_slice_2/stack_2"
  op: "Const"
  attr {
    key: "_output_shapes"
    value {
      list {
        shape {
          dim {
            size: 1
          }
        }
      }
    }
  }
  attr {
    key: "dtype"
    value {
      type: DT_INT32
    }
  }
  attr {
    key: "value"
    value {
      tensor {
        dtype: DT_INT32
        tensor_shape {
          dim {
            size: 1
          }
        }
        int_val: 1
      }
    }
  }
}
node {
  name: "Train/Model/LSTM/rnn/strided_slice_2"
  op: "StridedSlice"
  input: "Train/Model/LSTM/rnn/Shape_1"
  input: "Train/Model/LSTM/rnn/strided_slice_2/stack"
  input: "Train/Model/LSTM/rnn/strided_slice_2/stack_1"
  input: "Train/Model/LSTM/rnn/strided_slice_2/stack_2"
  attr {
    key: "Index"
    value {
      type: DT_INT32
    }
  }
  attr {
    key: "T"
    value {
      type: DT_INT32
    }
  }
  attr {
    key: "_output_shapes"
    value {
      list {
        shape {
        }
      }
    }
  }
  attr {
    key: "begin_mask"
    value {
      i: 0
    }
  }
  attr {
    key: "ellipsis_mask"
    value {
      i: 0
    }
  }
  attr {
    key: "end_mask"
    value {
      i: 0
    }
  }
  attr {
    key: "new_axis_mask"
    value {
      i: 0
    }
  }
  attr {
    key: "shrink_axis_mask"
    value {
      i: 1
    }
  }
}
node {
  name: "Train/Model/LSTM/rnn/strided_slice_3/stack"
  op: "Const"
  attr {
    key: "_output_shapes"
    value {
      list {
        shape {
          dim {
            size: 1
          }
        }
      }
    }
  }
  attr {
    key: "dtype"
    value {
      type: DT_INT32
    }
  }
  attr {
    key: "value"
    value {
      tensor {
        dtype: DT_INT32
        tensor_shape {
          dim {
            size: 1
          }
        }
        int_val: 1
      }
    }
  }
}
node {
  name: "Train/Model/LSTM/rnn/strided_slice_3/stack_1"
  op: "Const"
  attr {
    key: "_output_shapes"
    value {
      list {
        shape {
          dim {
            size: 1
          }
        }
      }
    }
  }
  attr {
    key: "dtype"
    value {
      type: DT_INT32
    }
  }
  attr {
    key: "value"
    value {
      tensor {
        dtype: DT_INT32
        tensor_shape {
          dim {
            size: 1
          }
        }
        int_val: 2
      }
    }
  }
}
node {
  name: "Train/Model/LSTM/rnn/strided_slice_3/stack_2"
  op: "Const"
  attr {
    key: "_output_shapes"
    value {
      list {
        shape {
          dim {
            size: 1
          }
        }
      }
    }
  }
  attr {
    key: "dtype"
    value {
      type: DT_INT32
    }
  }
  attr {
    key: "value"
    value {
      tensor {
        dtype: DT_INT32
        tensor_shape {
          dim {
            size: 1
          }
        }
        int_val: 1
      }
    }
  }
}
node {
  name: "Train/Model/LSTM/rnn/strided_slice_3"
  op: "StridedSlice"
  input: "Train/Model/LSTM/rnn/Shape_1"
  input: "Train/Model/LSTM/rnn/strided_slice_3/stack"
  input: "Train/Model/LSTM/rnn/strided_slice_3/stack_1"
  input: "Train/Model/LSTM/rnn/strided_slice_3/stack_2"
  attr {
    key: "Index"
    value {
      type: DT_INT32
    }
  }
  attr {
    key: "T"
    value {
      type: DT_INT32
    }
  }
  attr {
    key: "_output_shapes"
    value {
      list {
        shape {
        }
      }
    }
  }
  attr {
    key: "begin_mask"
    value {
      i: 0
    }
  }
  attr {
    key: "ellipsis_mask"
    value {
      i: 0
    }
  }
  attr {
    key: "end_mask"
    value {
      i: 0
    }
  }
  attr {
    key: "new_axis_mask"
    value {
      i: 0
    }
  }
  attr {
    key: "shrink_axis_mask"
    value {
      i: 1
    }
  }
}
node {
  name: "Train/Model/LSTM/rnn/stack/1"
  op: "Const"
  attr {
    key: "_output_shapes"
    value {
      list {
        shape {
        }
      }
    }
  }
  attr {
    key: "dtype"
    value {
      type: DT_INT32
    }
  }
  attr {
    key: "value"
    value {
      tensor {
        dtype: DT_INT32
        tensor_shape {
        }
        int_val: 1024
      }
    }
  }
}
node {
  name: "Train/Model/LSTM/rnn/stack"
  op: "Pack"
  input: "Train/Model/LSTM/rnn/strided_slice_3"
  input: "Train/Model/LSTM/rnn/stack/1"
  attr {
    key: "N"
    value {
      i: 2
    }
  }
  attr {
    key: "T"
    value {
      type: DT_INT32
    }
  }
  attr {
    key: "_output_shapes"
    value {
      list {
        shape {
          dim {
            size: 2
          }
        }
      }
    }
  }
  attr {
    key: "axis"
    value {
      i: 0
    }
  }
}
node {
  name: "Train/Model/LSTM/rnn/zeros/Const"
  op: "Const"
  attr {
    key: "_output_shapes"
    value {
      list {
        shape {
        }
      }
    }
  }
  attr {
    key: "dtype"
    value {
      type: DT_HALF
    }
  }
  attr {
    key: "value"
    value {
      tensor {
        dtype: DT_HALF
        tensor_shape {
        }
        half_val: 0
      }
    }
  }
}
node {
  name: "Train/Model/LSTM/rnn/zeros"
  op: "Fill"
  input: "Train/Model/LSTM/rnn/stack"
  input: "Train/Model/LSTM/rnn/zeros/Const"
  attr {
    key: "T"
    value {
      type: DT_HALF
    }
  }
  attr {
    key: "_output_shapes"
    value {
      list {
        shape {
          dim {
            size: -1
          }
          dim {
            size: 1024
          }
        }
      }
    }
  }
}
node {
  name: "Train/Model/LSTM/rnn/time"
  op: "Const"
  attr {
    key: "_output_shapes"
    value {
      list {
        shape {
        }
      }
    }
  }
  attr {
    key: "dtype"
    value {
      type: DT_INT32
    }
  }
  attr {
    key: "value"
    value {
      tensor {
        dtype: DT_INT32
        tensor_shape {
        }
        int_val: 0
      }
    }
  }
}
node {
  name: "Train/Model/LSTM/rnn/TensorArray"
  op: "TensorArrayV3"
  input: "Train/Model/LSTM/rnn/strided_slice_2"
  attr {
    key: "_output_shapes"
    value {
      list {
        shape {
          dim {
            size: 2
          }
        }
        shape {
          unknown_rank: true
        }
      }
    }
  }
  attr {
    key: "clear_after_read"
    value {
      b: true
    }
  }
  attr {
    key: "dtype"
    value {
      type: DT_HALF
    }
  }
  attr {
    key: "dynamic_size"
    value {
      b: false
    }
  }
  attr {
    key: "element_shape"
    value {
      shape {
        unknown_rank: true
      }
    }
  }
  attr {
    key: "tensor_array_name"
    value {
      s: "Train/Model/LSTM/rnn/dynamic_rnn/output_0"
    }
  }
}
node {
  name: "Train/Model/LSTM/rnn/TensorArray_1"
  op: "TensorArrayV3"
  input: "Train/Model/LSTM/rnn/strided_slice_2"
  attr {
    key: "_output_shapes"
    value {
      list {
        shape {
          dim {
            size: 2
          }
        }
        shape {
          unknown_rank: true
        }
      }
    }
  }
  attr {
    key: "clear_after_read"
    value {
      b: true
    }
  }
  attr {
    key: "dtype"
    value {
      type: DT_HALF
    }
  }
  attr {
    key: "dynamic_size"
    value {
      b: false
    }
  }
  attr {
    key: "element_shape"
    value {
      shape {
        unknown_rank: true
      }
    }
  }
  attr {
    key: "tensor_array_name"
    value {
      s: "Train/Model/LSTM/rnn/dynamic_rnn/input_0"
    }
  }
}
node {
  name: "Train/Model/LSTM/rnn/TensorArrayUnstack/Shape"
  op: "Const"
  attr {
    key: "_output_shapes"
    value {
      list {
        shape {
          dim {
            size: 3
          }
        }
      }
    }
  }
  attr {
    key: "dtype"
    value {
      type: DT_INT32
    }
  }
  attr {
    key: "value"
    value {
      tensor {
        dtype: DT_INT32
        tensor_shape {
          dim {
            size: 3
          }
        }
        tensor_content: "2\000\000\000\000\004\000\000\235\000\000\000"
      }
    }
  }
}
node {
  name: "Train/Model/LSTM/rnn/TensorArrayUnstack/strided_slice/stack"
  op: "Const"
  attr {
    key: "_output_shapes"
    value {
      list {
        shape {
          dim {
            size: 1
          }
        }
      }
    }
  }
  attr {
    key: "dtype"
    value {
      type: DT_INT32
    }
  }
  attr {
    key: "value"
    value {
      tensor {
        dtype: DT_INT32
        tensor_shape {
          dim {
            size: 1
          }
        }
        int_val: 0
      }
    }
  }
}
node {
  name: "Train/Model/LSTM/rnn/TensorArrayUnstack/strided_slice/stack_1"
  op: "Const"
  attr {
    key: "_output_shapes"
    value {
      list {
        shape {
          dim {
            size: 1
          }
        }
      }
    }
  }
  attr {
    key: "dtype"
    value {
      type: DT_INT32
    }
  }
  attr {
    key: "value"
    value {
      tensor {
        dtype: DT_INT32
        tensor_shape {
          dim {
            size: 1
          }
        }
        int_val: 1
      }
    }
  }
}
node {
  name: "Train/Model/LSTM/rnn/TensorArrayUnstack/strided_slice/stack_2"
  op: "Const"
  attr {
    key: "_output_shapes"
    value {
      list {
        shape {
          dim {
            size: 1
          }
        }
      }
    }
  }
  attr {
    key: "dtype"
    value {
      type: DT_INT32
    }
  }
  attr {
    key: "value"
    value {
      tensor {
        dtype: DT_INT32
        tensor_shape {
          dim {
            size: 1
          }
        }
        int_val: 1
      }
    }
  }
}
node {
  name: "Train/Model/LSTM/rnn/TensorArrayUnstack/strided_slice"
  op: "StridedSlice"
  input: "Train/Model/LSTM/rnn/TensorArrayUnstack/Shape"
  input: "Train/Model/LSTM/rnn/TensorArrayUnstack/strided_slice/stack"
  input: "Train/Model/LSTM/rnn/TensorArrayUnstack/strided_slice/stack_1"
  input: "Train/Model/LSTM/rnn/TensorArrayUnstack/strided_slice/stack_2"
  attr {
    key: "Index"
    value {
      type: DT_INT32
    }
  }
  attr {
    key: "T"
    value {
      type: DT_INT32
    }
  }
  attr {
    key: "_output_shapes"
    value {
      list {
        shape {
        }
      }
    }
  }
  attr {
    key: "begin_mask"
    value {
      i: 0
    }
  }
  attr {
    key: "ellipsis_mask"
    value {
      i: 0
    }
  }
  attr {
    key: "end_mask"
    value {
      i: 0
    }
  }
  attr {
    key: "new_axis_mask"
    value {
      i: 0
    }
  }
  attr {
    key: "shrink_axis_mask"
    value {
      i: 1
    }
  }
}
node {
  name: "Train/Model/LSTM/rnn/TensorArrayUnstack/range/start"
  op: "Const"
  attr {
    key: "_output_shapes"
    value {
      list {
        shape {
        }
      }
    }
  }
  attr {
    key: "dtype"
    value {
      type: DT_INT32
    }
  }
  attr {
    key: "value"
    value {
      tensor {
        dtype: DT_INT32
        tensor_shape {
        }
        int_val: 0
      }
    }
  }
}
node {
  name: "Train/Model/LSTM/rnn/TensorArrayUnstack/range/delta"
  op: "Const"
  attr {
    key: "_output_shapes"
    value {
      list {
        shape {
        }
      }
    }
  }
  attr {
    key: "dtype"
    value {
      type: DT_INT32
    }
  }
  attr {
    key: "value"
    value {
      tensor {
        dtype: DT_INT32
        tensor_shape {
        }
        int_val: 1
      }
    }
  }
}
node {
  name: "Train/Model/LSTM/rnn/TensorArrayUnstack/range"
  op: "Range"
  input: "Train/Model/LSTM/rnn/TensorArrayUnstack/range/start"
  input: "Train/Model/LSTM/rnn/TensorArrayUnstack/strided_slice"
  input: "Train/Model/LSTM/rnn/TensorArrayUnstack/range/delta"
  attr {
    key: "Tidx"
    value {
      type: DT_INT32
    }
  }
  attr {
    key: "_output_shapes"
    value {
      list {
        shape {
          dim {
            size: -1
          }
        }
      }
    }
  }
}
node {
  name: "Train/Model/LSTM/rnn/TensorArrayUnstack/TensorArrayScatter/TensorArrayScatterV3"
  op: "TensorArrayScatterV3"
  input: "Train/Model/LSTM/rnn/TensorArray_1"
  input: "Train/Model/LSTM/rnn/TensorArrayUnstack/range"
  input: "Train/Model/LSTM/transpose"
  input: "Train/Model/LSTM/rnn/TensorArray_1:1"
  attr {
    key: "T"
    value {
      type: DT_HALF
    }
  }
  attr {
    key: "_class"
    value {
      list {
        s: "loc:@Train/Model/LSTM/rnn/TensorArray_1"
      }
    }
  }
  attr {
    key: "_output_shapes"
    value {
      list {
        shape {
        }
      }
    }
  }
}
node {
  name: "Train/Model/LSTM/rnn/while/Enter"
  op: "Enter"
  input: "Train/Model/LSTM/rnn/time"
  attr {
    key: "T"
    value {
      type: DT_INT32
    }
  }
  attr {
    key: "_output_shapes"
    value {
      list {
        shape {
        }
      }
    }
  }
  attr {
    key: "frame_name"
    value {
      s: "Train/Model/LSTM/rnn/while/Train/Model/LSTM/rnn/while/"
    }
  }
  attr {
    key: "is_constant"
    value {
      b: false
    }
  }
  attr {
    key: "parallel_iterations"
    value {
      i: 32
    }
  }
}
node {
  name: "Train/Model/LSTM/rnn/while/Enter_1"
  op: "Enter"
  input: "Train/Model/LSTM/rnn/TensorArray:1"
  attr {
    key: "T"
    value {
      type: DT_FLOAT
    }
  }
  attr {
    key: "_output_shapes"
    value {
      list {
        shape {
          unknown_rank: true
        }
      }
    }
  }
  attr {
    key: "frame_name"
    value {
      s: "Train/Model/LSTM/rnn/while/Train/Model/LSTM/rnn/while/"
    }
  }
  attr {
    key: "is_constant"
    value {
      b: false
    }
  }
  attr {
    key: "parallel_iterations"
    value {
      i: 32
    }
  }
}
node {
  name: "Train/Model/LSTM/rnn/while/Enter_2"
  op: "Enter"
  input: "Train/Model/LSTM/zeros"
  attr {
    key: "T"
    value {
      type: DT_HALF
    }
  }
  attr {
    key: "_output_shapes"
    value {
      list {
        shape {
          dim {
            size: 1024
          }
          dim {
            size: 1024
          }
        }
      }
    }
  }
  attr {
    key: "frame_name"
    value {
      s: "Train/Model/LSTM/rnn/while/Train/Model/LSTM/rnn/while/"
    }
  }
  attr {
    key: "is_constant"
    value {
      b: false
    }
  }
  attr {
    key: "parallel_iterations"
    value {
      i: 32
    }
  }
}
node {
  name: "Train/Model/LSTM/rnn/while/Enter_3"
  op: "Enter"
  input: "Train/Model/LSTM/zeros_1"
  attr {
    key: "T"
    value {
      type: DT_HALF
    }
  }
  attr {
    key: "_output_shapes"
    value {
      list {
        shape {
          dim {
            size: 1024
          }
          dim {
            size: 1024
          }
        }
      }
    }
  }
  attr {
    key: "frame_name"
    value {
      s: "Train/Model/LSTM/rnn/while/Train/Model/LSTM/rnn/while/"
    }
  }
  attr {
    key: "is_constant"
    value {
      b: false
    }
  }
  attr {
    key: "parallel_iterations"
    value {
      i: 32
    }
  }
}
node {
  name: "Train/Model/LSTM/rnn/while/Merge"
  op: "Merge"
  input: "Train/Model/LSTM/rnn/while/Enter"
  input: "Train/Model/LSTM/rnn/while/NextIteration"
  attr {
    key: "N"
    value {
      i: 2
    }
  }
  attr {
    key: "T"
    value {
      type: DT_INT32
    }
  }
  attr {
    key: "_output_shapes"
    value {
      list {
        shape {
        }
        shape {
        }
      }
    }
  }
}
node {
  name: "Train/Model/LSTM/rnn/while/Merge_1"
  op: "Merge"
  input: "Train/Model/LSTM/rnn/while/Enter_1"
  input: "Train/Model/LSTM/rnn/while/NextIteration_1"
  attr {
    key: "N"
    value {
      i: 2
    }
  }
  attr {
    key: "T"
    value {
      type: DT_FLOAT
    }
  }
  attr {
    key: "_output_shapes"
    value {
      list {
        shape {
          unknown_rank: true
        }
        shape {
        }
      }
    }
  }
}
node {
  name: "Train/Model/LSTM/rnn/while/Merge_2"
  op: "Merge"
  input: "Train/Model/LSTM/rnn/while/Enter_2"
  input: "Train/Model/LSTM/rnn/while/NextIteration_2"
  attr {
    key: "N"
    value {
      i: 2
    }
  }
  attr {
    key: "T"
    value {
      type: DT_HALF
    }
  }
  attr {
    key: "_output_shapes"
    value {
      list {
        shape {
          dim {
            size: 1024
          }
          dim {
            size: 1024
          }
        }
        shape {
        }
      }
    }
  }
}
node {
  name: "Train/Model/LSTM/rnn/while/Merge_3"
  op: "Merge"
  input: "Train/Model/LSTM/rnn/while/Enter_3"
  input: "Train/Model/LSTM/rnn/while/NextIteration_3"
  attr {
    key: "N"
    value {
      i: 2
    }
  }
  attr {
    key: "T"
    value {
      type: DT_HALF
    }
  }
  attr {
    key: "_output_shapes"
    value {
      list {
        shape {
          dim {
            size: 1024
          }
          dim {
            size: 1024
          }
        }
        shape {
        }
      }
    }
  }
}
node {
  name: "Train/Model/LSTM/rnn/while/Less/Enter"
  op: "Enter"
  input: "Train/Model/LSTM/rnn/strided_slice_2"
  attr {
    key: "T"
    value {
      type: DT_INT32
    }
  }
  attr {
    key: "_output_shapes"
    value {
      list {
        shape {
        }
      }
    }
  }
  attr {
    key: "frame_name"
    value {
      s: "Train/Model/LSTM/rnn/while/Train/Model/LSTM/rnn/while/"
    }
  }
  attr {
    key: "is_constant"
    value {
      b: true
    }
  }
  attr {
    key: "parallel_iterations"
    value {
      i: 32
    }
  }
}
node {
  name: "Train/Model/LSTM/rnn/while/Less"
  op: "Less"
  input: "Train/Model/LSTM/rnn/while/Merge"
  input: "Train/Model/LSTM/rnn/while/Less/Enter"
  attr {
    key: "T"
    value {
      type: DT_INT32
    }
  }
  attr {
    key: "_output_shapes"
    value {
      list {
        shape {
        }
      }
    }
  }
}
node {
  name: "Train/Model/LSTM/rnn/while/LoopCond"
  op: "LoopCond"
  input: "Train/Model/LSTM/rnn/while/Less"
  attr {
    key: "_output_shapes"
    value {
      list {
        shape {
        }
      }
    }
  }
}
node {
  name: "Train/Model/LSTM/rnn/while/Switch"
  op: "Switch"
  input: "Train/Model/LSTM/rnn/while/Merge"
  input: "Train/Model/LSTM/rnn/while/LoopCond"
  attr {
    key: "T"
    value {
      type: DT_INT32
    }
  }
  attr {
    key: "_class"
    value {
      list {
        s: "loc:@Train/Model/LSTM/rnn/while/Merge"
      }
    }
  }
  attr {
    key: "_output_shapes"
    value {
      list {
        shape {
        }
        shape {
        }
      }
    }
  }
}
node {
  name: "Train/Model/LSTM/rnn/while/Switch_1"
  op: "Switch"
  input: "Train/Model/LSTM/rnn/while/Merge_1"
  input: "Train/Model/LSTM/rnn/while/LoopCond"
  attr {
    key: "T"
    value {
      type: DT_FLOAT
    }
  }
  attr {
    key: "_class"
    value {
      list {
        s: "loc:@Train/Model/LSTM/rnn/while/Merge_1"
      }
    }
  }
  attr {
    key: "_output_shapes"
    value {
      list {
        shape {
          unknown_rank: true
        }
        shape {
          unknown_rank: true
        }
      }
    }
  }
}
node {
  name: "Train/Model/LSTM/rnn/while/Switch_2"
  op: "Switch"
  input: "Train/Model/LSTM/rnn/while/Merge_2"
  input: "Train/Model/LSTM/rnn/while/LoopCond"
  attr {
    key: "T"
    value {
      type: DT_HALF
    }
  }
  attr {
    key: "_class"
    value {
      list {
        s: "loc:@Train/Model/LSTM/rnn/while/Merge_2"
      }
    }
  }
  attr {
    key: "_output_shapes"
    value {
      list {
        shape {
          dim {
            size: 1024
          }
          dim {
            size: 1024
          }
        }
        shape {
          dim {
            size: 1024
          }
          dim {
            size: 1024
          }
        }
      }
    }
  }
}
node {
  name: "Train/Model/LSTM/rnn/while/Switch_3"
  op: "Switch"
  input: "Train/Model/LSTM/rnn/while/Merge_3"
  input: "Train/Model/LSTM/rnn/while/LoopCond"
  attr {
    key: "T"
    value {
      type: DT_HALF
    }
  }
  attr {
    key: "_class"
    value {
      list {
        s: "loc:@Train/Model/LSTM/rnn/while/Merge_3"
      }
    }
  }
  attr {
    key: "_output_shapes"
    value {
      list {
        shape {
          dim {
            size: 1024
          }
          dim {
            size: 1024
          }
        }
        shape {
          dim {
            size: 1024
          }
          dim {
            size: 1024
          }
        }
      }
    }
  }
}
node {
  name: "Train/Model/LSTM/rnn/while/Identity"
  op: "Identity"
  input: "Train/Model/LSTM/rnn/while/Switch:1"
  attr {
    key: "T"
    value {
      type: DT_INT32
    }
  }
  attr {
    key: "_output_shapes"
    value {
      list {
        shape {
        }
      }
    }
  }
}
node {
  name: "Train/Model/LSTM/rnn/while/Identity_1"
  op: "Identity"
  input: "Train/Model/LSTM/rnn/while/Switch_1:1"
  attr {
    key: "T"
    value {
      type: DT_FLOAT
    }
  }
  attr {
    key: "_output_shapes"
    value {
      list {
        shape {
          unknown_rank: true
        }
      }
    }
  }
}
node {
  name: "Train/Model/LSTM/rnn/while/Identity_2"
  op: "Identity"
  input: "Train/Model/LSTM/rnn/while/Switch_2:1"
  attr {
    key: "T"
    value {
      type: DT_HALF
    }
  }
  attr {
    key: "_output_shapes"
    value {
      list {
        shape {
          dim {
            size: 1024
          }
          dim {
            size: 1024
          }
        }
      }
    }
  }
}
node {
  name: "Train/Model/LSTM/rnn/while/Identity_3"
  op: "Identity"
  input: "Train/Model/LSTM/rnn/while/Switch_3:1"
  attr {
    key: "T"
    value {
      type: DT_HALF
    }
  }
  attr {
    key: "_output_shapes"
    value {
      list {
        shape {
          dim {
            size: 1024
          }
          dim {
            size: 1024
          }
        }
      }
    }
  }
}
node {
  name: "Train/Model/LSTM/rnn/while/TensorArrayReadV3/Enter"
  op: "Enter"
  input: "Train/Model/LSTM/rnn/TensorArray_1"
  attr {
    key: "T"
    value {
      type: DT_RESOURCE
    }
  }
  attr {
    key: "_class"
    value {
      list {
        s: "loc:@Train/Model/LSTM/rnn/TensorArray_1"
      }
    }
  }
  attr {
    key: "_output_shapes"
    value {
      list {
        shape {
          dim {
            size: 2
          }
        }
      }
    }
  }
  attr {
    key: "frame_name"
    value {
      s: "Train/Model/LSTM/rnn/while/Train/Model/LSTM/rnn/while/"
    }
  }
  attr {
    key: "is_constant"
    value {
      b: true
    }
  }
  attr {
    key: "parallel_iterations"
    value {
      i: 32
    }
  }
}
node {
  name: "Train/Model/LSTM/rnn/while/TensorArrayReadV3/Enter_1"
  op: "Enter"
  input: "Train/Model/LSTM/rnn/TensorArrayUnstack/TensorArrayScatter/TensorArrayScatterV3"
  attr {
    key: "T"
    value {
      type: DT_FLOAT
    }
  }
  attr {
    key: "_class"
    value {
      list {
        s: "loc:@Train/Model/LSTM/rnn/TensorArray_1"
      }
    }
  }
  attr {
    key: "_output_shapes"
    value {
      list {
        shape {
        }
      }
    }
  }
  attr {
    key: "frame_name"
    value {
      s: "Train/Model/LSTM/rnn/while/Train/Model/LSTM/rnn/while/"
    }
  }
  attr {
    key: "is_constant"
    value {
      b: true
    }
  }
  attr {
    key: "parallel_iterations"
    value {
      i: 32
    }
  }
}
node {
  name: "Train/Model/LSTM/rnn/while/TensorArrayReadV3"
  op: "TensorArrayReadV3"
  input: "Train/Model/LSTM/rnn/while/TensorArrayReadV3/Enter"
  input: "Train/Model/LSTM/rnn/while/Identity"
  input: "Train/Model/LSTM/rnn/while/TensorArrayReadV3/Enter_1"
  attr {
    key: "_class"
    value {
      list {
        s: "loc:@Train/Model/LSTM/rnn/TensorArray_1"
      }
    }
  }
  attr {
    key: "_output_shapes"
    value {
      list {
        shape {
          dim {
            size: 1024
          }
          dim {
            size: 157
          }
        }
      }
    }
  }
  attr {
    key: "dtype"
    value {
      type: DT_HALF
    }
  }
}
node {
  name: "Model/LSTM/rnn/basic_lstm_cell/weights/Initializer/truncated_normal/shape"
  op: "Const"
  attr {
    key: "_class"
    value {
      list {
        s: "loc:@Model/LSTM/rnn/basic_lstm_cell/weights"
      }
    }
  }
  attr {
    key: "_output_shapes"
    value {
      list {
        shape {
          dim {
            size: 2
          }
        }
      }
    }
  }
  attr {
    key: "dtype"
    value {
      type: DT_INT32
    }
  }
  attr {
    key: "value"
    value {
      tensor {
        dtype: DT_INT32
        tensor_shape {
          dim {
            size: 2
          }
        }
        tensor_content: "\235\004\000\000\000\020\000\000"
      }
    }
  }
}
node {
  name: "Model/LSTM/rnn/basic_lstm_cell/weights/Initializer/truncated_normal/mean"
  op: "Const"
  attr {
    key: "_class"
    value {
      list {
        s: "loc:@Model/LSTM/rnn/basic_lstm_cell/weights"
      }
    }
  }
  attr {
    key: "_output_shapes"
    value {
      list {
        shape {
        }
      }
    }
  }
  attr {
    key: "dtype"
    value {
      type: DT_HALF
    }
  }
  attr {
    key: "value"
    value {
      tensor {
        dtype: DT_HALF
        tensor_shape {
        }
        half_val: 0
      }
    }
  }
}
node {
  name: "Model/LSTM/rnn/basic_lstm_cell/weights/Initializer/truncated_normal/stddev"
  op: "Const"
  attr {
    key: "_class"
    value {
      list {
        s: "loc:@Model/LSTM/rnn/basic_lstm_cell/weights"
      }
    }
  }
  attr {
    key: "_output_shapes"
    value {
      list {
        shape {
        }
      }
    }
  }
  attr {
    key: "dtype"
    value {
      type: DT_HALF
    }
  }
  attr {
    key: "value"
    value {
      tensor {
        dtype: DT_HALF
        tensor_shape {
        }
        half_val: 12089
      }
    }
  }
}
node {
  name: "Model/LSTM/rnn/basic_lstm_cell/weights/Initializer/truncated_normal/TruncatedNormal"
  op: "TruncatedNormal"
  input: "Model/LSTM/rnn/basic_lstm_cell/weights/Initializer/truncated_normal/shape"
  attr {
    key: "T"
    value {
      type: DT_INT32
    }
  }
  attr {
    key: "_class"
    value {
      list {
        s: "loc:@Model/LSTM/rnn/basic_lstm_cell/weights"
      }
    }
  }
  attr {
    key: "_output_shapes"
    value {
      list {
        shape {
          dim {
            size: 1181
          }
          dim {
            size: 4096
          }
        }
      }
    }
  }
  attr {
    key: "dtype"
    value {
      type: DT_HALF
    }
  }
  attr {
    key: "seed"
    value {
      i: 0
    }
  }
  attr {
    key: "seed2"
    value {
      i: 0
    }
  }
}
node {
  name: "Model/LSTM/rnn/basic_lstm_cell/weights/Initializer/truncated_normal/mul"
  op: "Mul"
  input: "Model/LSTM/rnn/basic_lstm_cell/weights/Initializer/truncated_normal/TruncatedNormal"
  input: "Model/LSTM/rnn/basic_lstm_cell/weights/Initializer/truncated_normal/stddev"
  attr {
    key: "T"
    value {
      type: DT_HALF
    }
  }
  attr {
    key: "_class"
    value {
      list {
        s: "loc:@Model/LSTM/rnn/basic_lstm_cell/weights"
      }
    }
  }
  attr {
    key: "_output_shapes"
    value {
      list {
        shape {
          dim {
            size: 1181
          }
          dim {
            size: 4096
          }
        }
      }
    }
  }
}
node {
  name: "Model/LSTM/rnn/basic_lstm_cell/weights/Initializer/truncated_normal"
  op: "Add"
  input: "Model/LSTM/rnn/basic_lstm_cell/weights/Initializer/truncated_normal/mul"
  input: "Model/LSTM/rnn/basic_lstm_cell/weights/Initializer/truncated_normal/mean"
  attr {
    key: "T"
    value {
      type: DT_HALF
    }
  }
  attr {
    key: "_class"
    value {
      list {
        s: "loc:@Model/LSTM/rnn/basic_lstm_cell/weights"
      }
    }
  }
  attr {
    key: "_output_shapes"
    value {
      list {
        shape {
          dim {
            size: 1181
          }
          dim {
            size: 4096
          }
        }
      }
    }
  }
}
node {
  name: "Model/LSTM/rnn/basic_lstm_cell/weights"
  op: "VariableV2"
  attr {
    key: "_class"
    value {
      list {
        s: "loc:@Model/LSTM/rnn/basic_lstm_cell/weights"
      }
    }
  }
  attr {
    key: "_output_shapes"
    value {
      list {
        shape {
          dim {
            size: 1181
          }
          dim {
            size: 4096
          }
        }
      }
    }
  }
  attr {
    key: "container"
    value {
      s: ""
    }
  }
  attr {
    key: "dtype"
    value {
      type: DT_HALF
    }
  }
  attr {
    key: "shape"
    value {
      shape {
        dim {
          size: 1181
        }
        dim {
          size: 4096
        }
      }
    }
  }
  attr {
    key: "shared_name"
    value {
      s: ""
    }
  }
}
node {
  name: "Model/LSTM/rnn/basic_lstm_cell/weights/Assign"
  op: "Assign"
  input: "Model/LSTM/rnn/basic_lstm_cell/weights"
  input: "Model/LSTM/rnn/basic_lstm_cell/weights/Initializer/truncated_normal"
  attr {
    key: "T"
    value {
      type: DT_HALF
    }
  }
  attr {
    key: "_class"
    value {
      list {
        s: "loc:@Model/LSTM/rnn/basic_lstm_cell/weights"
      }
    }
  }
  attr {
    key: "_output_shapes"
    value {
      list {
        shape {
          dim {
            size: 1181
          }
          dim {
            size: 4096
          }
        }
      }
    }
  }
  attr {
    key: "use_locking"
    value {
      b: true
    }
  }
  attr {
    key: "validate_shape"
    value {
      b: true
    }
  }
}
node {
  name: "Model/LSTM/rnn/basic_lstm_cell/weights/read"
  op: "Identity"
  input: "Model/LSTM/rnn/basic_lstm_cell/weights"
  attr {
    key: "T"
    value {
      type: DT_HALF
    }
  }
  attr {
    key: "_output_shapes"
    value {
      list {
        shape {
          dim {
            size: 1181
          }
          dim {
            size: 4096
          }
        }
      }
    }
  }
}
node {
  name: "Train/Model/LSTM/rnn/while/basic_lstm_cell/basic_lstm_cell/concat/axis"
  op: "Const"
  input: "^Train/Model/LSTM/rnn/while/Identity"
  attr {
    key: "_output_shapes"
    value {
      list {
        shape {
        }
      }
    }
  }
  attr {
    key: "dtype"
    value {
      type: DT_INT32
    }
  }
  attr {
    key: "value"
    value {
      tensor {
        dtype: DT_INT32
        tensor_shape {
        }
        int_val: 1
      }
    }
  }
}
node {
  name: "Train/Model/LSTM/rnn/while/basic_lstm_cell/basic_lstm_cell/concat"
  op: "ConcatV2"
  input: "Train/Model/LSTM/rnn/while/TensorArrayReadV3"
  input: "Train/Model/LSTM/rnn/while/Identity_3"
  input: "Train/Model/LSTM/rnn/while/basic_lstm_cell/basic_lstm_cell/concat/axis"
  attr {
    key: "N"
    value {
      i: 2
    }
  }
  attr {
    key: "T"
    value {
      type: DT_HALF
    }
  }
  attr {
    key: "Tidx"
    value {
      type: DT_INT32
    }
  }
  attr {
    key: "_output_shapes"
    value {
      list {
        shape {
          dim {
            size: 1024
          }
          dim {
            size: 1181
          }
        }
      }
    }
  }
}
node {
  name: "Train/Model/LSTM/rnn/while/basic_lstm_cell/basic_lstm_cell/MatMul/Enter"
  op: "Enter"
  input: "Model/LSTM/rnn/basic_lstm_cell/weights/read"
  attr {
    key: "T"
    value {
      type: DT_HALF
    }
  }
  attr {
    key: "_output_shapes"
    value {
      list {
        shape {
          dim {
            size: 1181
          }
          dim {
            size: 4096
          }
        }
      }
    }
  }
  attr {
    key: "frame_name"
    value {
      s: "Train/Model/LSTM/rnn/while/Train/Model/LSTM/rnn/while/"
    }
  }
  attr {
    key: "is_constant"
    value {
      b: true
    }
  }
  attr {
    key: "parallel_iterations"
    value {
      i: 32
    }
  }
}
node {
  name: "Train/Model/LSTM/rnn/while/basic_lstm_cell/basic_lstm_cell/MatMul"
  op: "MatMul"
  input: "Train/Model/LSTM/rnn/while/basic_lstm_cell/basic_lstm_cell/concat"
  input: "Train/Model/LSTM/rnn/while/basic_lstm_cell/basic_lstm_cell/MatMul/Enter"
  attr {
    key: "T"
    value {
      type: DT_HALF
    }
  }
  attr {
    key: "_output_shapes"
    value {
      list {
        shape {
          dim {
            size: 1024
          }
          dim {
            size: 4096
          }
        }
      }
    }
  }
  attr {
    key: "transpose_a"
    value {
      b: false
    }
  }
  attr {
    key: "transpose_b"
    value {
      b: false
    }
  }
}
node {
  name: "Model/LSTM/rnn/basic_lstm_cell/biases/Initializer/Const"
  op: "Const"
  attr {
    key: "_class"
    value {
      list {
        s: "loc:@Model/LSTM/rnn/basic_lstm_cell/biases"
      }
    }
  }
  attr {
    key: "_output_shapes"
    value {
      list {
        shape {
          dim {
            size: 4096
          }
        }
      }
    }
  }
  attr {
    key: "dtype"
    value {
      type: DT_HALF
    }
  }
  attr {
    key: "value"
    value {
      tensor {
        dtype: DT_HALF
        tensor_shape {
          dim {
            size: 4096
          }
        }
        half_val: 0
      }
    }
  }
}
node {
  name: "Model/LSTM/rnn/basic_lstm_cell/biases"
  op: "VariableV2"
  attr {
    key: "_class"
    value {
      list {
        s: "loc:@Model/LSTM/rnn/basic_lstm_cell/biases"
      }
    }
  }
  attr {
    key: "_output_shapes"
    value {
      list {
        shape {
          dim {
            size: 4096
          }
        }
      }
    }
  }
  attr {
    key: "container"
    value {
      s: ""
    }
  }
  attr {
    key: "dtype"
    value {
      type: DT_HALF
    }
  }
  attr {
    key: "shape"
    value {
      shape {
        dim {
          size: 4096
        }
      }
    }
  }
  attr {
    key: "shared_name"
    value {
      s: ""
    }
  }
}
node {
  name: "Model/LSTM/rnn/basic_lstm_cell/biases/Assign"
  op: "Assign"
  input: "Model/LSTM/rnn/basic_lstm_cell/biases"
  input: "Model/LSTM/rnn/basic_lstm_cell/biases/Initializer/Const"
  attr {
    key: "T"
    value {
      type: DT_HALF
    }
  }
  attr {
    key: "_class"
    value {
      list {
        s: "loc:@Model/LSTM/rnn/basic_lstm_cell/biases"
      }
    }
  }
  attr {
    key: "_output_shapes"
    value {
      list {
        shape {
          dim {
            size: 4096
          }
        }
      }
    }
  }
  attr {
    key: "use_locking"
    value {
      b: true
    }
  }
  attr {
    key: "validate_shape"
    value {
      b: true
    }
  }
}
node {
  name: "Model/LSTM/rnn/basic_lstm_cell/biases/read"
  op: "Identity"
  input: "Model/LSTM/rnn/basic_lstm_cell/biases"
  attr {
    key: "T"
    value {
      type: DT_HALF
    }
  }
  attr {
    key: "_output_shapes"
    value {
      list {
        shape {
          dim {
            size: 4096
          }
        }
      }
    }
  }
}
node {
  name: "Train/Model/LSTM/rnn/while/basic_lstm_cell/BiasAdd/Enter"
  op: "Enter"
  input: "Model/LSTM/rnn/basic_lstm_cell/biases/read"
  attr {
    key: "T"
    value {
      type: DT_HALF
    }
  }
  attr {
    key: "_output_shapes"
    value {
      list {
        shape {
          dim {
            size: 4096
          }
        }
      }
    }
  }
  attr {
    key: "frame_name"
    value {
      s: "Train/Model/LSTM/rnn/while/Train/Model/LSTM/rnn/while/"
    }
  }
  attr {
    key: "is_constant"
    value {
      b: true
    }
  }
  attr {
    key: "parallel_iterations"
    value {
      i: 32
    }
  }
}
node {
  name: "Train/Model/LSTM/rnn/while/basic_lstm_cell/BiasAdd"
  op: "BiasAdd"
  input: "Train/Model/LSTM/rnn/while/basic_lstm_cell/basic_lstm_cell/MatMul"
  input: "Train/Model/LSTM/rnn/while/basic_lstm_cell/BiasAdd/Enter"
  attr {
    key: "T"
    value {
      type: DT_HALF
    }
  }
  attr {
    key: "_output_shapes"
    value {
      list {
        shape {
          dim {
            size: 1024
          }
          dim {
            size: 4096
          }
        }
      }
    }
  }
  attr {
    key: "data_format"
    value {
      s: "NHWC"
    }
  }
}
node {
  name: "Train/Model/LSTM/rnn/while/basic_lstm_cell/split/split_dim"
  op: "Const"
  input: "^Train/Model/LSTM/rnn/while/Identity"
  attr {
    key: "_output_shapes"
    value {
      list {
        shape {
        }
      }
    }
  }
  attr {
    key: "dtype"
    value {
      type: DT_INT32
    }
  }
  attr {
    key: "value"
    value {
      tensor {
        dtype: DT_INT32
        tensor_shape {
        }
        int_val: 1
      }
    }
  }
}
node {
  name: "Train/Model/LSTM/rnn/while/basic_lstm_cell/split"
  op: "Split"
  input: "Train/Model/LSTM/rnn/while/basic_lstm_cell/split/split_dim"
  input: "Train/Model/LSTM/rnn/while/basic_lstm_cell/BiasAdd"
  attr {
    key: "T"
    value {
      type: DT_HALF
    }
  }
  attr {
    key: "_output_shapes"
    value {
      list {
        shape {
          dim {
            size: 1024
          }
          dim {
            size: 1024
          }
        }
        shape {
          dim {
            size: 1024
          }
          dim {
            size: 1024
          }
        }
        shape {
          dim {
            size: 1024
          }
          dim {
            size: 1024
          }
        }
        shape {
          dim {
            size: 1024
          }
          dim {
            size: 1024
          }
        }
      }
    }
  }
  attr {
    key: "num_split"
    value {
      i: 4
    }
  }
}
node {
  name: "Train/Model/LSTM/rnn/while/basic_lstm_cell/add/y"
  op: "Const"
  input: "^Train/Model/LSTM/rnn/while/Identity"
  attr {
    key: "_output_shapes"
    value {
      list {
        shape {
        }
      }
    }
  }
  attr {
    key: "dtype"
    value {
      type: DT_HALF
    }
  }
  attr {
    key: "value"
    value {
      tensor {
        dtype: DT_HALF
        tensor_shape {
        }
        half_val: 15360
      }
    }
  }
}
node {
  name: "Train/Model/LSTM/rnn/while/basic_lstm_cell/add"
  op: "Add"
  input: "Train/Model/LSTM/rnn/while/basic_lstm_cell/split:2"
  input: "Train/Model/LSTM/rnn/while/basic_lstm_cell/add/y"
  attr {
    key: "T"
    value {
      type: DT_HALF
    }
  }
  attr {
    key: "_output_shapes"
    value {
      list {
        shape {
          dim {
            size: 1024
          }
          dim {
            size: 1024
          }
        }
      }
    }
  }
}
node {
  name: "Train/Model/LSTM/rnn/while/basic_lstm_cell/Sigmoid"
  op: "Sigmoid"
  input: "Train/Model/LSTM/rnn/while/basic_lstm_cell/add"
  attr {
    key: "T"
    value {
      type: DT_HALF
    }
  }
  attr {
    key: "_output_shapes"
    value {
      list {
        shape {
          dim {
            size: 1024
          }
          dim {
            size: 1024
          }
        }
      }
    }
  }
}
node {
  name: "Train/Model/LSTM/rnn/while/basic_lstm_cell/mul"
  op: "Mul"
  input: "Train/Model/LSTM/rnn/while/Identity_2"
  input: "Train/Model/LSTM/rnn/while/basic_lstm_cell/Sigmoid"
  attr {
    key: "T"
    value {
      type: DT_HALF
    }
  }
  attr {
    key: "_output_shapes"
    value {
      list {
        shape {
          dim {
            size: 1024
          }
          dim {
            size: 1024
          }
        }
      }
    }
  }
}
node {
  name: "Train/Model/LSTM/rnn/while/basic_lstm_cell/Sigmoid_1"
  op: "Sigmoid"
  input: "Train/Model/LSTM/rnn/while/basic_lstm_cell/split"
  attr {
    key: "T"
    value {
      type: DT_HALF
    }
  }
  attr {
    key: "_output_shapes"
    value {
      list {
        shape {
          dim {
            size: 1024
          }
          dim {
            size: 1024
          }
        }
      }
    }
  }
}
node {
  name: "Train/Model/LSTM/rnn/while/basic_lstm_cell/Tanh"
  op: "Tanh"
  input: "Train/Model/LSTM/rnn/while/basic_lstm_cell/split:1"
  attr {
    key: "T"
    value {
      type: DT_HALF
    }
  }
  attr {
    key: "_output_shapes"
    value {
      list {
        shape {
          dim {
            size: 1024
          }
          dim {
            size: 1024
          }
        }
      }
    }
  }
}
node {
  name: "Train/Model/LSTM/rnn/while/basic_lstm_cell/mul_1"
  op: "Mul"
  input: "Train/Model/LSTM/rnn/while/basic_lstm_cell/Sigmoid_1"
  input: "Train/Model/LSTM/rnn/while/basic_lstm_cell/Tanh"
  attr {
    key: "T"
    value {
      type: DT_HALF
    }
  }
  attr {
    key: "_output_shapes"
    value {
      list {
        shape {
          dim {
            size: 1024
          }
          dim {
            size: 1024
          }
        }
      }
    }
  }
}
node {
  name: "Train/Model/LSTM/rnn/while/basic_lstm_cell/add_1"
  op: "Add"
  input: "Train/Model/LSTM/rnn/while/basic_lstm_cell/mul"
  input: "Train/Model/LSTM/rnn/while/basic_lstm_cell/mul_1"
  attr {
    key: "T"
    value {
      type: DT_HALF
    }
  }
  attr {
    key: "_output_shapes"
    value {
      list {
        shape {
          dim {
            size: 1024
          }
          dim {
            size: 1024
          }
        }
      }
    }
  }
}
node {
  name: "Train/Model/LSTM/rnn/while/basic_lstm_cell/Tanh_1"
  op: "Tanh"
  input: "Train/Model/LSTM/rnn/while/basic_lstm_cell/add_1"
  attr {
    key: "T"
    value {
      type: DT_HALF
    }
  }
  attr {
    key: "_output_shapes"
    value {
      list {
        shape {
          dim {
            size: 1024
          }
          dim {
            size: 1024
          }
        }
      }
    }
  }
}
node {
  name: "Train/Model/LSTM/rnn/while/basic_lstm_cell/Sigmoid_2"
  op: "Sigmoid"
  input: "Train/Model/LSTM/rnn/while/basic_lstm_cell/split:3"
  attr {
    key: "T"
    value {
      type: DT_HALF
    }
  }
  attr {
    key: "_output_shapes"
    value {
      list {
        shape {
          dim {
            size: 1024
          }
          dim {
            size: 1024
          }
        }
      }
    }
  }
}
node {
  name: "Train/Model/LSTM/rnn/while/basic_lstm_cell/mul_2"
  op: "Mul"
  input: "Train/Model/LSTM/rnn/while/basic_lstm_cell/Tanh_1"
  input: "Train/Model/LSTM/rnn/while/basic_lstm_cell/Sigmoid_2"
  attr {
    key: "T"
    value {
      type: DT_HALF
    }
  }
  attr {
    key: "_output_shapes"
    value {
      list {
        shape {
          dim {
            size: 1024
          }
          dim {
            size: 1024
          }
        }
      }
    }
  }
}
node {
  name: "Train/Model/LSTM/rnn/while/TensorArrayWrite/TensorArrayWriteV3/Enter"
  op: "Enter"
  input: "Train/Model/LSTM/rnn/TensorArray"
  attr {
    key: "T"
    value {
      type: DT_RESOURCE
    }
  }
  attr {
    key: "_class"
    value {
      list {
        s: "loc:@Train/Model/LSTM/rnn/TensorArray"
      }
    }
  }
  attr {
    key: "_output_shapes"
    value {
      list {
        shape {
          dim {
            size: 2
          }
        }
      }
    }
  }
  attr {
    key: "frame_name"
    value {
      s: "Train/Model/LSTM/rnn/while/Train/Model/LSTM/rnn/while/"
    }
  }
  attr {
    key: "is_constant"
    value {
      b: true
    }
  }
  attr {
    key: "parallel_iterations"
    value {
      i: 32
    }
  }
}
node {
  name: "Train/Model/LSTM/rnn/while/TensorArrayWrite/TensorArrayWriteV3"
  op: "TensorArrayWriteV3"
  input: "Train/Model/LSTM/rnn/while/TensorArrayWrite/TensorArrayWriteV3/Enter"
  input: "Train/Model/LSTM/rnn/while/Identity"
  input: "Train/Model/LSTM/rnn/while/basic_lstm_cell/mul_2"
  input: "Train/Model/LSTM/rnn/while/Identity_1"
  attr {
    key: "T"
    value {
      type: DT_HALF
    }
  }
  attr {
    key: "_class"
    value {
      list {
        s: "loc:@Train/Model/LSTM/rnn/TensorArray"
      }
    }
  }
  attr {
    key: "_output_shapes"
    value {
      list {
        shape {
        }
      }
    }
  }
}
node {
  name: "Train/Model/LSTM/rnn/while/add/y"
  op: "Const"
  input: "^Train/Model/LSTM/rnn/while/Identity"
  attr {
    key: "_output_shapes"
    value {
      list {
        shape {
        }
      }
    }
  }
  attr {
    key: "dtype"
    value {
      type: DT_INT32
    }
  }
  attr {
    key: "value"
    value {
      tensor {
        dtype: DT_INT32
        tensor_shape {
        }
        int_val: 1
      }
    }
  }
}
node {
  name: "Train/Model/LSTM/rnn/while/add"
  op: "Add"
  input: "Train/Model/LSTM/rnn/while/Identity"
  input: "Train/Model/LSTM/rnn/while/add/y"
  attr {
    key: "T"
    value {
      type: DT_INT32
    }
  }
  attr {
    key: "_output_shapes"
    value {
      list {
        shape {
        }
      }
    }
  }
}
node {
  name: "Train/Model/LSTM/rnn/while/NextIteration"
  op: "NextIteration"
  input: "Train/Model/LSTM/rnn/while/add"
  attr {
    key: "T"
    value {
      type: DT_INT32
    }
  }
  attr {
    key: "_output_shapes"
    value {
      list {
        shape {
        }
      }
    }
  }
}
node {
  name: "Train/Model/LSTM/rnn/while/NextIteration_1"
  op: "NextIteration"
  input: "Train/Model/LSTM/rnn/while/TensorArrayWrite/TensorArrayWriteV3"
  attr {
    key: "T"
    value {
      type: DT_FLOAT
    }
  }
  attr {
    key: "_output_shapes"
    value {
      list {
        shape {
        }
      }
    }
  }
}
node {
  name: "Train/Model/LSTM/rnn/while/NextIteration_2"
  op: "NextIteration"
  input: "Train/Model/LSTM/rnn/while/basic_lstm_cell/add_1"
  attr {
    key: "T"
    value {
      type: DT_HALF
    }
  }
  attr {
    key: "_output_shapes"
    value {
      list {
        shape {
          dim {
            size: 1024
          }
          dim {
            size: 1024
          }
        }
      }
    }
  }
}
node {
  name: "Train/Model/LSTM/rnn/while/NextIteration_3"
  op: "NextIteration"
  input: "Train/Model/LSTM/rnn/while/basic_lstm_cell/mul_2"
  attr {
    key: "T"
    value {
      type: DT_HALF
    }
  }
  attr {
    key: "_output_shapes"
    value {
      list {
        shape {
          dim {
            size: 1024
          }
          dim {
            size: 1024
          }
        }
      }
    }
  }
}
node {
  name: "Train/Model/LSTM/rnn/while/Exit"
  op: "Exit"
  input: "Train/Model/LSTM/rnn/while/Switch"
  attr {
    key: "T"
    value {
      type: DT_INT32
    }
  }
  attr {
    key: "_output_shapes"
    value {
      list {
        shape {
        }
      }
    }
  }
}
node {
  name: "Train/Model/LSTM/rnn/while/Exit_1"
  op: "Exit"
  input: "Train/Model/LSTM/rnn/while/Switch_1"
  attr {
    key: "T"
    value {
      type: DT_FLOAT
    }
  }
  attr {
    key: "_output_shapes"
    value {
      list {
        shape {
          unknown_rank: true
        }
      }
    }
  }
}
node {
  name: "Train/Model/LSTM/rnn/while/Exit_2"
  op: "Exit"
  input: "Train/Model/LSTM/rnn/while/Switch_2"
  attr {
    key: "T"
    value {
      type: DT_HALF
    }
  }
  attr {
    key: "_output_shapes"
    value {
      list {
        shape {
          dim {
            size: 1024
          }
          dim {
            size: 1024
          }
        }
      }
    }
  }
}
node {
  name: "Train/Model/LSTM/rnn/while/Exit_3"
  op: "Exit"
  input: "Train/Model/LSTM/rnn/while/Switch_3"
  attr {
    key: "T"
    value {
      type: DT_HALF
    }
  }
  attr {
    key: "_output_shapes"
    value {
      list {
        shape {
          dim {
            size: 1024
          }
          dim {
            size: 1024
          }
        }
      }
    }
  }
}
node {
  name: "Train/Model/LSTM/rnn/TensorArrayStack/TensorArraySizeV3"
  op: "TensorArraySizeV3"
  input: "Train/Model/LSTM/rnn/TensorArray"
  input: "Train/Model/LSTM/rnn/while/Exit_1"
  attr {
    key: "_class"
    value {
      list {
        s: "loc:@Train/Model/LSTM/rnn/TensorArray"
      }
    }
  }
  attr {
    key: "_output_shapes"
    value {
      list {
        shape {
        }
      }
    }
  }
}
node {
  name: "Train/Model/LSTM/rnn/TensorArrayStack/range/start"
  op: "Const"
  attr {
    key: "_class"
    value {
      list {
        s: "loc:@Train/Model/LSTM/rnn/TensorArray"
      }
    }
  }
  attr {
    key: "_output_shapes"
    value {
      list {
        shape {
        }
      }
    }
  }
  attr {
    key: "dtype"
    value {
      type: DT_INT32
    }
  }
  attr {
    key: "value"
    value {
      tensor {
        dtype: DT_INT32
        tensor_shape {
        }
        int_val: 0
      }
    }
  }
}
node {
  name: "Train/Model/LSTM/rnn/TensorArrayStack/range/delta"
  op: "Const"
  attr {
    key: "_class"
    value {
      list {
        s: "loc:@Train/Model/LSTM/rnn/TensorArray"
      }
    }
  }
  attr {
    key: "_output_shapes"
    value {
      list {
        shape {
        }
      }
    }
  }
  attr {
    key: "dtype"
    value {
      type: DT_INT32
    }
  }
  attr {
    key: "value"
    value {
      tensor {
        dtype: DT_INT32
        tensor_shape {
        }
        int_val: 1
      }
    }
  }
}
node {
  name: "Train/Model/LSTM/rnn/TensorArrayStack/range"
  op: "Range"
  input: "Train/Model/LSTM/rnn/TensorArrayStack/range/start"
  input: "Train/Model/LSTM/rnn/TensorArrayStack/TensorArraySizeV3"
  input: "Train/Model/LSTM/rnn/TensorArrayStack/range/delta"
  attr {
    key: "Tidx"
    value {
      type: DT_INT32
    }
  }
  attr {
    key: "_class"
    value {
      list {
        s: "loc:@Train/Model/LSTM/rnn/TensorArray"
      }
    }
  }
  attr {
    key: "_output_shapes"
    value {
      list {
        shape {
          dim {
            size: -1
          }
        }
      }
    }
  }
}
node {
  name: "Train/Model/LSTM/rnn/TensorArrayStack/TensorArrayGatherV3"
  op: "TensorArrayGatherV3"
  input: "Train/Model/LSTM/rnn/TensorArray"
  input: "Train/Model/LSTM/rnn/TensorArrayStack/range"
  input: "Train/Model/LSTM/rnn/while/Exit_1"
  attr {
    key: "_class"
    value {
      list {
        s: "loc:@Train/Model/LSTM/rnn/TensorArray"
      }
    }
  }
  attr {
    key: "_output_shapes"
    value {
      list {
        shape {
          dim {
            size: 50
          }
          dim {
            size: 1024
          }
          dim {
            size: 1024
          }
        }
      }
    }
  }
  attr {
    key: "dtype"
    value {
      type: DT_HALF
    }
  }
  attr {
    key: "element_shape"
    value {
      shape {
        dim {
          size: 1024
        }
        dim {
          size: 1024
        }
      }
    }
  }
}
node {
  name: "Train/Model/LSTM/rnn/transpose/perm"
  op: "Const"
  attr {
    key: "_output_shapes"
    value {
      list {
        shape {
          dim {
            size: 3
          }
        }
      }
    }
  }
  attr {
    key: "dtype"
    value {
      type: DT_INT32
    }
  }
  attr {
    key: "value"
    value {
      tensor {
        dtype: DT_INT32
        tensor_shape {
          dim {
            size: 3
          }
        }
        tensor_content: "\001\000\000\000\000\000\000\000\002\000\000\000"
      }
    }
  }
}
node {
  name: "Train/Model/LSTM/rnn/transpose"
  op: "Transpose"
  input: "Train/Model/LSTM/rnn/TensorArrayStack/TensorArrayGatherV3"
  input: "Train/Model/LSTM/rnn/transpose/perm"
  attr {
    key: "T"
    value {
      type: DT_HALF
    }
  }
  attr {
    key: "Tperm"
    value {
      type: DT_INT32
    }
  }
  attr {
    key: "_output_shapes"
    value {
      list {
        shape {
          dim {
            size: 1024
          }
          dim {
            size: 50
          }
          dim {
            size: 1024
          }
        }
      }
    }
  }
}
node {
  name: "Train/Model/LSTM/Reshape/shape"
  op: "Const"
  attr {
    key: "_output_shapes"
    value {
      list {
        shape {
          dim {
            size: 2
          }
        }
      }
    }
  }
  attr {
    key: "dtype"
    value {
      type: DT_INT32
    }
  }
  attr {
    key: "value"
    value {
      tensor {
        dtype: DT_INT32
        tensor_shape {
          dim {
            size: 2
          }
        }
        tensor_content: "\377\377\377\377\000\004\000\000"
      }
    }
  }
}
node {
  name: "Train/Model/LSTM/Reshape"
  op: "Reshape"
  input: "Train/Model/LSTM/rnn/transpose"
  input: "Train/Model/LSTM/Reshape/shape"
  attr {
    key: "T"
    value {
      type: DT_HALF
    }
  }
  attr {
    key: "Tshape"
    value {
      type: DT_INT32
    }
  }
  attr {
    key: "_output_shapes"
    value {
      list {
        shape {
          dim {
            size: 51200
          }
          dim {
            size: 1024
          }
        }
      }
    }
  }
}
node {
  name: "Model/LSTM/softmax_w/Initializer/truncated_normal/shape"
  op: "Const"
  attr {
    key: "_class"
    value {
      list {
        s: "loc:@Model/LSTM/softmax_w"
      }
    }
  }
  attr {
    key: "_output_shapes"
    value {
      list {
        shape {
          dim {
            size: 2
          }
        }
      }
    }
  }
  attr {
    key: "dtype"
    value {
      type: DT_INT32
    }
  }
  attr {
    key: "value"
    value {
      tensor {
        dtype: DT_INT32
        tensor_shape {
          dim {
            size: 2
          }
        }
        tensor_content: "\000\004\000\000\235\000\000\000"
      }
    }
  }
}
node {
  name: "Model/LSTM/softmax_w/Initializer/truncated_normal/mean"
  op: "Const"
  attr {
    key: "_class"
    value {
      list {
        s: "loc:@Model/LSTM/softmax_w"
      }
    }
  }
  attr {
    key: "_output_shapes"
    value {
      list {
        shape {
        }
      }
    }
  }
  attr {
    key: "dtype"
    value {
      type: DT_HALF
    }
  }
  attr {
    key: "value"
    value {
      tensor {
        dtype: DT_HALF
        tensor_shape {
        }
        half_val: 0
      }
    }
  }
}
node {
  name: "Model/LSTM/softmax_w/Initializer/truncated_normal/stddev"
  op: "Const"
  attr {
    key: "_class"
    value {
      list {
        s: "loc:@Model/LSTM/softmax_w"
      }
    }
  }
  attr {
    key: "_output_shapes"
    value {
      list {
        shape {
        }
      }
    }
  }
  attr {
    key: "dtype"
    value {
      type: DT_HALF
    }
  }
  attr {
    key: "value"
    value {
      tensor {
        dtype: DT_HALF
        tensor_shape {
        }
        half_val: 12089
      }
    }
  }
}
node {
  name: "Model/LSTM/softmax_w/Initializer/truncated_normal/TruncatedNormal"
  op: "TruncatedNormal"
  input: "Model/LSTM/softmax_w/Initializer/truncated_normal/shape"
  attr {
    key: "T"
    value {
      type: DT_INT32
    }
  }
  attr {
    key: "_class"
    value {
      list {
        s: "loc:@Model/LSTM/softmax_w"
      }
    }
  }
  attr {
    key: "_output_shapes"
    value {
      list {
        shape {
          dim {
            size: 1024
          }
          dim {
            size: 157
          }
        }
      }
    }
  }
  attr {
    key: "dtype"
    value {
      type: DT_HALF
    }
  }
  attr {
    key: "seed"
    value {
      i: 0
    }
  }
  attr {
    key: "seed2"
    value {
      i: 0
    }
  }
}
node {
  name: "Model/LSTM/softmax_w/Initializer/truncated_normal/mul"
  op: "Mul"
  input: "Model/LSTM/softmax_w/Initializer/truncated_normal/TruncatedNormal"
  input: "Model/LSTM/softmax_w/Initializer/truncated_normal/stddev"
  attr {
    key: "T"
    value {
      type: DT_HALF
    }
  }
  attr {
    key: "_class"
    value {
      list {
        s: "loc:@Model/LSTM/softmax_w"
      }
    }
  }
  attr {
    key: "_output_shapes"
    value {
      list {
        shape {
          dim {
            size: 1024
          }
          dim {
            size: 157
          }
        }
      }
    }
  }
}
node {
  name: "Model/LSTM/softmax_w/Initializer/truncated_normal"
  op: "Add"
  input: "Model/LSTM/softmax_w/Initializer/truncated_normal/mul"
  input: "Model/LSTM/softmax_w/Initializer/truncated_normal/mean"
  attr {
    key: "T"
    value {
      type: DT_HALF
    }
  }
  attr {
    key: "_class"
    value {
      list {
        s: "loc:@Model/LSTM/softmax_w"
      }
    }
  }
  attr {
    key: "_output_shapes"
    value {
      list {
        shape {
          dim {
            size: 1024
          }
          dim {
            size: 157
          }
        }
      }
    }
  }
}
node {
  name: "Model/LSTM/softmax_w"
  op: "VariableV2"
  attr {
    key: "_class"
    value {
      list {
        s: "loc:@Model/LSTM/softmax_w"
      }
    }
  }
  attr {
    key: "_output_shapes"
    value {
      list {
        shape {
          dim {
            size: 1024
          }
          dim {
            size: 157
          }
        }
      }
    }
  }
  attr {
    key: "container"
    value {
      s: ""
    }
  }
  attr {
    key: "dtype"
    value {
      type: DT_HALF
    }
  }
  attr {
    key: "shape"
    value {
      shape {
        dim {
          size: 1024
        }
        dim {
          size: 157
        }
      }
    }
  }
  attr {
    key: "shared_name"
    value {
      s: ""
    }
  }
}
node {
  name: "Model/LSTM/softmax_w/Assign"
  op: "Assign"
  input: "Model/LSTM/softmax_w"
  input: "Model/LSTM/softmax_w/Initializer/truncated_normal"
  attr {
    key: "T"
    value {
      type: DT_HALF
    }
  }
  attr {
    key: "_class"
    value {
      list {
        s: "loc:@Model/LSTM/softmax_w"
      }
    }
  }
  attr {
    key: "_output_shapes"
    value {
      list {
        shape {
          dim {
            size: 1024
          }
          dim {
            size: 157
          }
        }
      }
    }
  }
  attr {
    key: "use_locking"
    value {
      b: true
    }
  }
  attr {
    key: "validate_shape"
    value {
      b: true
    }
  }
}
node {
  name: "Model/LSTM/softmax_w/read"
  op: "Identity"
  input: "Model/LSTM/softmax_w"
  attr {
    key: "T"
    value {
      type: DT_HALF
    }
  }
  attr {
    key: "_class"
    value {
      list {
        s: "loc:@Model/LSTM/softmax_w"
      }
    }
  }
  attr {
    key: "_output_shapes"
    value {
      list {
        shape {
          dim {
            size: 1024
          }
          dim {
            size: 157
          }
        }
      }
    }
  }
}
node {
  name: "Model/LSTM/softmax_b/Initializer/truncated_normal/shape"
  op: "Const"
  attr {
    key: "_class"
    value {
      list {
        s: "loc:@Model/LSTM/softmax_b"
      }
    }
  }
  attr {
    key: "_output_shapes"
    value {
      list {
        shape {
          dim {
            size: 1
          }
        }
      }
    }
  }
  attr {
    key: "dtype"
    value {
      type: DT_INT32
    }
  }
  attr {
    key: "value"
    value {
      tensor {
        dtype: DT_INT32
        tensor_shape {
          dim {
            size: 1
          }
        }
        int_val: 157
      }
    }
  }
}
node {
  name: "Model/LSTM/softmax_b/Initializer/truncated_normal/mean"
  op: "Const"
  attr {
    key: "_class"
    value {
      list {
        s: "loc:@Model/LSTM/softmax_b"
      }
    }
  }
  attr {
    key: "_output_shapes"
    value {
      list {
        shape {
        }
      }
    }
  }
  attr {
    key: "dtype"
    value {
      type: DT_HALF
    }
  }
  attr {
    key: "value"
    value {
      tensor {
        dtype: DT_HALF
        tensor_shape {
        }
        half_val: 0
      }
    }
  }
}
node {
  name: "Model/LSTM/softmax_b/Initializer/truncated_normal/stddev"
  op: "Const"
  attr {
    key: "_class"
    value {
      list {
        s: "loc:@Model/LSTM/softmax_b"
      }
    }
  }
  attr {
    key: "_output_shapes"
    value {
      list {
        shape {
        }
      }
    }
  }
  attr {
    key: "dtype"
    value {
      type: DT_HALF
    }
  }
  attr {
    key: "value"
    value {
      tensor {
        dtype: DT_HALF
        tensor_shape {
        }
        half_val: 12089
      }
    }
  }
}
node {
  name: "Model/LSTM/softmax_b/Initializer/truncated_normal/TruncatedNormal"
  op: "TruncatedNormal"
  input: "Model/LSTM/softmax_b/Initializer/truncated_normal/shape"
  attr {
    key: "T"
    value {
      type: DT_INT32
    }
  }
  attr {
    key: "_class"
    value {
      list {
        s: "loc:@Model/LSTM/softmax_b"
      }
    }
  }
  attr {
    key: "_output_shapes"
    value {
      list {
        shape {
          dim {
            size: 157
          }
        }
      }
    }
  }
  attr {
    key: "dtype"
    value {
      type: DT_HALF
    }
  }
  attr {
    key: "seed"
    value {
      i: 0
    }
  }
  attr {
    key: "seed2"
    value {
      i: 0
    }
  }
}
node {
  name: "Model/LSTM/softmax_b/Initializer/truncated_normal/mul"
  op: "Mul"
  input: "Model/LSTM/softmax_b/Initializer/truncated_normal/TruncatedNormal"
  input: "Model/LSTM/softmax_b/Initializer/truncated_normal/stddev"
  attr {
    key: "T"
    value {
      type: DT_HALF
    }
  }
  attr {
    key: "_class"
    value {
      list {
        s: "loc:@Model/LSTM/softmax_b"
      }
    }
  }
  attr {
    key: "_output_shapes"
    value {
      list {
        shape {
          dim {
            size: 157
          }
        }
      }
    }
  }
}
node {
  name: "Model/LSTM/softmax_b/Initializer/truncated_normal"
  op: "Add"
  input: "Model/LSTM/softmax_b/Initializer/truncated_normal/mul"
  input: "Model/LSTM/softmax_b/Initializer/truncated_normal/mean"
  attr {
    key: "T"
    value {
      type: DT_HALF
    }
  }
  attr {
    key: "_class"
    value {
      list {
        s: "loc:@Model/LSTM/softmax_b"
      }
    }
  }
  attr {
    key: "_output_shapes"
    value {
      list {
        shape {
          dim {
            size: 157
          }
        }
      }
    }
  }
}
node {
  name: "Model/LSTM/softmax_b"
  op: "VariableV2"
  attr {
    key: "_class"
    value {
      list {
        s: "loc:@Model/LSTM/softmax_b"
      }
    }
  }
  attr {
    key: "_output_shapes"
    value {
      list {
        shape {
          dim {
            size: 157
          }
        }
      }
    }
  }
  attr {
    key: "container"
    value {
      s: ""
    }
  }
  attr {
    key: "dtype"
    value {
      type: DT_HALF
    }
  }
  attr {
    key: "shape"
    value {
      shape {
        dim {
          size: 157
        }
      }
    }
  }
  attr {
    key: "shared_name"
    value {
      s: ""
    }
  }
}
node {
  name: "Model/LSTM/softmax_b/Assign"
  op: "Assign"
  input: "Model/LSTM/softmax_b"
  input: "Model/LSTM/softmax_b/Initializer/truncated_normal"
  attr {
    key: "T"
    value {
      type: DT_HALF
    }
  }
  attr {
    key: "_class"
    value {
      list {
        s: "loc:@Model/LSTM/softmax_b"
      }
    }
  }
  attr {
    key: "_output_shapes"
    value {
      list {
        shape {
          dim {
            size: 157
          }
        }
      }
    }
  }
  attr {
    key: "use_locking"
    value {
      b: true
    }
  }
  attr {
    key: "validate_shape"
    value {
      b: true
    }
  }
}
node {
  name: "Model/LSTM/softmax_b/read"
  op: "Identity"
  input: "Model/LSTM/softmax_b"
  attr {
    key: "T"
    value {
      type: DT_HALF
    }
  }
  attr {
    key: "_class"
    value {
      list {
        s: "loc:@Model/LSTM/softmax_b"
      }
    }
  }
  attr {
    key: "_output_shapes"
    value {
      list {
        shape {
          dim {
            size: 157
          }
        }
      }
    }
  }
}
node {
  name: "Train/Model/LSTM/MatMul"
  op: "MatMul"
  input: "Train/Model/LSTM/Reshape"
  input: "Model/LSTM/softmax_w/read"
  attr {
    key: "T"
    value {
      type: DT_HALF
    }
  }
  attr {
    key: "_output_shapes"
    value {
      list {
        shape {
          dim {
            size: 51200
          }
          dim {
            size: 157
          }
        }
      }
    }
  }
  attr {
    key: "transpose_a"
    value {
      b: false
    }
  }
  attr {
    key: "transpose_b"
    value {
      b: false
    }
  }
}
node {
  name: "Train/Model/LSTM/add"
  op: "Add"
  input: "Train/Model/LSTM/MatMul"
  input: "Model/LSTM/softmax_b/read"
  attr {
    key: "T"
    value {
      type: DT_HALF
    }
  }
  attr {
    key: "_output_shapes"
    value {
      list {
        shape {
          dim {
            size: 51200
          }
          dim {
            size: 157
          }
        }
      }
    }
  }
}
node {
  name: "Train/Model/LSTM/Output/prediction"
  op: "Softmax"
  input: "Train/Model/LSTM/add"
  attr {
    key: "T"
    value {
      type: DT_HALF
    }
  }
  attr {
    key: "_output_shapes"
    value {
      list {
        shape {
          dim {
            size: 51200
          }
          dim {
            size: 157
          }
        }
      }
    }
  }
}
node {
  name: "Train/Model/LSTM/Reshape_1/shape"
  op: "Const"
  attr {
    key: "_output_shapes"
    value {
      list {
        shape {
          dim {
            size: 2
          }
        }
      }
    }
  }
  attr {
    key: "dtype"
    value {
      type: DT_INT32
    }
  }
  attr {
    key: "value"
    value {
      tensor {
        dtype: DT_INT32
        tensor_shape {
          dim {
            size: 2
          }
        }
        tensor_content: "\377\377\377\377\235\000\000\000"
      }
    }
  }
}
node {
  name: "Train/Model/LSTM/Reshape_1"
  op: "Reshape"
  input: "Train/Model/LSTM/Input/labels"
  input: "Train/Model/LSTM/Reshape_1/shape"
  attr {
    key: "T"
    value {
      type: DT_HALF
    }
  }
  attr {
    key: "Tshape"
    value {
      type: DT_INT32
    }
  }
  attr {
    key: "_output_shapes"
    value {
      list {
        shape {
          dim {
            size: 51200
          }
          dim {
            size: 157
          }
        }
      }
    }
  }
}
node {
  name: "Train/Model/LSTM/Cast"
  op: "Cast"
  input: "Train/Model/LSTM/add"
  attr {
    key: "DstT"
    value {
      type: DT_FLOAT
    }
  }
  attr {
    key: "SrcT"
    value {
      type: DT_HALF
    }
  }
  attr {
    key: "_output_shapes"
    value {
      list {
        shape {
          dim {
            size: 51200
          }
          dim {
            size: 157
          }
        }
      }
    }
  }
}
node {
  name: "Train/Model/LSTM/Cast_1"
  op: "Cast"
  input: "Train/Model/LSTM/Reshape_1"
  attr {
    key: "DstT"
    value {
      type: DT_FLOAT
    }
  }
  attr {
    key: "SrcT"
    value {
      type: DT_HALF
    }
  }
  attr {
    key: "_output_shapes"
    value {
      list {
        shape {
          dim {
            size: 51200
          }
          dim {
            size: 157
          }
        }
      }
    }
  }
}
node {
  name: "Train/Model/LSTM/Rank"
  op: "Const"
  attr {
    key: "_output_shapes"
    value {
      list {
        shape {
        }
      }
    }
  }
  attr {
    key: "dtype"
    value {
      type: DT_INT32
    }
  }
  attr {
    key: "value"
    value {
      tensor {
        dtype: DT_INT32
        tensor_shape {
        }
        int_val: 2
      }
    }
  }
}
node {
  name: "Train/Model/LSTM/Shape"
  op: "Const"
  attr {
    key: "_output_shapes"
    value {
      list {
        shape {
          dim {
            size: 2
          }
        }
      }
    }
  }
  attr {
    key: "dtype"
    value {
      type: DT_INT32
    }
  }
  attr {
    key: "value"
    value {
      tensor {
        dtype: DT_INT32
        tensor_shape {
          dim {
            size: 2
          }
        }
        tensor_content: "\000\310\000\000\235\000\000\000"
      }
    }
  }
}
node {
  name: "Train/Model/LSTM/Rank_1"
  op: "Const"
  attr {
    key: "_output_shapes"
    value {
      list {
        shape {
        }
      }
    }
  }
  attr {
    key: "dtype"
    value {
      type: DT_INT32
    }
  }
  attr {
    key: "value"
    value {
      tensor {
        dtype: DT_INT32
        tensor_shape {
        }
        int_val: 2
      }
    }
  }
}
node {
  name: "Train/Model/LSTM/Shape_1"
  op: "Const"
  attr {
    key: "_output_shapes"
    value {
      list {
        shape {
          dim {
            size: 2
          }
        }
      }
    }
  }
  attr {
    key: "dtype"
    value {
      type: DT_INT32
    }
  }
  attr {
    key: "value"
    value {
      tensor {
        dtype: DT_INT32
        tensor_shape {
          dim {
            size: 2
          }
        }
        tensor_content: "\000\310\000\000\235\000\000\000"
      }
    }
  }
}
node {
  name: "Train/Model/LSTM/Sub/y"
  op: "Const"
  attr {
    key: "_output_shapes"
    value {
      list {
        shape {
        }
      }
    }
  }
  attr {
    key: "dtype"
    value {
      type: DT_INT32
    }
  }
  attr {
    key: "value"
    value {
      tensor {
        dtype: DT_INT32
        tensor_shape {
        }
        int_val: 1
      }
    }
  }
}
node {
  name: "Train/Model/LSTM/Sub"
  op: "Sub"
  input: "Train/Model/LSTM/Rank_1"
  input: "Train/Model/LSTM/Sub/y"
  attr {
    key: "T"
    value {
      type: DT_INT32
    }
  }
  attr {
    key: "_output_shapes"
    value {
      list {
        shape {
        }
      }
    }
  }
}
node {
  name: "Train/Model/LSTM/Slice/begin"
  op: "Pack"
  input: "Train/Model/LSTM/Sub"
  attr {
    key: "N"
    value {
      i: 1
    }
  }
  attr {
    key: "T"
    value {
      type: DT_INT32
    }
  }
  attr {
    key: "_output_shapes"
    value {
      list {
        shape {
          dim {
            size: 1
          }
        }
      }
    }
  }
  attr {
    key: "axis"
    value {
      i: 0
    }
  }
}
node {
  name: "Train/Model/LSTM/Slice/size"
  op: "Const"
  attr {
    key: "_output_shapes"
    value {
      list {
        shape {
          dim {
            size: 1
          }
        }
      }
    }
  }
  attr {
    key: "dtype"
    value {
      type: DT_INT32
    }
  }
  attr {
    key: "value"
    value {
      tensor {
        dtype: DT_INT32
        tensor_shape {
          dim {
            size: 1
          }
        }
        int_val: 1
      }
    }
  }
}
node {
  name: "Train/Model/LSTM/Slice"
  op: "Slice"
  input: "Train/Model/LSTM/Shape_1"
  input: "Train/Model/LSTM/Slice/begin"
  input: "Train/Model/LSTM/Slice/size"
  attr {
    key: "Index"
    value {
      type: DT_INT32
    }
  }
  attr {
    key: "T"
    value {
      type: DT_INT32
    }
  }
  attr {
    key: "_output_shapes"
    value {
      list {
        shape {
          dim {
            size: 1
          }
        }
      }
    }
  }
}
node {
  name: "Train/Model/LSTM/concat/values_0"
  op: "Const"
  attr {
    key: "_output_shapes"
    value {
      list {
        shape {
          dim {
            size: 1
          }
        }
      }
    }
  }
  attr {
    key: "dtype"
    value {
      type: DT_INT32
    }
  }
  attr {
    key: "value"
    value {
      tensor {
        dtype: DT_INT32
        tensor_shape {
          dim {
            size: 1
          }
        }
        int_val: -1
      }
    }
  }
}
node {
  name: "Train/Model/LSTM/concat/axis"
  op: "Const"
  attr {
    key: "_output_shapes"
    value {
      list {
        shape {
        }
      }
    }
  }
  attr {
    key: "dtype"
    value {
      type: DT_INT32
    }
  }
  attr {
    key: "value"
    value {
      tensor {
        dtype: DT_INT32
        tensor_shape {
        }
        int_val: 0
      }
    }
  }
}
node {
  name: "Train/Model/LSTM/concat"
  op: "ConcatV2"
  input: "Train/Model/LSTM/concat/values_0"
  input: "Train/Model/LSTM/Slice"
  input: "Train/Model/LSTM/concat/axis"
  attr {
    key: "N"
    value {
      i: 2
    }
  }
  attr {
    key: "T"
    value {
      type: DT_INT32
    }
  }
  attr {
    key: "Tidx"
    value {
      type: DT_INT32
    }
  }
  attr {
    key: "_output_shapes"
    value {
      list {
        shape {
          dim {
            size: 2
          }
        }
      }
    }
  }
}
node {
  name: "Train/Model/LSTM/Reshape_2"
  op: "Reshape"
  input: "Train/Model/LSTM/Cast"
  input: "Train/Model/LSTM/concat"
  attr {
    key: "T"
    value {
      type: DT_FLOAT
    }
  }
  attr {
    key: "Tshape"
    value {
      type: DT_INT32
    }
  }
  attr {
    key: "_output_shapes"
    value {
      list {
        shape {
          dim {
            size: 51200
          }
          dim {
            size: 157
          }
        }
      }
    }
  }
}
node {
  name: "Train/Model/LSTM/Rank_2"
  op: "Const"
  attr {
    key: "_output_shapes"
    value {
      list {
        shape {
        }
      }
    }
  }
  attr {
    key: "dtype"
    value {
      type: DT_INT32
    }
  }
  attr {
    key: "value"
    value {
      tensor {
        dtype: DT_INT32
        tensor_shape {
        }
        int_val: 2
      }
    }
  }
}
node {
  name: "Train/Model/LSTM/Shape_2"
  op: "Const"
  attr {
    key: "_output_shapes"
    value {
      list {
        shape {
          dim {
            size: 2
          }
        }
      }
    }
  }
  attr {
    key: "dtype"
    value {
      type: DT_INT32
    }
  }
  attr {
    key: "value"
    value {
      tensor {
        dtype: DT_INT32
        tensor_shape {
          dim {
            size: 2
          }
        }
        tensor_content: "\000\310\000\000\235\000\000\000"
      }
    }
  }
}
node {
  name: "Train/Model/LSTM/Sub_1/y"
  op: "Const"
  attr {
    key: "_output_shapes"
    value {
      list {
        shape {
        }
      }
    }
  }
  attr {
    key: "dtype"
    value {
      type: DT_INT32
    }
  }
  attr {
    key: "value"
    value {
      tensor {
        dtype: DT_INT32
        tensor_shape {
        }
        int_val: 1
      }
    }
  }
}
node {
  name: "Train/Model/LSTM/Sub_1"
  op: "Sub"
  input: "Train/Model/LSTM/Rank_2"
  input: "Train/Model/LSTM/Sub_1/y"
  attr {
    key: "T"
    value {
      type: DT_INT32
    }
  }
  attr {
    key: "_output_shapes"
    value {
      list {
        shape {
        }
      }
    }
  }
}
node {
  name: "Train/Model/LSTM/Slice_1/begin"
  op: "Pack"
  input: "Train/Model/LSTM/Sub_1"
  attr {
    key: "N"
    value {
      i: 1
    }
  }
  attr {
    key: "T"
    value {
      type: DT_INT32
    }
  }
  attr {
    key: "_output_shapes"
    value {
      list {
        shape {
          dim {
            size: 1
          }
        }
      }
    }
  }
  attr {
    key: "axis"
    value {
      i: 0
    }
  }
}
node {
  name: "Train/Model/LSTM/Slice_1/size"
  op: "Const"
  attr {
    key: "_output_shapes"
    value {
      list {
        shape {
          dim {
            size: 1
          }
        }
      }
    }
  }
  attr {
    key: "dtype"
    value {
      type: DT_INT32
    }
  }
  attr {
    key: "value"
    value {
      tensor {
        dtype: DT_INT32
        tensor_shape {
          dim {
            size: 1
          }
        }
        int_val: 1
      }
    }
  }
}
node {
  name: "Train/Model/LSTM/Slice_1"
  op: "Slice"
  input: "Train/Model/LSTM/Shape_2"
  input: "Train/Model/LSTM/Slice_1/begin"
  input: "Train/Model/LSTM/Slice_1/size"
  attr {
    key: "Index"
    value {
      type: DT_INT32
    }
  }
  attr {
    key: "T"
    value {
      type: DT_INT32
    }
  }
  attr {
    key: "_output_shapes"
    value {
      list {
        shape {
          dim {
            size: 1
          }
        }
      }
    }
  }
}
node {
  name: "Train/Model/LSTM/concat_1/values_0"
  op: "Const"
  attr {
    key: "_output_shapes"
    value {
      list {
        shape {
          dim {
            size: 1
          }
        }
      }
    }
  }
  attr {
    key: "dtype"
    value {
      type: DT_INT32
    }
  }
  attr {
    key: "value"
    value {
      tensor {
        dtype: DT_INT32
        tensor_shape {
          dim {
            size: 1
          }
        }
        int_val: -1
      }
    }
  }
}
node {
  name: "Train/Model/LSTM/concat_1/axis"
  op: "Const"
  attr {
    key: "_output_shapes"
    value {
      list {
        shape {
        }
      }
    }
  }
  attr {
    key: "dtype"
    value {
      type: DT_INT32
    }
  }
  attr {
    key: "value"
    value {
      tensor {
        dtype: DT_INT32
        tensor_shape {
        }
        int_val: 0
      }
    }
  }
}
node {
  name: "Train/Model/LSTM/concat_1"
  op: "ConcatV2"
  input: "Train/Model/LSTM/concat_1/values_0"
  input: "Train/Model/LSTM/Slice_1"
  input: "Train/Model/LSTM/concat_1/axis"
  attr {
    key: "N"
    value {
      i: 2
    }
  }
  attr {
    key: "T"
    value {
      type: DT_INT32
    }
  }
  attr {
    key: "Tidx"
    value {
      type: DT_INT32
    }
  }
  attr {
    key: "_output_shapes"
    value {
      list {
        shape {
          dim {
            size: 2
          }
        }
      }
    }
  }
}
node {
  name: "Train/Model/LSTM/Reshape_3"
  op: "Reshape"
  input: "Train/Model/LSTM/Cast_1"
  input: "Train/Model/LSTM/concat_1"
  attr {
    key: "T"
    value {
      type: DT_FLOAT
    }
  }
  attr {
    key: "Tshape"
    value {
      type: DT_INT32
    }
  }
  attr {
    key: "_output_shapes"
    value {
      list {
        shape {
          dim {
            size: 51200
          }
          dim {
            size: 157
          }
        }
      }
    }
  }
}
node {
  name: "Train/Model/LSTM/SoftmaxCrossEntropyWithLogits"
  op: "SoftmaxCrossEntropyWithLogits"
  input: "Train/Model/LSTM/Reshape_2"
  input: "Train/Model/LSTM/Reshape_3"
  attr {
    key: "T"
    value {
      type: DT_FLOAT
    }
  }
  attr {
    key: "_output_shapes"
    value {
      list {
        shape {
          dim {
            size: 51200
          }
        }
        shape {
          dim {
            size: 51200
          }
          dim {
            size: 157
          }
        }
      }
    }
  }
}
node {
  name: "Train/Model/LSTM/Sub_2/y"
  op: "Const"
  attr {
    key: "_output_shapes"
    value {
      list {
        shape {
        }
      }
    }
  }
  attr {
    key: "dtype"
    value {
      type: DT_INT32
    }
  }
  attr {
    key: "value"
    value {
      tensor {
        dtype: DT_INT32
        tensor_shape {
        }
        int_val: 1
      }
    }
  }
}
node {
  name: "Train/Model/LSTM/Sub_2"
  op: "Sub"
  input: "Train/Model/LSTM/Rank"
  input: "Train/Model/LSTM/Sub_2/y"
  attr {
    key: "T"
    value {
      type: DT_INT32
    }
  }
  attr {
    key: "_output_shapes"
    value {
      list {
        shape {
        }
      }
    }
  }
}
node {
  name: "Train/Model/LSTM/Slice_2/begin"
  op: "Const"
  attr {
    key: "_output_shapes"
    value {
      list {
        shape {
          dim {
            size: 1
          }
        }
      }
    }
  }
  attr {
    key: "dtype"
    value {
      type: DT_INT32
    }
  }
  attr {
    key: "value"
    value {
      tensor {
        dtype: DT_INT32
        tensor_shape {
          dim {
            size: 1
          }
        }
        int_val: 0
      }
    }
  }
}
node {
  name: "Train/Model/LSTM/Slice_2/size"
  op: "Pack"
  input: "Train/Model/LSTM/Sub_2"
  attr {
    key: "N"
    value {
      i: 1
    }
  }
  attr {
    key: "T"
    value {
      type: DT_INT32
    }
  }
  attr {
    key: "_output_shapes"
    value {
      list {
        shape {
          dim {
            size: 1
          }
        }
      }
    }
  }
  attr {
    key: "axis"
    value {
      i: 0
    }
  }
}
node {
  name: "Train/Model/LSTM/Slice_2"
  op: "Slice"
  input: "Train/Model/LSTM/Shape"
  input: "Train/Model/LSTM/Slice_2/begin"
  input: "Train/Model/LSTM/Slice_2/size"
  attr {
    key: "Index"
    value {
      type: DT_INT32
    }
  }
  attr {
    key: "T"
    value {
      type: DT_INT32
    }
  }
  attr {
    key: "_output_shapes"
    value {
      list {
        shape {
          dim {
            size: -1
          }
        }
      }
    }
  }
}
node {
  name: "Train/Model/LSTM/Reshape_4"
  op: "Reshape"
  input: "Train/Model/LSTM/SoftmaxCrossEntropyWithLogits"
  input: "Train/Model/LSTM/Slice_2"
  attr {
    key: "T"
    value {
      type: DT_FLOAT
    }
  }
  attr {
    key: "Tshape"
    value {
      type: DT_INT32
    }
  }
  attr {
    key: "_output_shapes"
    value {
      list {
        shape {
          dim {
            size: 51200
          }
        }
      }
    }
  }
}
node {
  name: "Train/Model/LSTM/Cast_2"
  op: "Cast"
  input: "Train/Model/LSTM/Reshape_4"
  attr {
    key: "DstT"
    value {
      type: DT_HALF
    }
  }
  attr {
    key: "SrcT"
    value {
      type: DT_FLOAT
    }
  }
  attr {
    key: "_output_shapes"
    value {
      list {
        shape {
          dim {
            size: 51200
          }
        }
      }
    }
  }
}
node {
  name: "Train/Model/LSTM/Const"
  op: "Const"
  attr {
    key: "_output_shapes"
    value {
      list {
        shape {
          dim {
            size: 1
          }
        }
      }
    }
  }
  attr {
    key: "dtype"
    value {
      type: DT_INT32
    }
  }
  attr {
    key: "value"
    value {
      tensor {
        dtype: DT_INT32
        tensor_shape {
          dim {
            size: 1
          }
        }
        int_val: 0
      }
    }
  }
}
node {
  name: "Train/Model/LSTM/cost"
  op: "Mean"
  input: "Train/Model/LSTM/Cast_2"
  input: "Train/Model/LSTM/Const"
  attr {
    key: "T"
    value {
      type: DT_HALF
    }
  }
  attr {
    key: "Tidx"
    value {
      type: DT_INT32
    }
  }
  attr {
    key: "_output_shapes"
    value {
      list {
        shape {
        }
      }
    }
  }
  attr {
    key: "keep_dims"
    value {
      b: false
    }
  }
}
node {
  name: "Train/Model/Variable/initial_value"
  op: "Const"
  attr {
    key: "_output_shapes"
    value {
      list {
        shape {
        }
      }
    }
  }
  attr {
    key: "dtype"
    value {
      type: DT_FLOAT
    }
  }
  attr {
    key: "value"
    value {
      tensor {
        dtype: DT_FLOAT
        tensor_shape {
        }
        float_val: 0.10000000149011612
      }
    }
  }
}
node {
  name: "Train/Model/Variable"
  op: "VariableV2"
  attr {
    key: "_output_shapes"
    value {
      list {
        shape {
        }
      }
    }
  }
  attr {
    key: "container"
    value {
      s: ""
    }
  }
  attr {
    key: "dtype"
    value {
      type: DT_FLOAT
    }
  }
  attr {
    key: "shape"
    value {
      shape {
      }
    }
  }
  attr {
    key: "shared_name"
    value {
      s: ""
    }
  }
}
node {
  name: "Train/Model/Variable/Assign"
  op: "Assign"
  input: "Train/Model/Variable"
  input: "Train/Model/Variable/initial_value"
  attr {
    key: "T"
    value {
      type: DT_FLOAT
    }
  }
  attr {
    key: "_class"
    value {
      list {
        s: "loc:@Train/Model/Variable"
      }
    }
  }
  attr {
    key: "_output_shapes"
    value {
      list {
        shape {
        }
      }
    }
  }
  attr {
    key: "use_locking"
    value {
      b: true
    }
  }
  attr {
    key: "validate_shape"
    value {
      b: true
    }
  }
}
node {
  name: "Train/Model/Variable/read"
  op: "Identity"
  input: "Train/Model/Variable"
  attr {
    key: "T"
    value {
      type: DT_FLOAT
    }
  }
  attr {
    key: "_class"
    value {
      list {
        s: "loc:@Train/Model/Variable"
      }
    }
  }
  attr {
    key: "_output_shapes"
    value {
      list {
        shape {
        }
      }
    }
  }
}
node {
  name: "Train/Model/gradients/Shape"
  op: "Const"
  attr {
    key: "_output_shapes"
    value {
      list {
        shape {
          dim {
          }
        }
      }
    }
  }
  attr {
    key: "dtype"
    value {
      type: DT_INT32
    }
  }
  attr {
    key: "value"
    value {
      tensor {
        dtype: DT_INT32
        tensor_shape {
          dim {
          }
        }
      }
    }
  }
}
node {
  name: "Train/Model/gradients/Const"
  op: "Const"
  attr {
    key: "_output_shapes"
    value {
      list {
        shape {
        }
      }
    }
  }
  attr {
    key: "dtype"
    value {
      type: DT_HALF
    }
  }
  attr {
    key: "value"
    value {
      tensor {
        dtype: DT_HALF
        tensor_shape {
        }
        half_val: 15360
      }
    }
  }
}
node {
  name: "Train/Model/gradients/Fill"
  op: "Fill"
  input: "Train/Model/gradients/Shape"
  input: "Train/Model/gradients/Const"
  attr {
    key: "T"
    value {
      type: DT_HALF
    }
  }
  attr {
    key: "_output_shapes"
    value {
      list {
        shape {
        }
      }
    }
  }
}
node {
  name: "Train/Model/gradients/f_count"
  op: "Const"
  attr {
    key: "_output_shapes"
    value {
      list {
        shape {
        }
      }
    }
  }
  attr {
    key: "dtype"
    value {
      type: DT_INT32
    }
  }
  attr {
    key: "value"
    value {
      tensor {
        dtype: DT_INT32
        tensor_shape {
        }
        int_val: 0
      }
    }
  }
}
node {
  name: "Train/Model/gradients/f_count_1"
  op: "Enter"
  input: "Train/Model/gradients/f_count"
  attr {
    key: "T"
    value {
      type: DT_INT32
    }
  }
  attr {
    key: "_output_shapes"
    value {
      list {
        shape {
        }
      }
    }
  }
  attr {
    key: "frame_name"
    value {
      s: "Train/Model/LSTM/rnn/while/Train/Model/LSTM/rnn/while/"
    }
  }
  attr {
    key: "is_constant"
    value {
      b: false
    }
  }
  attr {
    key: "parallel_iterations"
    value {
      i: 32
    }
  }
}
node {
  name: "Train/Model/gradients/Merge"
  op: "Merge"
  input: "Train/Model/gradients/f_count_1"
  input: "Train/Model/gradients/NextIteration"
  attr {
    key: "N"
    value {
      i: 2
    }
  }
  attr {
    key: "T"
    value {
      type: DT_INT32
    }
  }
  attr {
    key: "_output_shapes"
    value {
      list {
        shape {
        }
        shape {
        }
      }
    }
  }
}
node {
  name: "Train/Model/gradients/Switch"
  op: "Switch"
  input: "Train/Model/gradients/Merge"
  input: "Train/Model/LSTM/rnn/while/LoopCond"
  attr {
    key: "T"
    value {
      type: DT_INT32
    }
  }
  attr {
    key: "_output_shapes"
    value {
      list {
        shape {
        }
        shape {
        }
      }
    }
  }
}
node {
  name: "Train/Model/gradients/Add/y"
  op: "Const"
  input: "^Train/Model/LSTM/rnn/while/Identity"
  attr {
    key: "_output_shapes"
    value {
      list {
        shape {
        }
      }
    }
  }
  attr {
    key: "dtype"
    value {
      type: DT_INT32
    }
  }
  attr {
    key: "value"
    value {
      tensor {
        dtype: DT_INT32
        tensor_shape {
        }
        int_val: 1
      }
    }
  }
}
node {
  name: "Train/Model/gradients/Add"
  op: "Add"
  input: "Train/Model/gradients/Switch:1"
  input: "Train/Model/gradients/Add/y"
  attr {
    key: "T"
    value {
      type: DT_INT32
    }
  }
  attr {
    key: "_output_shapes"
    value {
      list {
        shape {
        }
      }
    }
  }
}
node {
  name: "Train/Model/gradients/NextIteration"
  op: "NextIteration"
  input: "Train/Model/gradients/Add"
  input: "^Train/Model/gradients/Train/Model/LSTM/rnn/while/TensorArrayWrite/TensorArrayWriteV3_grad/TensorArrayReadV3/StackPush"
  input: "^Train/Model/gradients/Train/Model/LSTM/rnn/while/basic_lstm_cell/mul_2_grad/mul/StackPush"
  input: "^Train/Model/gradients/Train/Model/LSTM/rnn/while/basic_lstm_cell/mul_2_grad/mul_1/StackPush"
  input: "^Train/Model/gradients/Train/Model/LSTM/rnn/while/basic_lstm_cell/mul_grad/mul/StackPush"
  input: "^Train/Model/gradients/Train/Model/LSTM/rnn/while/basic_lstm_cell/mul_grad/mul_1/StackPush"
  input: "^Train/Model/gradients/Train/Model/LSTM/rnn/while/basic_lstm_cell/mul_1_grad/mul/StackPush"
  input: "^Train/Model/gradients/Train/Model/LSTM/rnn/while/basic_lstm_cell/mul_1_grad/mul_1/StackPush"
  input: "^Train/Model/gradients/Train/Model/LSTM/rnn/while/basic_lstm_cell/split_grad/concat/StackPush"
  input: "^Train/Model/gradients/Train/Model/LSTM/rnn/while/basic_lstm_cell/basic_lstm_cell/MatMul_grad/MatMul_1/StackPush"
  input: "^Train/Model/gradients/Train/Model/LSTM/rnn/while/basic_lstm_cell/basic_lstm_cell/concat_grad/mod/StackPush"
  attr {
    key: "T"
    value {
      type: DT_INT32
    }
  }
  attr {
    key: "_output_shapes"
    value {
      list {
        shape {
        }
      }
    }
  }
}
node {
  name: "Train/Model/gradients/f_count_2"
  op: "Exit"
  input: "Train/Model/gradients/Switch"
  attr {
    key: "T"
    value {
      type: DT_INT32
    }
  }
  attr {
    key: "_output_shapes"
    value {
      list {
        shape {
        }
      }
    }
  }
}
node {
  name: "Train/Model/gradients/b_count"
  op: "Const"
  attr {
    key: "_output_shapes"
    value {
      list {
        shape {
        }
      }
    }
  }
  attr {
    key: "dtype"
    value {
      type: DT_INT32
    }
  }
  attr {
    key: "value"
    value {
      tensor {
        dtype: DT_INT32
        tensor_shape {
        }
        int_val: 1
      }
    }
  }
}
node {
  name: "Train/Model/gradients/b_count_1"
  op: "Enter"
  input: "Train/Model/gradients/f_count_2"
  attr {
    key: "T"
    value {
      type: DT_INT32
    }
  }
  attr {
    key: "_output_shapes"
    value {
      list {
        shape {
        }
      }
    }
  }
  attr {
    key: "frame_name"
    value {
      s: "Train/Model/gradients/Train/Model/LSTM/rnn/while/Train/Model/LSTM/rnn/while/"
    }
  }
  attr {
    key: "is_constant"
    value {
      b: false
    }
  }
  attr {
    key: "parallel_iterations"
    value {
      i: 32
    }
  }
}
node {
  name: "Train/Model/gradients/Merge_1"
  op: "Merge"
  input: "Train/Model/gradients/b_count_1"
  input: "Train/Model/gradients/NextIteration_1"
  attr {
    key: "N"
    value {
      i: 2
    }
  }
  attr {
    key: "T"
    value {
      type: DT_INT32
    }
  }
  attr {
    key: "_output_shapes"
    value {
      list {
        shape {
        }
        shape {
        }
      }
    }
  }
}
node {
  name: "Train/Model/gradients/GreaterEqual/Enter"
  op: "Enter"
  input: "Train/Model/gradients/b_count"
  attr {
    key: "T"
    value {
      type: DT_INT32
    }
  }
  attr {
    key: "_output_shapes"
    value {
      list {
        shape {
        }
      }
    }
  }
  attr {
    key: "frame_name"
    value {
      s: "Train/Model/gradients/Train/Model/LSTM/rnn/while/Train/Model/LSTM/rnn/while/"
    }
  }
  attr {
    key: "is_constant"
    value {
      b: true
    }
  }
  attr {
    key: "parallel_iterations"
    value {
      i: 32
    }
  }
}
node {
  name: "Train/Model/gradients/GreaterEqual"
  op: "GreaterEqual"
  input: "Train/Model/gradients/Merge_1"
  input: "Train/Model/gradients/GreaterEqual/Enter"
  attr {
    key: "T"
    value {
      type: DT_INT32
    }
  }
  attr {
    key: "_output_shapes"
    value {
      list {
        shape {
        }
      }
    }
  }
}
node {
  name: "Train/Model/gradients/b_count_2"
  op: "LoopCond"
  input: "Train/Model/gradients/GreaterEqual"
  attr {
    key: "_output_shapes"
    value {
      list {
        shape {
        }
      }
    }
  }
}
node {
  name: "Train/Model/gradients/Switch_1"
  op: "Switch"
  input: "Train/Model/gradients/Merge_1"
  input: "Train/Model/gradients/b_count_2"
  attr {
    key: "T"
    value {
      type: DT_INT32
    }
  }
  attr {
    key: "_output_shapes"
    value {
      list {
        shape {
        }
        shape {
        }
      }
    }
  }
}
node {
  name: "Train/Model/gradients/Sub"
  op: "Sub"
  input: "Train/Model/gradients/Switch_1:1"
  input: "Train/Model/gradients/GreaterEqual/Enter"
  attr {
    key: "T"
    value {
      type: DT_INT32
    }
  }
  attr {
    key: "_output_shapes"
    value {
      list {
        shape {
        }
      }
    }
  }
}
node {
  name: "Train/Model/gradients/NextIteration_1"
  op: "NextIteration"
  input: "Train/Model/gradients/Sub"
  input: "^Train/Model/gradients/Train/Model/LSTM/rnn/while/TensorArrayWrite/TensorArrayWriteV3_grad/TensorArrayReadV3/b_sync"
  attr {
    key: "T"
    value {
      type: DT_INT32
    }
  }
  attr {
    key: "_output_shapes"
    value {
      list {
        shape {
        }
      }
    }
  }
}
node {
  name: "Train/Model/gradients/b_count_3"
  op: "Exit"
  input: "Train/Model/gradients/Switch_1"
  attr {
    key: "T"
    value {
      type: DT_INT32
    }
  }
  attr {
    key: "_output_shapes"
    value {
      list {
        shape {
        }
      }
    }
  }
}
node {
  name: "Train/Model/gradients/Train/Model/LSTM/cost_grad/Reshape/shape"
  op: "Const"
  attr {
    key: "_output_shapes"
    value {
      list {
        shape {
          dim {
            size: 1
          }
        }
      }
    }
  }
  attr {
    key: "dtype"
    value {
      type: DT_INT32
    }
  }
  attr {
    key: "value"
    value {
      tensor {
        dtype: DT_INT32
        tensor_shape {
          dim {
            size: 1
          }
        }
        int_val: 1
      }
    }
  }
}
node {
  name: "Train/Model/gradients/Train/Model/LSTM/cost_grad/Reshape"
  op: "Reshape"
  input: "Train/Model/gradients/Fill"
  input: "Train/Model/gradients/Train/Model/LSTM/cost_grad/Reshape/shape"
  attr {
    key: "T"
    value {
      type: DT_HALF
    }
  }
  attr {
    key: "Tshape"
    value {
      type: DT_INT32
    }
  }
  attr {
    key: "_output_shapes"
    value {
      list {
        shape {
          dim {
            size: 1
          }
        }
      }
    }
  }
}
node {
  name: "Train/Model/gradients/Train/Model/LSTM/cost_grad/Tile/multiples"
  op: "Const"
  attr {
    key: "_output_shapes"
    value {
      list {
        shape {
          dim {
            size: 1
          }
        }
      }
    }
  }
  attr {
    key: "dtype"
    value {
      type: DT_INT32
    }
  }
  attr {
    key: "value"
    value {
      tensor {
        dtype: DT_INT32
        tensor_shape {
          dim {
            size: 1
          }
        }
        int_val: 51200
      }
    }
  }
}
node {
  name: "Train/Model/gradients/Train/Model/LSTM/cost_grad/Tile"
  op: "Tile"
  input: "Train/Model/gradients/Train/Model/LSTM/cost_grad/Reshape"
  input: "Train/Model/gradients/Train/Model/LSTM/cost_grad/Tile/multiples"
  attr {
    key: "T"
    value {
      type: DT_HALF
    }
  }
  attr {
    key: "Tmultiples"
    value {
      type: DT_INT32
    }
  }
  attr {
    key: "_output_shapes"
    value {
      list {
        shape {
          dim {
            size: 51200
          }
        }
      }
    }
  }
}
node {
  name: "Train/Model/gradients/Train/Model/LSTM/cost_grad/Shape"
  op: "Const"
  attr {
    key: "_output_shapes"
    value {
      list {
        shape {
          dim {
            size: 1
          }
        }
      }
    }
  }
  attr {
    key: "dtype"
    value {
      type: DT_INT32
    }
  }
  attr {
    key: "value"
    value {
      tensor {
        dtype: DT_INT32
        tensor_shape {
          dim {
            size: 1
          }
        }
        int_val: 51200
      }
    }
  }
}
node {
  name: "Train/Model/gradients/Train/Model/LSTM/cost_grad/Shape_1"
  op: "Const"
  attr {
    key: "_output_shapes"
    value {
      list {
        shape {
          dim {
          }
        }
      }
    }
  }
  attr {
    key: "dtype"
    value {
      type: DT_INT32
    }
  }
  attr {
    key: "value"
    value {
      tensor {
        dtype: DT_INT32
        tensor_shape {
          dim {
          }
        }
      }
    }
  }
}
node {
  name: "Train/Model/gradients/Train/Model/LSTM/cost_grad/Const"
  op: "Const"
  attr {
    key: "_output_shapes"
    value {
      list {
        shape {
          dim {
            size: 1
          }
        }
      }
    }
  }
  attr {
    key: "dtype"
    value {
      type: DT_INT32
    }
  }
  attr {
    key: "value"
    value {
      tensor {
        dtype: DT_INT32
        tensor_shape {
          dim {
            size: 1
          }
        }
        int_val: 0
      }
    }
  }
}
node {
  name: "Train/Model/gradients/Train/Model/LSTM/cost_grad/Prod"
  op: "Prod"
  input: "Train/Model/gradients/Train/Model/LSTM/cost_grad/Shape"
  input: "Train/Model/gradients/Train/Model/LSTM/cost_grad/Const"
  attr {
    key: "T"
    value {
      type: DT_INT32
    }
  }
  attr {
    key: "Tidx"
    value {
      type: DT_INT32
    }
  }
  attr {
    key: "_output_shapes"
    value {
      list {
        shape {
        }
      }
    }
  }
  attr {
    key: "keep_dims"
    value {
      b: false
    }
  }
}
node {
  name: "Train/Model/gradients/Train/Model/LSTM/cost_grad/Const_1"
  op: "Const"
  attr {
    key: "_output_shapes"
    value {
      list {
        shape {
          dim {
            size: 1
          }
        }
      }
    }
  }
  attr {
    key: "dtype"
    value {
      type: DT_INT32
    }
  }
  attr {
    key: "value"
    value {
      tensor {
        dtype: DT_INT32
        tensor_shape {
          dim {
            size: 1
          }
        }
        int_val: 0
      }
    }
  }
}
node {
  name: "Train/Model/gradients/Train/Model/LSTM/cost_grad/Prod_1"
  op: "Prod"
  input: "Train/Model/gradients/Train/Model/LSTM/cost_grad/Shape_1"
  input: "Train/Model/gradients/Train/Model/LSTM/cost_grad/Const_1"
  attr {
    key: "T"
    value {
      type: DT_INT32
    }
  }
  attr {
    key: "Tidx"
    value {
      type: DT_INT32
    }
  }
  attr {
    key: "_output_shapes"
    value {
      list {
        shape {
        }
      }
    }
  }
  attr {
    key: "keep_dims"
    value {
      b: false
    }
  }
}
node {
  name: "Train/Model/gradients/Train/Model/LSTM/cost_grad/Maximum/y"
  op: "Const"
  attr {
    key: "_output_shapes"
    value {
      list {
        shape {
        }
      }
    }
  }
  attr {
    key: "dtype"
    value {
      type: DT_INT32
    }
  }
  attr {
    key: "value"
    value {
      tensor {
        dtype: DT_INT32
        tensor_shape {
        }
        int_val: 1
      }
    }
  }
}
node {
  name: "Train/Model/gradients/Train/Model/LSTM/cost_grad/Maximum"
  op: "Maximum"
  input: "Train/Model/gradients/Train/Model/LSTM/cost_grad/Prod_1"
  input: "Train/Model/gradients/Train/Model/LSTM/cost_grad/Maximum/y"
  attr {
    key: "T"
    value {
      type: DT_INT32
    }
  }
  attr {
    key: "_output_shapes"
    value {
      list {
        shape {
        }
      }
    }
  }
}
node {
  name: "Train/Model/gradients/Train/Model/LSTM/cost_grad/floordiv"
  op: "FloorDiv"
  input: "Train/Model/gradients/Train/Model/LSTM/cost_grad/Prod"
  input: "Train/Model/gradients/Train/Model/LSTM/cost_grad/Maximum"
  attr {
    key: "T"
    value {
      type: DT_INT32
    }
  }
  attr {
    key: "_output_shapes"
    value {
      list {
        shape {
        }
      }
    }
  }
}
node {
  name: "Train/Model/gradients/Train/Model/LSTM/cost_grad/Cast"
  op: "Cast"
  input: "Train/Model/gradients/Train/Model/LSTM/cost_grad/floordiv"
  attr {
    key: "DstT"
    value {
      type: DT_HALF
    }
  }
  attr {
    key: "SrcT"
    value {
      type: DT_INT32
    }
  }
  attr {
    key: "_output_shapes"
    value {
      list {
        shape {
        }
      }
    }
  }
}
node {
  name: "Train/Model/gradients/Train/Model/LSTM/cost_grad/truediv"
  op: "RealDiv"
  input: "Train/Model/gradients/Train/Model/LSTM/cost_grad/Tile"
  input: "Train/Model/gradients/Train/Model/LSTM/cost_grad/Cast"
  attr {
    key: "T"
    value {
      type: DT_HALF
    }
  }
  attr {
    key: "_output_shapes"
    value {
      list {
        shape {
          dim {
            size: 51200
          }
        }
      }
    }
  }
}
node {
  name: "Train/Model/gradients/Train/Model/LSTM/Cast_2_grad/Cast"
  op: "Cast"
  input: "Train/Model/gradients/Train/Model/LSTM/cost_grad/truediv"
  attr {
    key: "DstT"
    value {
      type: DT_FLOAT
    }
  }
  attr {
    key: "SrcT"
    value {
      type: DT_HALF
    }
  }
  attr {
    key: "_output_shapes"
    value {
      list {
        shape {
          dim {
            size: 51200
          }
        }
      }
    }
  }
}
node {
  name: "Train/Model/gradients/Train/Model/LSTM/Reshape_4_grad/Shape"
  op: "Const"
  attr {
    key: "_output_shapes"
    value {
      list {
        shape {
          dim {
            size: 1
          }
        }
      }
    }
  }
  attr {
    key: "dtype"
    value {
      type: DT_INT32
    }
  }
  attr {
    key: "value"
    value {
      tensor {
        dtype: DT_INT32
        tensor_shape {
          dim {
            size: 1
          }
        }
        int_val: 51200
      }
    }
  }
}
node {
  name: "Train/Model/gradients/Train/Model/LSTM/Reshape_4_grad/Reshape"
  op: "Reshape"
  input: "Train/Model/gradients/Train/Model/LSTM/Cast_2_grad/Cast"
  input: "Train/Model/gradients/Train/Model/LSTM/Reshape_4_grad/Shape"
  attr {
    key: "T"
    value {
      type: DT_FLOAT
    }
  }
  attr {
    key: "Tshape"
    value {
      type: DT_INT32
    }
  }
  attr {
    key: "_output_shapes"
    value {
      list {
        shape {
          dim {
            size: 51200
          }
        }
      }
    }
  }
}
node {
  name: "Train/Model/gradients/zeros_like"
  op: "ZerosLike"
  input: "Train/Model/LSTM/SoftmaxCrossEntropyWithLogits:1"
  attr {
    key: "T"
    value {
      type: DT_FLOAT
    }
  }
  attr {
    key: "_output_shapes"
    value {
      list {
        shape {
          dim {
            size: 51200
          }
          dim {
            size: 157
          }
        }
      }
    }
  }
}
node {
  name: "Train/Model/gradients/Train/Model/LSTM/SoftmaxCrossEntropyWithLogits_grad/PreventGradient"
  op: "PreventGradient"
  input: "Train/Model/LSTM/SoftmaxCrossEntropyWithLogits:1"
  attr {
    key: "T"
    value {
      type: DT_FLOAT
    }
  }
  attr {
    key: "_output_shapes"
    value {
      list {
        shape {
          dim {
            size: 51200
          }
          dim {
            size: 157
          }
        }
      }
    }
  }
}
node {
  name: "Train/Model/gradients/Train/Model/LSTM/SoftmaxCrossEntropyWithLogits_grad/ExpandDims/dim"
  op: "Const"
  attr {
    key: "_output_shapes"
    value {
      list {
        shape {
        }
      }
    }
  }
  attr {
    key: "dtype"
    value {
      type: DT_INT32
    }
  }
  attr {
    key: "value"
    value {
      tensor {
        dtype: DT_INT32
        tensor_shape {
        }
        int_val: -1
      }
    }
  }
}
node {
  name: "Train/Model/gradients/Train/Model/LSTM/SoftmaxCrossEntropyWithLogits_grad/ExpandDims"
  op: "ExpandDims"
  input: "Train/Model/gradients/Train/Model/LSTM/Reshape_4_grad/Reshape"
  input: "Train/Model/gradients/Train/Model/LSTM/SoftmaxCrossEntropyWithLogits_grad/ExpandDims/dim"
  attr {
    key: "T"
    value {
      type: DT_FLOAT
    }
  }
  attr {
    key: "Tdim"
    value {
      type: DT_INT32
    }
  }
  attr {
    key: "_output_shapes"
    value {
      list {
        shape {
          dim {
            size: 51200
          }
          dim {
            size: 1
          }
        }
      }
    }
  }
}
node {
  name: "Train/Model/gradients/Train/Model/LSTM/SoftmaxCrossEntropyWithLogits_grad/mul"
  op: "Mul"
  input: "Train/Model/gradients/Train/Model/LSTM/SoftmaxCrossEntropyWithLogits_grad/ExpandDims"
  input: "Train/Model/gradients/Train/Model/LSTM/SoftmaxCrossEntropyWithLogits_grad/PreventGradient"
  attr {
    key: "T"
    value {
      type: DT_FLOAT
    }
  }
  attr {
    key: "_output_shapes"
    value {
      list {
        shape {
          dim {
            size: 51200
          }
          dim {
            size: 157
          }
        }
      }
    }
  }
}
node {
  name: "Train/Model/gradients/Train/Model/LSTM/Reshape_2_grad/Shape"
  op: "Const"
  attr {
    key: "_output_shapes"
    value {
      list {
        shape {
          dim {
            size: 2
          }
        }
      }
    }
  }
  attr {
    key: "dtype"
    value {
      type: DT_INT32
    }
  }
  attr {
    key: "value"
    value {
      tensor {
        dtype: DT_INT32
        tensor_shape {
          dim {
            size: 2
          }
        }
        tensor_content: "\000\310\000\000\235\000\000\000"
      }
    }
  }
}
node {
  name: "Train/Model/gradients/Train/Model/LSTM/Reshape_2_grad/Reshape"
  op: "Reshape"
  input: "Train/Model/gradients/Train/Model/LSTM/SoftmaxCrossEntropyWithLogits_grad/mul"
  input: "Train/Model/gradients/Train/Model/LSTM/Reshape_2_grad/Shape"
  attr {
    key: "T"
    value {
      type: DT_FLOAT
    }
  }
  attr {
    key: "Tshape"
    value {
      type: DT_INT32
    }
  }
  attr {
    key: "_output_shapes"
    value {
      list {
        shape {
          dim {
            size: 51200
          }
          dim {
            size: 157
          }
        }
      }
    }
  }
}
node {
  name: "Train/Model/gradients/Train/Model/LSTM/Cast_grad/Cast"
  op: "Cast"
  input: "Train/Model/gradients/Train/Model/LSTM/Reshape_2_grad/Reshape"
  attr {
    key: "DstT"
    value {
      type: DT_HALF
    }
  }
  attr {
    key: "SrcT"
    value {
      type: DT_FLOAT
    }
  }
  attr {
    key: "_output_shapes"
    value {
      list {
        shape {
          dim {
            size: 51200
          }
          dim {
            size: 157
          }
        }
      }
    }
  }
}
node {
  name: "Train/Model/gradients/Train/Model/LSTM/add_grad/Shape"
  op: "Const"
  attr {
    key: "_output_shapes"
    value {
      list {
        shape {
          dim {
            size: 2
          }
        }
      }
    }
  }
  attr {
    key: "dtype"
    value {
      type: DT_INT32
    }
  }
  attr {
    key: "value"
    value {
      tensor {
        dtype: DT_INT32
        tensor_shape {
          dim {
            size: 2
          }
        }
        tensor_content: "\000\310\000\000\235\000\000\000"
      }
    }
  }
}
node {
  name: "Train/Model/gradients/Train/Model/LSTM/add_grad/Shape_1"
  op: "Const"
  attr {
    key: "_output_shapes"
    value {
      list {
        shape {
          dim {
            size: 1
          }
        }
      }
    }
  }
  attr {
    key: "dtype"
    value {
      type: DT_INT32
    }
  }
  attr {
    key: "value"
    value {
      tensor {
        dtype: DT_INT32
        tensor_shape {
          dim {
            size: 1
          }
        }
        int_val: 157
      }
    }
  }
}
node {
  name: "Train/Model/gradients/Train/Model/LSTM/add_grad/BroadcastGradientArgs"
  op: "BroadcastGradientArgs"
  input: "Train/Model/gradients/Train/Model/LSTM/add_grad/Shape"
  input: "Train/Model/gradients/Train/Model/LSTM/add_grad/Shape_1"
  attr {
    key: "T"
    value {
      type: DT_INT32
    }
  }
  attr {
    key: "_output_shapes"
    value {
      list {
        shape {
          dim {
            size: -1
          }
        }
        shape {
          dim {
            size: -1
          }
        }
      }
    }
  }
}
node {
  name: "Train/Model/gradients/Train/Model/LSTM/add_grad/Sum"
  op: "Sum"
  input: "Train/Model/gradients/Train/Model/LSTM/Cast_grad/Cast"
  input: "Train/Model/gradients/Train/Model/LSTM/add_grad/BroadcastGradientArgs"
  attr {
    key: "T"
    value {
      type: DT_HALF
    }
  }
  attr {
    key: "Tidx"
    value {
      type: DT_INT32
    }
  }
  attr {
    key: "_output_shapes"
    value {
      list {
        shape {
          unknown_rank: true
        }
      }
    }
  }
  attr {
    key: "keep_dims"
    value {
      b: false
    }
  }
}
node {
  name: "Train/Model/gradients/Train/Model/LSTM/add_grad/Reshape"
  op: "Reshape"
  input: "Train/Model/gradients/Train/Model/LSTM/add_grad/Sum"
  input: "Train/Model/gradients/Train/Model/LSTM/add_grad/Shape"
  attr {
    key: "T"
    value {
      type: DT_HALF
    }
  }
  attr {
    key: "Tshape"
    value {
      type: DT_INT32
    }
  }
  attr {
    key: "_output_shapes"
    value {
      list {
        shape {
          dim {
            size: 51200
          }
          dim {
            size: 157
          }
        }
      }
    }
  }
}
node {
  name: "Train/Model/gradients/Train/Model/LSTM/add_grad/Sum_1"
  op: "Sum"
  input: "Train/Model/gradients/Train/Model/LSTM/Cast_grad/Cast"
  input: "Train/Model/gradients/Train/Model/LSTM/add_grad/BroadcastGradientArgs:1"
  attr {
    key: "T"
    value {
      type: DT_HALF
    }
  }
  attr {
    key: "Tidx"
    value {
      type: DT_INT32
    }
  }
  attr {
    key: "_output_shapes"
    value {
      list {
        shape {
          unknown_rank: true
        }
      }
    }
  }
  attr {
    key: "keep_dims"
    value {
      b: false
    }
  }
}
node {
  name: "Train/Model/gradients/Train/Model/LSTM/add_grad/Reshape_1"
  op: "Reshape"
  input: "Train/Model/gradients/Train/Model/LSTM/add_grad/Sum_1"
  input: "Train/Model/gradients/Train/Model/LSTM/add_grad/Shape_1"
  attr {
    key: "T"
    value {
      type: DT_HALF
    }
  }
  attr {
    key: "Tshape"
    value {
      type: DT_INT32
    }
  }
  attr {
    key: "_output_shapes"
    value {
      list {
        shape {
          dim {
            size: 157
          }
        }
      }
    }
  }
}
node {
  name: "Train/Model/gradients/Train/Model/LSTM/add_grad/tuple/group_deps"
  op: "NoOp"
  input: "^Train/Model/gradients/Train/Model/LSTM/add_grad/Reshape"
  input: "^Train/Model/gradients/Train/Model/LSTM/add_grad/Reshape_1"
}
node {
  name: "Train/Model/gradients/Train/Model/LSTM/add_grad/tuple/control_dependency"
  op: "Identity"
  input: "Train/Model/gradients/Train/Model/LSTM/add_grad/Reshape"
  input: "^Train/Model/gradients/Train/Model/LSTM/add_grad/tuple/group_deps"
  attr {
    key: "T"
    value {
      type: DT_HALF
    }
  }
  attr {
    key: "_class"
    value {
      list {
        s: "loc:@Train/Model/gradients/Train/Model/LSTM/add_grad/Reshape"
      }
    }
  }
  attr {
    key: "_output_shapes"
    value {
      list {
        shape {
          dim {
            size: 51200
          }
          dim {
            size: 157
          }
        }
      }
    }
  }
}
node {
  name: "Train/Model/gradients/Train/Model/LSTM/add_grad/tuple/control_dependency_1"
  op: "Identity"
  input: "Train/Model/gradients/Train/Model/LSTM/add_grad/Reshape_1"
  input: "^Train/Model/gradients/Train/Model/LSTM/add_grad/tuple/group_deps"
  attr {
    key: "T"
    value {
      type: DT_HALF
    }
  }
  attr {
    key: "_class"
    value {
      list {
        s: "loc:@Train/Model/gradients/Train/Model/LSTM/add_grad/Reshape_1"
      }
    }
  }
  attr {
    key: "_output_shapes"
    value {
      list {
        shape {
          dim {
            size: 157
          }
        }
      }
    }
  }
}
node {
  name: "Train/Model/gradients/Train/Model/LSTM/MatMul_grad/MatMul"
  op: "MatMul"
  input: "Train/Model/gradients/Train/Model/LSTM/add_grad/tuple/control_dependency"
  input: "Model/LSTM/softmax_w/read"
  attr {
    key: "T"
    value {
      type: DT_HALF
    }
  }
  attr {
    key: "_output_shapes"
    value {
      list {
        shape {
          dim {
            size: 51200
          }
          dim {
            size: 1024
          }
        }
      }
    }
  }
  attr {
    key: "transpose_a"
    value {
      b: false
    }
  }
  attr {
    key: "transpose_b"
    value {
      b: true
    }
  }
}
node {
  name: "Train/Model/gradients/Train/Model/LSTM/MatMul_grad/MatMul_1"
  op: "MatMul"
  input: "Train/Model/LSTM/Reshape"
  input: "Train/Model/gradients/Train/Model/LSTM/add_grad/tuple/control_dependency"
  attr {
    key: "T"
    value {
      type: DT_HALF
    }
  }
  attr {
    key: "_output_shapes"
    value {
      list {
        shape {
          dim {
            size: 1024
          }
          dim {
            size: 157
          }
        }
      }
    }
  }
  attr {
    key: "transpose_a"
    value {
      b: true
    }
  }
  attr {
    key: "transpose_b"
    value {
      b: false
    }
  }
}
node {
  name: "Train/Model/gradients/Train/Model/LSTM/MatMul_grad/tuple/group_deps"
  op: "NoOp"
  input: "^Train/Model/gradients/Train/Model/LSTM/MatMul_grad/MatMul"
  input: "^Train/Model/gradients/Train/Model/LSTM/MatMul_grad/MatMul_1"
}
node {
  name: "Train/Model/gradients/Train/Model/LSTM/MatMul_grad/tuple/control_dependency"
  op: "Identity"
  input: "Train/Model/gradients/Train/Model/LSTM/MatMul_grad/MatMul"
  input: "^Train/Model/gradients/Train/Model/LSTM/MatMul_grad/tuple/group_deps"
  attr {
    key: "T"
    value {
      type: DT_HALF
    }
  }
  attr {
    key: "_class"
    value {
      list {
        s: "loc:@Train/Model/gradients/Train/Model/LSTM/MatMul_grad/MatMul"
      }
    }
  }
  attr {
    key: "_output_shapes"
    value {
      list {
        shape {
          dim {
            size: 51200
          }
          dim {
            size: 1024
          }
        }
      }
    }
  }
}
node {
  name: "Train/Model/gradients/Train/Model/LSTM/MatMul_grad/tuple/control_dependency_1"
  op: "Identity"
  input: "Train/Model/gradients/Train/Model/LSTM/MatMul_grad/MatMul_1"
  input: "^Train/Model/gradients/Train/Model/LSTM/MatMul_grad/tuple/group_deps"
  attr {
    key: "T"
    value {
      type: DT_HALF
    }
  }
  attr {
    key: "_class"
    value {
      list {
        s: "loc:@Train/Model/gradients/Train/Model/LSTM/MatMul_grad/MatMul_1"
      }
    }
  }
  attr {
    key: "_output_shapes"
    value {
      list {
        shape {
          dim {
            size: 1024
          }
          dim {
            size: 157
          }
        }
      }
    }
  }
}
node {
  name: "Train/Model/gradients/Train/Model/LSTM/Reshape_grad/Shape"
  op: "Const"
  attr {
    key: "_output_shapes"
    value {
      list {
        shape {
          dim {
            size: 3
          }
        }
      }
    }
  }
  attr {
    key: "dtype"
    value {
      type: DT_INT32
    }
  }
  attr {
    key: "value"
    value {
      tensor {
        dtype: DT_INT32
        tensor_shape {
          dim {
            size: 3
          }
        }
        tensor_content: "\000\004\000\0002\000\000\000\000\004\000\000"
      }
    }
  }
}
node {
  name: "Train/Model/gradients/Train/Model/LSTM/Reshape_grad/Reshape"
  op: "Reshape"
  input: "Train/Model/gradients/Train/Model/LSTM/MatMul_grad/tuple/control_dependency"
  input: "Train/Model/gradients/Train/Model/LSTM/Reshape_grad/Shape"
  attr {
    key: "T"
    value {
      type: DT_HALF
    }
  }
  attr {
    key: "Tshape"
    value {
      type: DT_INT32
    }
  }
  attr {
    key: "_output_shapes"
    value {
      list {
        shape {
          dim {
            size: 1024
          }
          dim {
            size: 50
          }
          dim {
            size: 1024
          }
        }
      }
    }
  }
}
node {
  name: "Train/Model/gradients/Train/Model/LSTM/rnn/transpose_grad/InvertPermutation"
  op: "InvertPermutation"
  input: "Train/Model/LSTM/rnn/transpose/perm"
  attr {
    key: "T"
    value {
      type: DT_INT32
    }
  }
  attr {
    key: "_output_shapes"
    value {
      list {
        shape {
          dim {
            size: 3
          }
        }
      }
    }
  }
}
node {
  name: "Train/Model/gradients/Train/Model/LSTM/rnn/transpose_grad/transpose"
  op: "Transpose"
  input: "Train/Model/gradients/Train/Model/LSTM/Reshape_grad/Reshape"
  input: "Train/Model/gradients/Train/Model/LSTM/rnn/transpose_grad/InvertPermutation"
  attr {
    key: "T"
    value {
      type: DT_HALF
    }
  }
  attr {
    key: "Tperm"
    value {
      type: DT_INT32
    }
  }
  attr {
    key: "_output_shapes"
    value {
      list {
        shape {
          dim {
            size: 50
          }
          dim {
            size: 1024
          }
          dim {
            size: 1024
          }
        }
      }
    }
  }
}
node {
  name: "Train/Model/gradients/Train/Model/LSTM/rnn/TensorArrayStack/TensorArrayGatherV3_grad/TensorArrayGrad/TensorArrayGradV3"
  op: "TensorArrayGradV3"
  input: "Train/Model/LSTM/rnn/TensorArray"
  input: "Train/Model/LSTM/rnn/while/Exit_1"
  attr {
    key: "_class"
    value {
      list {
        s: "loc:@Train/Model/LSTM/rnn/TensorArray"
      }
    }
  }
  attr {
    key: "_output_shapes"
    value {
      list {
        shape {
          dim {
            size: 2
          }
        }
        shape {
          unknown_rank: true
        }
      }
    }
  }
  attr {
    key: "source"
    value {
      s: "Train/Model/gradients"
    }
  }
}
node {
  name: "Train/Model/gradients/Train/Model/LSTM/rnn/TensorArrayStack/TensorArrayGatherV3_grad/TensorArrayGrad/gradient_flow"
  op: "Identity"
  input: "Train/Model/LSTM/rnn/while/Exit_1"
  input: "^Train/Model/gradients/Train/Model/LSTM/rnn/TensorArrayStack/TensorArrayGatherV3_grad/TensorArrayGrad/TensorArrayGradV3"
  attr {
    key: "T"
    value {
      type: DT_FLOAT
    }
  }
  attr {
    key: "_class"
    value {
      list {
        s: "loc:@Train/Model/LSTM/rnn/TensorArray"
      }
    }
  }
  attr {
    key: "_output_shapes"
    value {
      list {
        shape {
          unknown_rank: true
        }
      }
    }
  }
}
node {
  name: "Train/Model/gradients/Train/Model/LSTM/rnn/TensorArrayStack/TensorArrayGatherV3_grad/TensorArrayScatter/TensorArrayScatterV3"
  op: "TensorArrayScatterV3"
  input: "Train/Model/gradients/Train/Model/LSTM/rnn/TensorArrayStack/TensorArrayGatherV3_grad/TensorArrayGrad/TensorArrayGradV3"
  input: "Train/Model/LSTM/rnn/TensorArrayStack/range"
  input: "Train/Model/gradients/Train/Model/LSTM/rnn/transpose_grad/transpose"
  input: "Train/Model/gradients/Train/Model/LSTM/rnn/TensorArrayStack/TensorArrayGatherV3_grad/TensorArrayGrad/gradient_flow"
  attr {
    key: "T"
    value {
      type: DT_HALF
    }
  }
  attr {
    key: "_class"
    value {
      list {
        s: "loc:@Train/Model/LSTM/rnn/TensorArray"
      }
    }
  }
  attr {
    key: "_output_shapes"
    value {
      list {
        shape {
        }
      }
    }
  }
}
node {
  name: "Train/Model/gradients/zeros"
  op: "Const"
  attr {
    key: "_output_shapes"
    value {
      list {
        shape {
          dim {
            size: 1024
          }
          dim {
            size: 1024
          }
        }
      }
    }
  }
  attr {
    key: "dtype"
    value {
      type: DT_HALF
    }
  }
  attr {
    key: "value"
    value {
      tensor {
        dtype: DT_HALF
        tensor_shape {
          dim {
            size: 1024
          }
          dim {
            size: 1024
          }
        }
        half_val: 0
      }
    }
  }
}
node {
  name: "Train/Model/gradients/zeros_1"
  op: "Const"
  attr {
    key: "_output_shapes"
    value {
      list {
        shape {
          dim {
            size: 1024
          }
          dim {
            size: 1024
          }
        }
      }
    }
  }
  attr {
    key: "dtype"
    value {
      type: DT_HALF
    }
  }
  attr {
    key: "value"
    value {
      tensor {
        dtype: DT_HALF
        tensor_shape {
          dim {
            size: 1024
          }
          dim {
            size: 1024
          }
        }
        half_val: 0
      }
    }
  }
}
node {
  name: "Train/Model/gradients/Train/Model/LSTM/rnn/while/Exit_1_grad/b_exit"
  op: "Enter"
  input: "Train/Model/gradients/Train/Model/LSTM/rnn/TensorArrayStack/TensorArrayGatherV3_grad/TensorArrayScatter/TensorArrayScatterV3"
  attr {
    key: "T"
    value {
      type: DT_FLOAT
    }
  }
  attr {
    key: "_output_shapes"
    value {
      list {
        shape {
        }
      }
    }
  }
  attr {
    key: "frame_name"
    value {
      s: "Train/Model/gradients/Train/Model/LSTM/rnn/while/Train/Model/LSTM/rnn/while/"
    }
  }
  attr {
    key: "is_constant"
    value {
      b: false
    }
  }
  attr {
    key: "parallel_iterations"
    value {
      i: 32
    }
  }
}
node {
  name: "Train/Model/gradients/Train/Model/LSTM/rnn/while/Exit_2_grad/b_exit"
  op: "Enter"
  input: "Train/Model/gradients/zeros"
  attr {
    key: "T"
    value {
      type: DT_HALF
    }
  }
  attr {
    key: "_output_shapes"
    value {
      list {
        shape {
          dim {
            size: 1024
          }
          dim {
            size: 1024
          }
        }
      }
    }
  }
  attr {
    key: "frame_name"
    value {
      s: "Train/Model/gradients/Train/Model/LSTM/rnn/while/Train/Model/LSTM/rnn/while/"
    }
  }
  attr {
    key: "is_constant"
    value {
      b: false
    }
  }
  attr {
    key: "parallel_iterations"
    value {
      i: 32
    }
  }
}
node {
  name: "Train/Model/gradients/Train/Model/LSTM/rnn/while/Exit_3_grad/b_exit"
  op: "Enter"
  input: "Train/Model/gradients/zeros_1"
  attr {
    key: "T"
    value {
      type: DT_HALF
    }
  }
  attr {
    key: "_output_shapes"
    value {
      list {
        shape {
          dim {
            size: 1024
          }
          dim {
            size: 1024
          }
        }
      }
    }
  }
  attr {
    key: "frame_name"
    value {
      s: "Train/Model/gradients/Train/Model/LSTM/rnn/while/Train/Model/LSTM/rnn/while/"
    }
  }
  attr {
    key: "is_constant"
    value {
      b: false
    }
  }
  attr {
    key: "parallel_iterations"
    value {
      i: 32
    }
  }
}
node {
  name: "Train/Model/gradients/Train/Model/LSTM/rnn/while/Switch_1_grad/b_switch"
  op: "Merge"
  input: "Train/Model/gradients/Train/Model/LSTM/rnn/while/Exit_1_grad/b_exit"
  input: "Train/Model/gradients/Train/Model/LSTM/rnn/while/Switch_1_grad_1/NextIteration"
  attr {
    key: "N"
    value {
      i: 2
    }
  }
  attr {
    key: "T"
    value {
      type: DT_FLOAT
    }
  }
  attr {
    key: "_output_shapes"
    value {
      list {
        shape {
        }
        shape {
        }
      }
    }
  }
}
node {
  name: "Train/Model/gradients/Train/Model/LSTM/rnn/while/Switch_2_grad/b_switch"
  op: "Merge"
  input: "Train/Model/gradients/Train/Model/LSTM/rnn/while/Exit_2_grad/b_exit"
  input: "Train/Model/gradients/Train/Model/LSTM/rnn/while/Switch_2_grad_1/NextIteration"
  attr {
    key: "N"
    value {
      i: 2
    }
  }
  attr {
    key: "T"
    value {
      type: DT_HALF
    }
  }
  attr {
    key: "_output_shapes"
    value {
      list {
        shape {
          dim {
            size: 1024
          }
          dim {
            size: 1024
          }
        }
        shape {
        }
      }
    }
  }
}
node {
  name: "Train/Model/gradients/Train/Model/LSTM/rnn/while/Switch_3_grad/b_switch"
  op: "Merge"
  input: "Train/Model/gradients/Train/Model/LSTM/rnn/while/Exit_3_grad/b_exit"
  input: "Train/Model/gradients/Train/Model/LSTM/rnn/while/Switch_3_grad_1/NextIteration"
  attr {
    key: "N"
    value {
      i: 2
    }
  }
  attr {
    key: "T"
    value {
      type: DT_HALF
    }
  }
  attr {
    key: "_output_shapes"
    value {
      list {
        shape {
          dim {
            size: 1024
          }
          dim {
            size: 1024
          }
        }
        shape {
        }
      }
    }
  }
}
node {
  name: "Train/Model/gradients/Train/Model/LSTM/rnn/while/Merge_1_grad/Switch"
  op: "Switch"
  input: "Train/Model/gradients/Train/Model/LSTM/rnn/while/Switch_1_grad/b_switch"
  input: "Train/Model/gradients/b_count_2"
  attr {
    key: "T"
    value {
      type: DT_FLOAT
    }
  }
  attr {
    key: "_class"
    value {
      list {
        s: "loc:@Train/Model/gradients/Train/Model/LSTM/rnn/while/Switch_1_grad/b_switch"
      }
    }
  }
  attr {
    key: "_output_shapes"
    value {
      list {
        shape {
        }
        shape {
        }
      }
    }
  }
}
node {
  name: "Train/Model/gradients/Train/Model/LSTM/rnn/while/Merge_1_grad/tuple/group_deps"
  op: "NoOp"
  input: "^Train/Model/gradients/Train/Model/LSTM/rnn/while/Merge_1_grad/Switch"
}
node {
  name: "Train/Model/gradients/Train/Model/LSTM/rnn/while/Merge_1_grad/tuple/control_dependency"
  op: "Identity"
  input: "Train/Model/gradients/Train/Model/LSTM/rnn/while/Merge_1_grad/Switch"
  input: "^Train/Model/gradients/Train/Model/LSTM/rnn/while/Merge_1_grad/tuple/group_deps"
  attr {
    key: "T"
    value {
      type: DT_FLOAT
    }
  }
  attr {
    key: "_class"
    value {
      list {
        s: "loc:@Train/Model/gradients/Train/Model/LSTM/rnn/while/Switch_1_grad/b_switch"
      }
    }
  }
  attr {
    key: "_output_shapes"
    value {
      list {
        shape {
        }
      }
    }
  }
}
node {
  name: "Train/Model/gradients/Train/Model/LSTM/rnn/while/Merge_1_grad/tuple/control_dependency_1"
  op: "Identity"
  input: "Train/Model/gradients/Train/Model/LSTM/rnn/while/Merge_1_grad/Switch:1"
  input: "^Train/Model/gradients/Train/Model/LSTM/rnn/while/Merge_1_grad/tuple/group_deps"
  attr {
    key: "T"
    value {
      type: DT_FLOAT
    }
  }
  attr {
    key: "_class"
    value {
      list {
        s: "loc:@Train/Model/gradients/Train/Model/LSTM/rnn/while/Switch_1_grad/b_switch"
      }
    }
  }
  attr {
    key: "_output_shapes"
    value {
      list {
        shape {
        }
      }
    }
  }
}
node {
  name: "Train/Model/gradients/Train/Model/LSTM/rnn/while/Merge_2_grad/Switch"
  op: "Switch"
  input: "Train/Model/gradients/Train/Model/LSTM/rnn/while/Switch_2_grad/b_switch"
  input: "Train/Model/gradients/b_count_2"
  attr {
    key: "T"
    value {
      type: DT_HALF
    }
  }
  attr {
    key: "_class"
    value {
      list {
        s: "loc:@Train/Model/gradients/Train/Model/LSTM/rnn/while/Switch_2_grad/b_switch"
      }
    }
  }
  attr {
    key: "_output_shapes"
    value {
      list {
        shape {
          dim {
            size: 1024
          }
          dim {
            size: 1024
          }
        }
        shape {
          dim {
            size: 1024
          }
          dim {
            size: 1024
          }
        }
      }
    }
  }
}
node {
  name: "Train/Model/gradients/Train/Model/LSTM/rnn/while/Merge_2_grad/tuple/group_deps"
  op: "NoOp"
  input: "^Train/Model/gradients/Train/Model/LSTM/rnn/while/Merge_2_grad/Switch"
}
node {
  name: "Train/Model/gradients/Train/Model/LSTM/rnn/while/Merge_2_grad/tuple/control_dependency"
  op: "Identity"
  input: "Train/Model/gradients/Train/Model/LSTM/rnn/while/Merge_2_grad/Switch"
  input: "^Train/Model/gradients/Train/Model/LSTM/rnn/while/Merge_2_grad/tuple/group_deps"
  attr {
    key: "T"
    value {
      type: DT_HALF
    }
  }
  attr {
    key: "_class"
    value {
      list {
        s: "loc:@Train/Model/gradients/Train/Model/LSTM/rnn/while/Switch_2_grad/b_switch"
      }
    }
  }
  attr {
    key: "_output_shapes"
    value {
      list {
        shape {
          dim {
            size: 1024
          }
          dim {
            size: 1024
          }
        }
      }
    }
  }
}
node {
  name: "Train/Model/gradients/Train/Model/LSTM/rnn/while/Merge_2_grad/tuple/control_dependency_1"
  op: "Identity"
  input: "Train/Model/gradients/Train/Model/LSTM/rnn/while/Merge_2_grad/Switch:1"
  input: "^Train/Model/gradients/Train/Model/LSTM/rnn/while/Merge_2_grad/tuple/group_deps"
  attr {
    key: "T"
    value {
      type: DT_HALF
    }
  }
  attr {
    key: "_class"
    value {
      list {
        s: "loc:@Train/Model/gradients/Train/Model/LSTM/rnn/while/Switch_2_grad/b_switch"
      }
    }
  }
  attr {
    key: "_output_shapes"
    value {
      list {
        shape {
          dim {
            size: 1024
          }
          dim {
            size: 1024
          }
        }
      }
    }
  }
}
node {
  name: "Train/Model/gradients/Train/Model/LSTM/rnn/while/Merge_3_grad/Switch"
  op: "Switch"
  input: "Train/Model/gradients/Train/Model/LSTM/rnn/while/Switch_3_grad/b_switch"
  input: "Train/Model/gradients/b_count_2"
  attr {
    key: "T"
    value {
      type: DT_HALF
    }
  }
  attr {
    key: "_class"
    value {
      list {
        s: "loc:@Train/Model/gradients/Train/Model/LSTM/rnn/while/Switch_3_grad/b_switch"
      }
    }
  }
  attr {
    key: "_output_shapes"
    value {
      list {
        shape {
          dim {
            size: 1024
          }
          dim {
            size: 1024
          }
        }
        shape {
          dim {
            size: 1024
          }
          dim {
            size: 1024
          }
        }
      }
    }
  }
}
node {
  name: "Train/Model/gradients/Train/Model/LSTM/rnn/while/Merge_3_grad/tuple/group_deps"
  op: "NoOp"
  input: "^Train/Model/gradients/Train/Model/LSTM/rnn/while/Merge_3_grad/Switch"
}
node {
  name: "Train/Model/gradients/Train/Model/LSTM/rnn/while/Merge_3_grad/tuple/control_dependency"
  op: "Identity"
  input: "Train/Model/gradients/Train/Model/LSTM/rnn/while/Merge_3_grad/Switch"
  input: "^Train/Model/gradients/Train/Model/LSTM/rnn/while/Merge_3_grad/tuple/group_deps"
  attr {
    key: "T"
    value {
      type: DT_HALF
    }
  }
  attr {
    key: "_class"
    value {
      list {
        s: "loc:@Train/Model/gradients/Train/Model/LSTM/rnn/while/Switch_3_grad/b_switch"
      }
    }
  }
  attr {
    key: "_output_shapes"
    value {
      list {
        shape {
          dim {
            size: 1024
          }
          dim {
            size: 1024
          }
        }
      }
    }
  }
}
node {
  name: "Train/Model/gradients/Train/Model/LSTM/rnn/while/Merge_3_grad/tuple/control_dependency_1"
  op: "Identity"
  input: "Train/Model/gradients/Train/Model/LSTM/rnn/while/Merge_3_grad/Switch:1"
  input: "^Train/Model/gradients/Train/Model/LSTM/rnn/while/Merge_3_grad/tuple/group_deps"
  attr {
    key: "T"
    value {
      type: DT_HALF
    }
  }
  attr {
    key: "_class"
    value {
      list {
        s: "loc:@Train/Model/gradients/Train/Model/LSTM/rnn/while/Switch_3_grad/b_switch"
      }
    }
  }
  attr {
    key: "_output_shapes"
    value {
      list {
        shape {
          dim {
            size: 1024
          }
          dim {
            size: 1024
          }
        }
      }
    }
  }
}
node {
  name: "Train/Model/gradients/Train/Model/LSTM/rnn/while/TensorArrayWrite/TensorArrayWriteV3_grad/TensorArrayGrad/TensorArrayGradV3/Enter"
  op: "Enter"
  input: "Train/Model/LSTM/rnn/TensorArray"
  attr {
    key: "T"
    value {
      type: DT_RESOURCE
    }
  }
  attr {
    key: "_class"
    value {
      list {
        s: "loc:@Train/Model/LSTM/rnn/TensorArray"
      }
    }
  }
  attr {
    key: "_output_shapes"
    value {
      list {
        shape {
          dim {
            size: 2
          }
        }
      }
    }
  }
  attr {
    key: "frame_name"
    value {
      s: "Train/Model/gradients/Train/Model/LSTM/rnn/while/Train/Model/LSTM/rnn/while/"
    }
  }
  attr {
    key: "is_constant"
    value {
      b: true
    }
  }
  attr {
    key: "parallel_iterations"
    value {
      i: 32
    }
  }
}
node {
  name: "Train/Model/gradients/Train/Model/LSTM/rnn/while/TensorArrayWrite/TensorArrayWriteV3_grad/TensorArrayGrad/TensorArrayGradV3"
  op: "TensorArrayGradV3"
  input: "Train/Model/gradients/Train/Model/LSTM/rnn/while/TensorArrayWrite/TensorArrayWriteV3_grad/TensorArrayGrad/TensorArrayGradV3/Enter"
  input: "Train/Model/gradients/Train/Model/LSTM/rnn/while/Merge_1_grad/tuple/control_dependency_1"
  attr {
    key: "_class"
    value {
      list {
        s: "loc:@Train/Model/LSTM/rnn/TensorArray"
      }
    }
  }
  attr {
    key: "_output_shapes"
    value {
      list {
        shape {
          dim {
            size: 2
          }
        }
        shape {
          unknown_rank: true
        }
      }
    }
  }
  attr {
    key: "source"
    value {
      s: "Train/Model/gradients"
    }
  }
}
node {
  name: "Train/Model/gradients/Train/Model/LSTM/rnn/while/TensorArrayWrite/TensorArrayWriteV3_grad/TensorArrayGrad/gradient_flow"
  op: "Identity"
  input: "Train/Model/gradients/Train/Model/LSTM/rnn/while/Merge_1_grad/tuple/control_dependency_1"
  input: "^Train/Model/gradients/Train/Model/LSTM/rnn/while/TensorArrayWrite/TensorArrayWriteV3_grad/TensorArrayGrad/TensorArrayGradV3"
  attr {
    key: "T"
    value {
      type: DT_FLOAT
    }
  }
  attr {
    key: "_class"
    value {
      list {
        s: "loc:@Train/Model/LSTM/rnn/TensorArray"
      }
    }
  }
  attr {
    key: "_output_shapes"
    value {
      list {
        shape {
        }
      }
    }
  }
}
node {
  name: "Train/Model/gradients/Train/Model/LSTM/rnn/while/TensorArrayWrite/TensorArrayWriteV3_grad/TensorArrayReadV3/f_acc"
  op: "Stack"
  attr {
    key: "_class"
    value {
      list {
        s: "loc:@Train/Model/LSTM/rnn/TensorArray"
        s: "loc:@Train/Model/LSTM/rnn/while/Identity"
      }
    }
  }
  attr {
    key: "_output_shapes"
    value {
      list {
        shape {
          dim {
            size: 2
          }
        }
      }
    }
  }
  attr {
    key: "elem_type"
    value {
      type: DT_INT32
    }
  }
  attr {
    key: "stack_name"
    value {
      s: ""
    }
  }
}
node {
  name: "Train/Model/gradients/Train/Model/LSTM/rnn/while/TensorArrayWrite/TensorArrayWriteV3_grad/TensorArrayReadV3/RefEnter"
  op: "RefEnter"
  input: "Train/Model/gradients/Train/Model/LSTM/rnn/while/TensorArrayWrite/TensorArrayWriteV3_grad/TensorArrayReadV3/f_acc"
  attr {
    key: "T"
    value {
      type: DT_STRING
    }
  }
  attr {
    key: "_class"
    value {
      list {
        s: "loc:@Train/Model/LSTM/rnn/TensorArray"
        s: "loc:@Train/Model/LSTM/rnn/while/Identity"
      }
    }
  }
  attr {
    key: "_output_shapes"
    value {
      list {
        shape {
          dim {
            size: 2
          }
        }
      }
    }
  }
  attr {
    key: "frame_name"
    value {
      s: "Train/Model/LSTM/rnn/while/Train/Model/LSTM/rnn/while/"
    }
  }
  attr {
    key: "is_constant"
    value {
      b: true
    }
  }
  attr {
    key: "parallel_iterations"
    value {
      i: 32
    }
  }
}
node {
  name: "Train/Model/gradients/Train/Model/LSTM/rnn/while/TensorArrayWrite/TensorArrayWriteV3_grad/TensorArrayReadV3/StackPush"
  op: "StackPush"
  input: "Train/Model/gradients/Train/Model/LSTM/rnn/while/TensorArrayWrite/TensorArrayWriteV3_grad/TensorArrayReadV3/RefEnter"
  input: "Train/Model/LSTM/rnn/while/Identity"
  input: "^Train/Model/gradients/Add"
  attr {
    key: "T"
    value {
      type: DT_INT32
    }
  }
  attr {
    key: "_class"
    value {
      list {
        s: "loc:@Train/Model/LSTM/rnn/TensorArray"
        s: "loc:@Train/Model/LSTM/rnn/while/Identity"
      }
    }
  }
  attr {
    key: "_output_shapes"
    value {
      list {
        shape {
          unknown_rank: true
        }
      }
    }
  }
  attr {
    key: "swap_memory"
    value {
      b: false
    }
  }
}
node {
  name: "Train/Model/gradients/Train/Model/LSTM/rnn/while/TensorArrayWrite/TensorArrayWriteV3_grad/TensorArrayReadV3/StackPop/RefEnter"
  op: "RefEnter"
  input: "Train/Model/gradients/Train/Model/LSTM/rnn/while/TensorArrayWrite/TensorArrayWriteV3_grad/TensorArrayReadV3/f_acc"
  attr {
    key: "T"
    value {
      type: DT_STRING
    }
  }
  attr {
    key: "_class"
    value {
      list {
        s: "loc:@Train/Model/LSTM/rnn/TensorArray"
        s: "loc:@Train/Model/LSTM/rnn/while/Identity"
      }
    }
  }
  attr {
    key: "_output_shapes"
    value {
      list {
        shape {
          dim {
            size: 2
          }
        }
      }
    }
  }
  attr {
    key: "frame_name"
    value {
      s: "Train/Model/gradients/Train/Model/LSTM/rnn/while/Train/Model/LSTM/rnn/while/"
    }
  }
  attr {
    key: "is_constant"
    value {
      b: true
    }
  }
  attr {
    key: "parallel_iterations"
    value {
      i: 32
    }
  }
}
node {
  name: "Train/Model/gradients/Train/Model/LSTM/rnn/while/TensorArrayWrite/TensorArrayWriteV3_grad/TensorArrayReadV3/StackPop"
  op: "StackPop"
  input: "Train/Model/gradients/Train/Model/LSTM/rnn/while/TensorArrayWrite/TensorArrayWriteV3_grad/TensorArrayReadV3/StackPop/RefEnter"
  input: "^Train/Model/gradients/Sub"
  attr {
    key: "_class"
    value {
      list {
        s: "loc:@Train/Model/LSTM/rnn/TensorArray"
        s: "loc:@Train/Model/LSTM/rnn/while/Identity"
      }
    }
  }
  attr {
    key: "_output_shapes"
    value {
      list {
        shape {
        }
      }
    }
  }
  attr {
    key: "elem_type"
    value {
      type: DT_INT32
    }
  }
}
node {
  name: "Train/Model/gradients/Train/Model/LSTM/rnn/while/TensorArrayWrite/TensorArrayWriteV3_grad/TensorArrayReadV3/b_sync"
  op: "ControlTrigger"
  input: "^Train/Model/gradients/Train/Model/LSTM/rnn/while/TensorArrayWrite/TensorArrayWriteV3_grad/TensorArrayReadV3/StackPop"
  input: "^Train/Model/gradients/Train/Model/LSTM/rnn/while/basic_lstm_cell/mul_2_grad/mul/StackPop"
  input: "^Train/Model/gradients/Train/Model/LSTM/rnn/while/basic_lstm_cell/mul_2_grad/mul_1/StackPop"
  input: "^Train/Model/gradients/Train/Model/LSTM/rnn/while/basic_lstm_cell/mul_grad/mul/StackPop"
  input: "^Train/Model/gradients/Train/Model/LSTM/rnn/while/basic_lstm_cell/mul_grad/mul_1/StackPop"
  input: "^Train/Model/gradients/Train/Model/LSTM/rnn/while/basic_lstm_cell/mul_1_grad/mul/StackPop"
  input: "^Train/Model/gradients/Train/Model/LSTM/rnn/while/basic_lstm_cell/mul_1_grad/mul_1/StackPop"
  input: "^Train/Model/gradients/Train/Model/LSTM/rnn/while/basic_lstm_cell/split_grad/concat/StackPop"
  input: "^Train/Model/gradients/Train/Model/LSTM/rnn/while/basic_lstm_cell/basic_lstm_cell/MatMul_grad/MatMul_1/StackPop"
  input: "^Train/Model/gradients/Train/Model/LSTM/rnn/while/basic_lstm_cell/basic_lstm_cell/concat_grad/mod/StackPop"
  attr {
    key: "_class"
    value {
      list {
        s: "loc:@Train/Model/LSTM/rnn/TensorArray"
      }
    }
  }
}
node {
  name: "Train/Model/gradients/Train/Model/LSTM/rnn/while/TensorArrayWrite/TensorArrayWriteV3_grad/TensorArrayReadV3"
  op: "TensorArrayReadV3"
  input: "Train/Model/gradients/Train/Model/LSTM/rnn/while/TensorArrayWrite/TensorArrayWriteV3_grad/TensorArrayGrad/TensorArrayGradV3"
  input: "Train/Model/gradients/Train/Model/LSTM/rnn/while/TensorArrayWrite/TensorArrayWriteV3_grad/TensorArrayReadV3/StackPop"
  input: "Train/Model/gradients/Train/Model/LSTM/rnn/while/TensorArrayWrite/TensorArrayWriteV3_grad/TensorArrayGrad/gradient_flow"
  attr {
    key: "_class"
    value {
      list {
        s: "loc:@Train/Model/LSTM/rnn/TensorArray"
      }
    }
  }
  attr {
    key: "_output_shapes"
    value {
      list {
        shape {
          unknown_rank: true
        }
      }
    }
  }
  attr {
    key: "dtype"
    value {
      type: DT_HALF
    }
  }
}
node {
  name: "Train/Model/gradients/Train/Model/LSTM/rnn/while/TensorArrayWrite/TensorArrayWriteV3_grad/tuple/group_deps"
  op: "NoOp"
  input: "^Train/Model/gradients/Train/Model/LSTM/rnn/while/Merge_1_grad/tuple/control_dependency_1"
  input: "^Train/Model/gradients/Train/Model/LSTM/rnn/while/TensorArrayWrite/TensorArrayWriteV3_grad/TensorArrayReadV3"
}
node {
  name: "Train/Model/gradients/Train/Model/LSTM/rnn/while/TensorArrayWrite/TensorArrayWriteV3_grad/tuple/control_dependency"
  op: "Identity"
  input: "Train/Model/gradients/Train/Model/LSTM/rnn/while/TensorArrayWrite/TensorArrayWriteV3_grad/TensorArrayReadV3"
  input: "^Train/Model/gradients/Train/Model/LSTM/rnn/while/TensorArrayWrite/TensorArrayWriteV3_grad/tuple/group_deps"
  attr {
    key: "T"
    value {
      type: DT_HALF
    }
  }
  attr {
    key: "_class"
    value {
      list {
        s: "loc:@Train/Model/LSTM/rnn/TensorArray"
      }
    }
  }
  attr {
    key: "_output_shapes"
    value {
      list {
        shape {
          dim {
            size: 1024
          }
          dim {
            size: 1024
          }
        }
      }
    }
  }
}
node {
  name: "Train/Model/gradients/Train/Model/LSTM/rnn/while/TensorArrayWrite/TensorArrayWriteV3_grad/tuple/control_dependency_1"
  op: "Identity"
  input: "Train/Model/gradients/Train/Model/LSTM/rnn/while/Merge_1_grad/tuple/control_dependency_1"
  input: "^Train/Model/gradients/Train/Model/LSTM/rnn/while/TensorArrayWrite/TensorArrayWriteV3_grad/tuple/group_deps"
  attr {
    key: "T"
    value {
      type: DT_FLOAT
    }
  }
  attr {
    key: "_class"
    value {
      list {
        s: "loc:@Train/Model/gradients/Train/Model/LSTM/rnn/while/Switch_1_grad/b_switch"
      }
    }
  }
  attr {
    key: "_output_shapes"
    value {
      list {
        shape {
…
        s: "loc:@Train/Model/LSTM/rnn/while/basic_lstm_cell/basic_lstm_cell/concat/axis"
      }
    }
  }
  attr {
    key: "_output_shapes"
    value {
      list {
        shape {
          unknown_rank: true
        }
      }
    }
  }
  attr {
    key: "swap_memory"
    value {
      b: false
    }
  }
}
node {
  name: "Train/Model/gradients/Train/Model/LSTM/rnn/while/basic_lstm_cell/basic_lstm_cell/concat_grad/mod/StackPop/RefEnter"
  op: "RefEnter"
  input: "Train/Model/gradients/Train/Model/LSTM/rnn/while/basic_lstm_cell/basic_lstm_cell/concat_grad/mod/f_acc"
  attr {
    key: "T"
    value {
      type: DT_STRING
    }
  }
  attr {
    key: "_class"
    value {
      list {
        s: "loc:@Train/Model/LSTM/rnn/while/basic_lstm_cell/basic_lstm_cell/concat/axis"
      }
    }
  }
  attr {
    key: "_output_shapes"
    value {
      list {
        shape {
          dim {
            size: 2
          }
        }
      }
    }
  }
  attr {
    key: "frame_name"
    value {
      s: "Train/Model/gradients/Train/Model/LSTM/rnn/while/Train/Model/LSTM/rnn/while/"
    }
  }
  attr {
    key: "is_constant"
    value {
      b: true
    }
  }
  attr {
    key: "parallel_iterations"
    value {
      i: 32
    }
  }
}
node {
  name: "Train/Model/gradients/Train/Model/LSTM/rnn/while/basic_lstm_cell/basic_lstm_cell/concat_grad/mod/StackPop"
  op: "StackPop"
  input: "Train/Model/gradients/Train/Model/LSTM/rnn/while/basic_lstm_cell/basic_lstm_cell/concat_grad/mod/StackPop/RefEnter"
  input: "^Train/Model/gradients/Sub"
  attr {
    key: "_class"
    value {
      list {
        s: "loc:@Train/Model/LSTM/rnn/while/basic_lstm_cell/basic_lstm_cell/concat/axis"
      }
    }
  }
  attr {
    key: "_output_shapes"
    value {
      list {
        shape {
        }
      }
    }
  }
  attr {
    key: "elem_type"
    value {
      type: DT_INT32
    }
  }
}
node {
  name: "Train/Model/gradients/Train/Model/LSTM/rnn/while/basic_lstm_cell/basic_lstm_cell/concat_grad/mod"
  op: "FloorMod"
  input: "Train/Model/gradients/Train/Model/LSTM/rnn/while/basic_lstm_cell/basic_lstm_cell/concat_grad/mod/StackPop"
  input: "Train/Model/gradients/Train/Model/LSTM/rnn/while/basic_lstm_cell/basic_lstm_cell/concat_grad/Rank"
  attr {
    key: "T"
    value {
      type: DT_INT32
    }
  }
  attr {
    key: "_output_shapes"
    value {
      list {
        shape {
        }
      }
    }
  }
}
node {
  name: "Train/Model/gradients/Train/Model/LSTM/rnn/while/basic_lstm_cell/basic_lstm_cell/concat_grad/Shape"
  op: "Const"
  input: "^Train/Model/gradients/Sub"
  attr {
    key: "_output_shapes"
    value {
      list {
        shape {
          dim {
            size: 2
          }
        }
      }
    }
  }
  attr {
    key: "dtype"
    value {
      type: DT_INT32
    }
  }
  attr {
    key: "value"
    value {
      tensor {
        dtype: DT_INT32
        tensor_shape {
          dim {
            size: 2
          }
        }
        tensor_content: "\000\004\000\000\235\000\000\000"
      }
    }
  }
}
node {
  name: "Train/Model/gradients/Train/Model/LSTM/rnn/while/basic_lstm_cell/basic_lstm_cell/concat_grad/Shape_1"
  op: "Const"
  input: "^Train/Model/gradients/Sub"
  attr {
    key: "_output_shapes"
    value {
      list {
        shape {
          dim {
            size: 2
          }
        }
      }
    }
  }
  attr {
    key: "dtype"
    value {
      type: DT_INT32
    }
  }
  attr {
    key: "value"
    value {
      tensor {
        dtype: DT_INT32
        tensor_shape {
          dim {
            size: 2
          }
        }
        tensor_content: "\000\004\000\000\000\004\000\000"
      }
    }
  }
}
node {
  name: "Train/Model/gradients/Train/Model/LSTM/rnn/while/basic_lstm_cell/basic_lstm_cell/concat_grad/ConcatOffset"
  op: "ConcatOffset"
  input: "Train/Model/gradients/Train/Model/LSTM/rnn/while/basic_lstm_cell/basic_lstm_cell/concat_grad/mod"
  input: "Train/Model/gradients/Train/Model/LSTM/rnn/while/basic_lstm_cell/basic_lstm_cell/concat_grad/Shape"
  input: "Train/Model/gradients/Train/Model/LSTM/rnn/while/basic_lstm_cell/basic_lstm_cell/concat_grad/Shape_1"
  attr {
    key: "N"
    value {
      i: 2
    }
  }
  attr {
    key: "_output_shapes"
    value {
      list {
        shape {
          dim {
            size: 2
          }
        }
        shape {
          dim {
            size: 2
          }
        }
      }
    }
  }
}
node {
  name: "Train/Model/gradients/Train/Model/LSTM/rnn/while/basic_lstm_cell/basic_lstm_cell/concat_grad/Slice"
  op: "Slice"
  input: "Train/Model/gradients/Train/Model/LSTM/rnn/while/basic_lstm_cell/basic_lstm_cell/MatMul_grad/tuple/control_dependency"
  input: "Train/Model/gradients/Train/Model/LSTM/rnn/while/basic_lstm_cell/basic_lstm_cell/concat_grad/ConcatOffset"
  input: "Train/Model/gradients/Train/Model/LSTM/rnn/while/basic_lstm_cell/basic_lstm_cell/concat_grad/Shape"
  attr {
    key: "Index"
    value {
      type: DT_INT32
    }
  }
  attr {
    key: "T"
    value {
      type: DT_HALF
    }
  }
  attr {
    key: "_output_shapes"
    value {
      list {
        shape {
          dim {
            size: 1024
          }
          dim {
            size: 157
          }
        }
      }
    }
  }
}
node {
  name: "Train/Model/gradients/Train/Model/LSTM/rnn/while/basic_lstm_cell/basic_lstm_cell/concat_grad/Slice_1"
  op: "Slice"
  input: "Train/Model/gradients/Train/Model/LSTM/rnn/while/basic_lstm_cell/basic_lstm_cell/MatMul_grad/tuple/control_dependency"
  input: "Train/Model/gradients/Train/Model/LSTM/rnn/while/basic_lstm_cell/basic_lstm_cell/concat_grad/ConcatOffset:1"
  input: "Train/Model/gradients/Train/Model/LSTM/rnn/while/basic_lstm_cell/basic_lstm_cell/concat_grad/Shape_1"
  attr {
    key: "Index"
    value {
      type: DT_INT32
    }
  }
  attr {
    key: "T"
    value {
      type: DT_HALF
    }
  }
  attr {
    key: "_output_shapes"
    value {
      list {
        shape {
          dim {
            size: 1024
          }
          dim {
            size: 1024
          }
        }
      }
    }
  }
}
node {
  name: "Train/Model/gradients/Train/Model/LSTM/rnn/while/basic_lstm_cell/basic_lstm_cell/concat_grad/tuple/group_deps"
  op: "NoOp"
  input: "^Train/Model/gradients/Train/Model/LSTM/rnn/while/basic_lstm_cell/basic_lstm_cell/concat_grad/Slice"
  input: "^Train/Model/gradients/Train/Model/LSTM/rnn/while/basic_lstm_cell/basic_lstm_cell/concat_grad/Slice_1"
}
node {
  name: "Train/Model/gradients/Train/Model/LSTM/rnn/while/basic_lstm_cell/basic_lstm_cell/concat_grad/tuple/control_dependency"
  op: "Identity"
  input: "Train/Model/gradients/Train/Model/LSTM/rnn/while/basic_lstm_cell/basic_lstm_cell/concat_grad/Slice"
  input: "^Train/Model/gradients/Train/Model/LSTM/rnn/while/basic_lstm_cell/basic_lstm_cell/concat_grad/tuple/group_deps"
  attr {
    key: "T"
    value {
      type: DT_HALF
    }
  }
  attr {
    key: "_class"
    value {
      list {
        s: "loc:@Train/Model/gradients/Train/Model/LSTM/rnn/while/basic_lstm_cell/basic_lstm_cell/concat_grad/Slice"
      }
    }
  }
  attr {
    key: "_output_shapes"
    value {
      list {
        shape {
          dim {
            size: 1024
          }
          dim {
            size: 157
          }
        }
      }
    }
  }
}
node {
  name: "Train/Model/gradients/Train/Model/LSTM/rnn/while/basic_lstm_cell/basic_lstm_cell/concat_grad/tuple/control_dependency_1"
  op: "Identity"
  input: "Train/Model/gradients/Train/Model/LSTM/rnn/while/basic_lstm_cell/basic_lstm_cell/concat_grad/Slice_1"
  input: "^Train/Model/gradients/Train/Model/LSTM/rnn/while/basic_lstm_cell/basic_lstm_cell/concat_grad/tuple/group_deps"
  attr {
    key: "T"
    value {
      type: DT_HALF
    }
  }
  attr {
    key: "_class"
    value {
      list {
        s: "loc:@Train/Model/gradients/Train/Model/LSTM/rnn/while/basic_lstm_cell/basic_lstm_cell/concat_grad/Slice_1"
      }
    }
  }
  attr {
    key: "_output_shapes"
    value {
      list {
        shape {
          dim {
            size: 1024
          }
          dim {
            size: 1024
          }
        }
      }
    }
  }
}
node {
  name: "Train/Model/gradients/Train/Model/LSTM/rnn/while/basic_lstm_cell/basic_lstm_cell/MatMul/Enter_grad/b_acc"
  op: "Const"
  attr {
    key: "_output_shapes"
    value {
      list {
        shape {
          dim {
            size: 1181
          }
          dim {
            size: 4096
          }
        }
      }
    }
  }
  attr {
    key: "dtype"
    value {
      type: DT_HALF
    }
  }
  attr {
    key: "value"
    value {
      tensor {
        dtype: DT_HALF
        tensor_shape {
          dim {
            size: 1181
          }
          dim {
            size: 4096
          }
        }
        half_val: 0
      }
    }
  }
}
node {
  name: "Train/Model/gradients/Train/Model/LSTM/rnn/while/basic_lstm_cell/basic_lstm_cell/MatMul/Enter_grad/b_acc_1"
  op: "Enter"
  input: "Train/Model/gradients/Train/Model/LSTM/rnn/while/basic_lstm_cell/basic_lstm_cell/MatMul/Enter_grad/b_acc"
  attr {
    key: "T"
    value {
      type: DT_HALF
    }
  }
  attr {
    key: "_output_shapes"
    value {
      list {
        shape {
          dim {
            size: 1181
          }
          dim {
            size: 4096
          }
        }
      }
    }
  }
  attr {
    key: "frame_name"
    value {
      s: "Train/Model/gradients/Train/Model/LSTM/rnn/while/Train/Model/LSTM/rnn/while/"
    }
  }
  attr {
    key: "is_constant"
    value {
      b: false
    }
  }
  attr {
    key: "parallel_iterations"
    value {
      i: 32
    }
  }
}
node {
  name: "Train/Model/gradients/Train/Model/LSTM/rnn/while/basic_lstm_cell/basic_lstm_cell/MatMul/Enter_grad/b_acc_2"
  op: "Merge"
  input: "Train/Model/gradients/Train/Model/LSTM/rnn/while/basic_lstm_cell/basic_lstm_cell/MatMul/Enter_grad/b_acc_1"
  input: "Train/Model/gradients/Train/Model/LSTM/rnn/while/basic_lstm_cell/basic_lstm_cell/MatMul/Enter_grad/NextIteration"
  attr {
    key: "N"
    value {
      i: 2
    }
  }
  attr {
    key: "T"
    value {
      type: DT_HALF
    }
  }
  attr {
    key: "_output_shapes"
    value {
      list {
        shape {
          dim {
            size: 1181
          }
          dim {
            size: 4096
          }
        }
        shape {
        }
      }
    }
  }
}
node {
  name: "Train/Model/gradients/Train/Model/LSTM/rnn/while/basic_lstm_cell/basic_lstm_cell/MatMul/Enter_grad/Switch"
  op: "Switch"
  input: "Train/Model/gradients/Train/Model/LSTM/rnn/while/basic_lstm_cell/basic_lstm_cell/MatMul/Enter_grad/b_acc_2"
  input: "Train/Model/gradients/b_count_2"
  attr {
    key: "T"
    value {
      type: DT_HALF
    }
  }
  attr {
    key: "_output_shapes"
    value {
      list {
        shape {
          dim {
            size: 1181
          }
          dim {
            size: 4096
          }
        }
        shape {
          dim {
            size: 1181
          }
          dim {
            size: 4096
          }
        }
      }
    }
  }
}
node {
  name: "Train/Model/gradients/Train/Model/LSTM/rnn/while/basic_lstm_cell/basic_lstm_cell/MatMul/Enter_grad/Add"
  op: "Add"
  input: "Train/Model/gradients/Train/Model/LSTM/rnn/while/basic_lstm_cell/basic_lstm_cell/MatMul/Enter_grad/Switch:1"
  input: "Train/Model/gradients/Train/Model/LSTM/rnn/while/basic_lstm_cell/basic_lstm_cell/MatMul_grad/tuple/control_dependency_1"
  attr {
    key: "T"
    value {
      type: DT_HALF
    }
  }
  attr {
    key: "_output_shapes"
    value {
      list {
        shape {
          dim {
            size: 1181
          }
          dim {
            size: 4096
          }
        }
      }
    }
  }
}
node {
  name: "Train/Model/gradients/Train/Model/LSTM/rnn/while/basic_lstm_cell/basic_lstm_cell/MatMul/Enter_grad/NextIteration"
  op: "NextIteration"
  input: "Train/Model/gradients/Train/Model/LSTM/rnn/while/basic_lstm_cell/basic_lstm_cell/MatMul/Enter_grad/Add"
  attr {
    key: "T"
    value {
      type: DT_HALF
    }
  }
  attr {
    key: "_output_shapes"
    value {
      list {
        shape {
          dim {
            size: 1181
          }
          dim {
            size: 4096
          }
        }
      }
    }
  }
}
node {
  name: "Train/Model/gradients/Train/Model/LSTM/rnn/while/basic_lstm_cell/basic_lstm_cell/MatMul/Enter_grad/b_acc_3"
  op: "Exit"
  input: "Train/Model/gradients/Train/Model/LSTM/rnn/while/basic_lstm_cell/basic_lstm_cell/MatMul/Enter_grad/Switch"
  attr {
    key: "T"
    value {
      type: DT_HALF
    }
  }
  attr {
    key: "_output_shapes"
    value {
      list {
        shape {
          dim {
            size: 1181
          }
          dim {
            size: 4096
          }
        }
      }
    }
  }
}
node {
  name: "Train/Model/gradients/Train/Model/LSTM/rnn/while/Switch_3_grad_1/NextIteration"
  op: "NextIteration"
  input: "Train/Model/gradients/Train/Model/LSTM/rnn/while/basic_lstm_cell/basic_lstm_cell/concat_grad/tuple/control_dependency_1"
  attr {
    key: "T"
    value {
      type: DT_HALF
    }
  }
  attr {
    key: "_output_shapes"
    value {
      list {
        shape {
          dim {
            size: 1024
          }
          dim {
            size: 1024
          }
        }
      }
    }
  }
}
node {
  name: "Train/Model/GradientDescent/update_Model/LSTM/rnn/basic_lstm_cell/weights/Cast"
  op: "Cast"
  input: "Train/Model/Variable/read"
  attr {
    key: "DstT"
    value {
      type: DT_HALF
    }
  }
  attr {
    key: "SrcT"
    value {
      type: DT_FLOAT
    }
  }
  attr {
    key: "_class"
    value {
      list {
        s: "loc:@Model/LSTM/rnn/basic_lstm_cell/weights"
      }
    }
  }
  attr {
    key: "_output_shapes"
    value {
      list {
        shape {
        }
      }
    }
  }
}
node {
  name: "Train/Model/GradientDescent/update_Model/LSTM/rnn/basic_lstm_cell/weights/ApplyGradientDescent"
  op: "ApplyGradientDescent"
  input: "Model/LSTM/rnn/basic_lstm_cell/weights"
  input: "Train/Model/GradientDescent/update_Model/LSTM/rnn/basic_lstm_cell/weights/Cast"
  input: "Train/Model/gradients/Train/Model/LSTM/rnn/while/basic_lstm_cell/basic_lstm_cell/MatMul/Enter_grad/b_acc_3"
  attr {
    key: "T"
    value {
      type: DT_HALF
    }
  }
  attr {
    key: "_class"
    value {
      list {
        s: "loc:@Model/LSTM/rnn/basic_lstm_cell/weights"
      }
    }
  }
  attr {
    key: "_output_shapes"
    value {
      list {
        shape {
          dim {
            size: 1181
          }
          dim {
            size: 4096
          }
        }
      }
    }
  }
  attr {
    key: "use_locking"
    value {
      b: false
    }
  }
}
node {
  name: "Train/Model/GradientDescent/update_Model/LSTM/rnn/basic_lstm_cell/biases/Cast"
  op: "Cast"
  input: "Train/Model/Variable/read"
  attr {
    key: "DstT"
    value {
      type: DT_HALF
    }
  }
  attr {
    key: "SrcT"
    value {
      type: DT_FLOAT
    }
  }
  attr {
    key: "_class"
    value {
      list {
        s: "loc:@Model/LSTM/rnn/basic_lstm_cell/biases"
      }
    }
  }
  attr {
    key: "_output_shapes"
    value {
      list {
        shape {
        }
      }
    }
  }
}
node {
  name: "Train/Model/GradientDescent/update_Model/LSTM/rnn/basic_lstm_cell/biases/ApplyGradientDescent"
  op: "ApplyGradientDescent"
  input: "Model/LSTM/rnn/basic_lstm_cell/biases"
  input: "Train/Model/GradientDescent/update_Model/LSTM/rnn/basic_lstm_cell/biases/Cast"
  input: "Train/Model/gradients/Train/Model/LSTM/rnn/while/basic_lstm_cell/BiasAdd/Enter_grad/b_acc_3"
  attr {
    key: "T"
    value {
      type: DT_HALF
    }
  }
  attr {
    key: "_class"
    value {
      list {
        s: "loc:@Model/LSTM/rnn/basic_lstm_cell/biases"
      }
    }
  }
  attr {
    key: "_output_shapes"
    value {
      list {
        shape {
          dim {
            size: 4096
          }
        }
      }
    }
  }
  attr {
    key: "use_locking"
    value {
      b: false
    }
  }
}
node {
  name: "Train/Model/GradientDescent/update_Model/LSTM/softmax_w/Cast"
  op: "Cast"
  input: "Train/Model/Variable/read"
  attr {
    key: "DstT"
    value {
      type: DT_HALF
    }
  }
  attr {
    key: "SrcT"
    value {
      type: DT_FLOAT
    }
  }
  attr {
    key: "_class"
    value {
      list {
        s: "loc:@Model/LSTM/softmax_w"
      }
    }
  }
  attr {
    key: "_output_shapes"
    value {
      list {
        shape {
        }
      }
    }
  }
}
node {
  name: "Train/Model/GradientDescent/update_Model/LSTM/softmax_w/ApplyGradientDescent"
  op: "ApplyGradientDescent"
  input: "Model/LSTM/softmax_w"
  input: "Train/Model/GradientDescent/update_Model/LSTM/softmax_w/Cast"
  input: "Train/Model/gradients/Train/Model/LSTM/MatMul_grad/tuple/control_dependency_1"
  attr {
    key: "T"
    value {
      type: DT_HALF
    }
  }
  attr {
    key: "_class"
    value {
      list {
        s: "loc:@Model/LSTM/softmax_w"
      }
    }
  }
  attr {
    key: "_output_shapes"
    value {
      list {
        shape {
          dim {
            size: 1024
          }
          dim {
            size: 157
          }
        }
      }
    }
  }
  attr {
    key: "use_locking"
    value {
      b: false
    }
  }
}
node {
  name: "Train/Model/GradientDescent/update_Model/LSTM/softmax_b/Cast"
  op: "Cast"
  input: "Train/Model/Variable/read"
  attr {
    key: "DstT"
    value {
      type: DT_HALF
    }
  }
  attr {
    key: "SrcT"
    value {
      type: DT_FLOAT
    }
  }
  attr {
    key: "_class"
    value {
      list {
        s: "loc:@Model/LSTM/softmax_b"
      }
    }
  }
  attr {
    key: "_output_shapes"
    value {
      list {
        shape {
        }
      }
    }
  }
}
node {
  name: "Train/Model/GradientDescent/update_Model/LSTM/softmax_b/ApplyGradientDescent"
  op: "ApplyGradientDescent"
  input: "Model/LSTM/softmax_b"
  input: "Train/Model/GradientDescent/update_Model/LSTM/softmax_b/Cast"
  input: "Train/Model/gradients/Train/Model/LSTM/add_grad/tuple/control_dependency_1"
  attr {
    key: "T"
    value {
      type: DT_HALF
    }
  }
  attr {
    key: "_class"
    value {
      list {
        s: "loc:@Model/LSTM/softmax_b"
      }
    }
  }
  attr {
    key: "_output_shapes"
    value {
      list {
        shape {
          dim {
            size: 157
          }
        }
      }
    }
  }
  attr {
    key: "use_locking"
    value {
      b: false
    }
  }
}
node {
  name: "Train/Model/GradientDescent"
  op: "NoOp"
  input: "^Train/Model/GradientDescent/update_Model/LSTM/rnn/basic_lstm_cell/weights/ApplyGradientDescent"
  input: "^Train/Model/GradientDescent/update_Model/LSTM/rnn/basic_lstm_cell/biases/ApplyGradientDescent"
  input: "^Train/Model/GradientDescent/update_Model/LSTM/softmax_w/ApplyGradientDescent"
  input: "^Train/Model/GradientDescent/update_Model/LSTM/softmax_b/ApplyGradientDescent"
}
node {
  name: "Train/Model/Training_Loss/tags"
  op: "Const"
  attr {
    key: "_output_shapes"
    value {
      list {
        shape {
        }
      }
    }
  }
  attr {
    key: "dtype"
    value {
      type: DT_STRING
    }
  }
  attr {
    key: "value"
    value {
      tensor {
        dtype: DT_STRING
        tensor_shape {
        }
        string_val: "Train/Model/Training_Loss"
      }
    }
  }
}
node {
  name: "Train/Model/Training_Loss"
  op: "ScalarSummary"
  input: "Train/Model/Training_Loss/tags"
  input: "Train/Model/LSTM/cost"
  attr {
    key: "T"
    value {
      type: DT_HALF
    }
  }
  attr {
    key: "_output_shapes"
    value {
      list {
        shape {
        }
      }
    }
  }
}
node {
  name: "Train/Model/Learning_Rate/tags"
  op: "Const"
  attr {
    key: "_output_shapes"
    value {
      list {
        shape {
        }
      }
    }
  }
  attr {
    key: "dtype"
    value {
      type: DT_STRING
    }
  }
  attr {
    key: "value"
    value {
      tensor {
        dtype: DT_STRING
        tensor_shape {
        }
        string_val: "Train/Model/Learning_Rate"
      }
    }
  }
}
node {
  name: "Train/Model/Learning_Rate"
  op: "ScalarSummary"
  input: "Train/Model/Learning_Rate/tags"
  input: "Train/Model/Variable/read"
  attr {
    key: "T"
    value {
      type: DT_FLOAT
    }
  }
  attr {
    key: "_output_shapes"
    value {
      list {
        shape {
        }
      }
    }
  }
}
node {
  name: "Train/Model/Merge/MergeSummary"
  op: "MergeSummary"
  input: "Train/Model/Training_Loss"
  input: "Train/Model/Learning_Rate"
  attr {
    key: "N"
    value {
      i: 2
    }
  }
  attr {
    key: "_output_shapes"
    value {
      list {
        shape {
        }
      }
    }
  }
}
node {
  name: "Train/Model/new_learning_rate"
  op: "Placeholder"
  attr {
    key: "_output_shapes"
    value {
      list {
        shape {
        }
      }
    }
  }
  attr {
    key: "dtype"
    value {
      type: DT_FLOAT
    }
  }
  attr {
    key: "shape"
    value {
      shape {
      }
    }
  }
}
node {
  name: "Train/Model/Assign"
  op: "Assign"
  input: "Train/Model/Variable"
  input: "Train/Model/new_learning_rate"
  attr {
    key: "T"
    value {
      type: DT_FLOAT
    }
  }
  attr {
    key: "_class"
    value {
      list {
        s: "loc:@Train/Model/Variable"
      }
    }
  }
  attr {
    key: "_output_shapes"
    value {
      list {
        shape {
        }
      }
    }
  }
  attr {
    key: "use_locking"
    value {
      b: true
    }
  }
  attr {
    key: "validate_shape"
    value {
      b: true
    }
  }
}
node {
  name: "report_uninitialized_variables/IsVariableInitialized"
  op: "IsVariableInitialized"
  input: "Model/LSTM/rnn/basic_lstm_cell/weights"
  attr {
    key: "_class"
    value {
      list {
        s: "loc:@Model/LSTM/rnn/basic_lstm_cell/weights"
      }
    }
  }
  attr {
    key: "_output_shapes"
    value {
      list {
        shape {
        }
      }
    }
  }
  attr {
    key: "dtype"
    value {
      type: DT_HALF
    }
  }
}
node {
  name: "report_uninitialized_variables/IsVariableInitialized_1"
  op: "IsVariableInitialized"
  input: "Model/LSTM/rnn/basic_lstm_cell/biases"
  attr {
    key: "_class"
    value {
      list {
        s: "loc:@Model/LSTM/rnn/basic_lstm_cell/biases"
      }
    }
  }
  attr {
    key: "_output_shapes"
    value {
      list {
        shape {
        }
      }
    }
  }
  attr {
    key: "dtype"
    value {
      type: DT_HALF
    }
  }
}
node {
  name: "report_uninitialized_variables/IsVariableInitialized_2"
  op: "IsVariableInitialized"
  input: "Model/LSTM/softmax_w"
  attr {
    key: "_class"
    value {
      list {
        s: "loc:@Model/LSTM/softmax_w"
      }
    }
  }
  attr {
    key: "_output_shapes"
    value {
      list {
        shape {
        }
      }
    }
  }
  attr {
    key: "dtype"
    value {
      type: DT_HALF
    }
  }
}
node {
  name: "report_uninitialized_variables/IsVariableInitialized_3"
  op: "IsVariableInitialized"
  input: "Model/LSTM/softmax_b"
  attr {
    key: "_class"
    value {
      list {
        s: "loc:@Model/LSTM/softmax_b"
      }
    }
  }
  attr {
    key: "_output_shapes"
    value {
      list {
        shape {
        }
      }
    }
  }
  attr {
    key: "dtype"
    value {
      type: DT_HALF
    }
  }
}
node {
  name: "report_uninitialized_variables/IsVariableInitialized_4"
  op: "IsVariableInitialized"
  input: "Train/Model/Variable"
  attr {
    key: "_class"
    value {
      list {
        s: "loc:@Train/Model/Variable"
      }
    }
  }
  attr {
    key: "_output_shapes"
    value {
      list {
        shape {
        }
      }
    }
  }
  attr {
    key: "dtype"
    value {
      type: DT_FLOAT
    }
  }
}
node {
  name: "report_uninitialized_variables/stack"
  op: "Pack"
  input: "report_uninitialized_variables/IsVariableInitialized"
  input: "report_uninitialized_variables/IsVariableInitialized_1"
  input: "report_uninitialized_variables/IsVariableInitialized_2"
  input: "report_uninitialized_variables/IsVariableInitialized_3"
  input: "report_uninitialized_variables/IsVariableInitialized_4"
  attr {
    key: "N"
    value {
      i: 5
    }
  }
  attr {
    key: "T"
    value {
      type: DT_BOOL
    }
  }
  attr {
    key: "_output_shapes"
    value {
      list {
        shape {
          dim {
            size: 5
          }
        }
      }
    }
  }
  attr {
    key: "axis"
    value {
      i: 0
    }
  }
}
node {
  name: "report_uninitialized_variables/LogicalNot"
  op: "LogicalNot"
  input: "report_uninitialized_variables/stack"
  attr {
    key: "_output_shapes"
    value {
      list {
        shape {
          dim {
            size: 5
          }
        }
      }
    }
  }
}
node {
  name: "report_uninitialized_variables/Const"
  op: "Const"
  attr {
    key: "_output_shapes"
    value {
      list {
        shape {
          dim {
            size: 5
          }
        }
      }
    }
  }
  attr {
    key: "dtype"
    value {
      type: DT_STRING
    }
  }
  attr {
    key: "value"
    value {
      tensor {
        dtype: DT_STRING
        tensor_shape {
          dim {
            size: 5
          }
        }
        string_val: "Model/LSTM/rnn/basic_lstm_cell/weights"
        string_val: "Model/LSTM/rnn/basic_lstm_cell/biases"
        string_val: "Model/LSTM/softmax_w"
        string_val: "Model/LSTM/softmax_b"
        string_val: "Train/Model/Variable"
      }
    }
  }
}
node {
  name: "report_uninitialized_variables/boolean_mask/Shape"
  op: "Const"
  attr {
    key: "_output_shapes"
    value {
      list {
        shape {
          dim {
            size: 1
          }
        }
      }
    }
  }
  attr {
    key: "dtype"
    value {
      type: DT_INT32
    }
  }
  attr {
    key: "value"
    value {
      tensor {
        dtype: DT_INT32
        tensor_shape {
          dim {
            size: 1
          }
        }
        int_val: 5
      }
    }
  }
}
node {
  name: "report_uninitialized_variables/boolean_mask/strided_slice/stack"
  op: "Const"
  attr {
    key: "_output_shapes"
    value {
      list {
        shape {
          dim {
            size: 1
          }
        }
      }
    }
  }
  attr {
    key: "dtype"
    value {
      type: DT_INT32
    }
  }
  attr {
    key: "value"
    value {
      tensor {
        dtype: DT_INT32
        tensor_shape {
          dim {
            size: 1
          }
        }
        int_val: 0
      }
    }
  }
}
node {
  name: "report_uninitialized_variables/boolean_mask/strided_slice/stack_1"
  op: "Const"
  attr {
    key: "_output_shapes"
    value {
      list {
        shape {
          dim {
            size: 1
          }
        }
      }
    }
  }
  attr {
    key: "dtype"
    value {
      type: DT_INT32
    }
  }
  attr {
    key: "value"
    value {
      tensor {
        dtype: DT_INT32
        tensor_shape {
          dim {
            size: 1
          }
        }
        int_val: 1
      }
    }
  }
}
node {
  name: "report_uninitialized_variables/boolean_mask/strided_slice/stack_2"
  op: "Const"
  attr {
    key: "_output_shapes"
    value {
      list {
        shape {
          dim {
            size: 1
          }
        }
      }
    }
  }
  attr {
    key: "dtype"
    value {
      type: DT_INT32
    }
  }
  attr {
    key: "value"
    value {
      tensor {
        dtype: DT_INT32
        tensor_shape {
          dim {
            size: 1
          }
        }
        int_val: 1
      }
    }
  }
}
node {
  name: "report_uninitialized_variables/boolean_mask/strided_slice"
  op: "StridedSlice"
  input: "report_uninitialized_variables/boolean_mask/Shape"
  input: "report_uninitialized_variables/boolean_mask/strided_slice/stack"
  input: "report_uninitialized_variables/boolean_mask/strided_slice/stack_1"
  input: "report_uninitialized_variables/boolean_mask/strided_slice/stack_2"
  attr {
    key: "Index"
    value {
      type: DT_INT32
    }
  }
  attr {
    key: "T"
    value {
      type: DT_INT32
    }
  }
  attr {
    key: "_output_shapes"
    value {
      list {
        shape {
          dim {
            size: 1
          }
        }
      }
    }
  }
  attr {
    key: "begin_mask"
    value {
      i: 1
    }
  }
  attr {
    key: "ellipsis_mask"
    value {
      i: 0
    }
  }
  attr {
    key: "end_mask"
    value {
      i: 0
    }
  }
  attr {
    key: "new_axis_mask"
    value {
      i: 0
    }
  }
  attr {
    key: "shrink_axis_mask"
    value {
      i: 0
    }
  }
}
node {
  name: "report_uninitialized_variables/boolean_mask/Prod/reduction_indices"
  op: "Const"
  attr {
    key: "_output_shapes"
    value {
      list {
        shape {
          dim {
            size: 1
          }
        }
      }
    }
  }
  attr {
    key: "dtype"
    value {
      type: DT_INT32
    }
  }
  attr {
    key: "value"
    value {
      tensor {
        dtype: DT_INT32
        tensor_shape {
          dim {
            size: 1
          }
        }
        int_val: 0
      }
    }
  }
}
node {
  name: "report_uninitialized_variables/boolean_mask/Prod"
  op: "Prod"
  input: "report_uninitialized_variables/boolean_mask/strided_slice"
  input: "report_uninitialized_variables/boolean_mask/Prod/reduction_indices"
  attr {
    key: "T"
    value {
      type: DT_INT32
    }
  }
  attr {
    key: "Tidx"
    value {
      type: DT_INT32
    }
  }
  attr {
    key: "_output_shapes"
    value {
      list {
        shape {
        }
      }
    }
  }
  attr {
    key: "keep_dims"
    value {
      b: false
    }
  }
}
node {
  name: "report_uninitialized_variables/boolean_mask/Shape_1"
  op: "Const"
  attr {
    key: "_output_shapes"
    value {
      list {
        shape {
          dim {
            size: 1
          }
        }
      }
    }
  }
  attr {
    key: "dtype"
    value {
      type: DT_INT32
    }
  }
  attr {
    key: "value"
    value {
      tensor {
        dtype: DT_INT32
        tensor_shape {
          dim {
            size: 1
          }
        }
        int_val: 5
      }
    }
  }
}
node {
  name: "report_uninitialized_variables/boolean_mask/strided_slice_1/stack"
  op: "Const"
  attr {
    key: "_output_shapes"
    value {
      list {
        shape {
          dim {
            size: 1
          }
        }
      }
    }
  }
  attr {
    key: "dtype"
    value {
      type: DT_INT32
    }
  }
  attr {
    key: "value"
    value {
      tensor {
        dtype: DT_INT32
        tensor_shape {
          dim {
            size: 1
          }
        }
        int_val: 1
      }
    }
  }
}
node {
  name: "report_uninitialized_variables/boolean_mask/strided_slice_1/stack_1"
  op: "Const"
  attr {
    key: "_output_shapes"
    value {
      list {
        shape {
          dim {
            size: 1
          }
        }
      }
    }
  }
  attr {
    key: "dtype"
    value {
      type: DT_INT32
    }
  }
  attr {
    key: "value"
    value {
      tensor {
        dtype: DT_INT32
        tensor_shape {
          dim {
            size: 1
          }
        }
        int_val: 0
      }
    }
  }
}
node {
  name: "report_uninitialized_variables/boolean_mask/strided_slice_1/stack_2"
  op: "Const"
  attr {
    key: "_output_shapes"
    value {
      list {
        shape {
          dim {
            size: 1
          }
        }
      }
    }
  }
  attr {
    key: "dtype"
    value {
      type: DT_INT32
    }
  }
  attr {
    key: "value"
    value {
      tensor {
        dtype: DT_INT32
        tensor_shape {
          dim {
            size: 1
          }
        }
        int_val: 1
      }
    }
  }
}
node {
  name: "report_uninitialized_variables/boolean_mask/strided_slice_1"
  op: "StridedSlice"
  input: "report_uninitialized_variables/boolean_mask/Shape_1"
  input: "report_uninitialized_variables/boolean_mask/strided_slice_1/stack"
  input: "report_uninitialized_variables/boolean_mask/strided_slice_1/stack_1"
  input: "report_uninitialized_variables/boolean_mask/strided_slice_1/stack_2"
  attr {
    key: "Index"
    value {
      type: DT_INT32
    }
  }
  attr {
    key: "T"
    value {
      type: DT_INT32
    }
  }
  attr {
    key: "_output_shapes"
    value {
      list {
        shape {
          dim {
          }
        }
      }
    }
  }
  attr {
    key: "begin_mask"
    value {
      i: 0
    }
  }
  attr {
    key: "ellipsis_mask"
    value {
      i: 0
    }
  }
  attr {
    key: "end_mask"
    value {
      i: 1
    }
  }
  attr {
    key: "new_axis_mask"
    value {
      i: 0
    }
  }
  attr {
    key: "shrink_axis_mask"
    value {
      i: 0
    }
  }
}
node {
  name: "report_uninitialized_variables/boolean_mask/concat/values_0"
  op: "Pack"
  input: "report_uninitialized_variables/boolean_mask/Prod"
  attr {
    key: "N"
    value {
      i: 1
    }
  }
  attr {
    key: "T"
    value {
      type: DT_INT32
    }
  }
  attr {
    key: "_output_shapes"
    value {
      list {
        shape {
          dim {
            size: 1
          }
        }
      }
    }
  }
  attr {
    key: "axis"
    value {
      i: 0
    }
  }
}
node {
  name: "report_uninitialized_variables/boolean_mask/concat/axis"
  op: "Const"
  attr {
    key: "_output_shapes"
    value {
      list {
        shape {
        }
      }
    }
  }
  attr {
    key: "dtype"
    value {
      type: DT_INT32
    }
  }
  attr {
    key: "value"
    value {
      tensor {
        dtype: DT_INT32
        tensor_shape {
        }
        int_val: 0
      }
    }
  }
}
node {
  name: "report_uninitialized_variables/boolean_mask/concat"
  op: "ConcatV2"
  input: "report_uninitialized_variables/boolean_mask/concat/values_0"
  input: "report_uninitialized_variables/boolean_mask/strided_slice_1"
  input: "report_uninitialized_variables/boolean_mask/concat/axis"
  attr {
    key: "N"
    value {
      i: 2
    }
  }
  attr {
    key: "T"
    value {
      type: DT_INT32
    }
  }
  attr {
    key: "Tidx"
    value {
      type: DT_INT32
    }
  }
  attr {
    key: "_output_shapes"
    value {
      list {
        shape {
          dim {
            size: 1
          }
        }
      }
    }
  }
}
node {
  name: "report_uninitialized_variables/boolean_mask/Reshape"
  op: "Reshape"
  input: "report_uninitialized_variables/Const"
  input: "report_uninitialized_variables/boolean_mask/concat"
  attr {
    key: "T"
    value {
      type: DT_STRING
    }
  }
  attr {
    key: "Tshape"
    value {
      type: DT_INT32
    }
  }
  attr {
    key: "_output_shapes"
    value {
      list {
        shape {
          dim {
            size: 5
          }
        }
      }
    }
  }
}
node {
  name: "report_uninitialized_variables/boolean_mask/Reshape_1/shape"
  op: "Const"
  attr {
    key: "_output_shapes"
    value {
      list {
        shape {
          dim {
            size: 1
          }
        }
      }
    }
  }
  attr {
    key: "dtype"
    value {
      type: DT_INT32
    }
  }
  attr {
    key: "value"
    value {
      tensor {
        dtype: DT_INT32
        tensor_shape {
          dim {
            size: 1
          }
        }
        int_val: -1
      }
    }
  }
}
node {
  name: "report_uninitialized_variables/boolean_mask/Reshape_1"
  op: "Reshape"
  input: "report_uninitialized_variables/LogicalNot"
  input: "report_uninitialized_variables/boolean_mask/Reshape_1/shape"
  attr {
    key: "T"
    value {
      type: DT_BOOL
    }
  }
  attr {
    key: "Tshape"
    value {
      type: DT_INT32
    }
  }
  attr {
    key: "_output_shapes"
    value {
      list {
        shape {
          dim {
            size: 5
          }
        }
      }
    }
  }
}
node {
  name: "report_uninitialized_variables/boolean_mask/Where"
  op: "Where"
  input: "report_uninitialized_variables/boolean_mask/Reshape_1"
  attr {
    key: "_output_shapes"
    value {
      list {
        shape {
          dim {
            size: -1
          }
          dim {
            size: 1
          }
        }
      }
    }
  }
}
node {
  name: "report_uninitialized_variables/boolean_mask/Squeeze"
  op: "Squeeze"
  input: "report_uninitialized_variables/boolean_mask/Where"
  attr {
    key: "T"
    value {
      type: DT_INT64
    }
  }
  attr {
    key: "_output_shapes"
    value {
      list {
        shape {
          dim {
            size: -1
          }
        }
      }
    }
  }
  attr {
    key: "squeeze_dims"
    value {
      list {
        i: 1
      }
    }
  }
}
node {
  name: "report_uninitialized_variables/boolean_mask/Gather"
  op: "Gather"
  input: "report_uninitialized_variables/boolean_mask/Reshape"
  input: "report_uninitialized_variables/boolean_mask/Squeeze"
  attr {
    key: "Tindices"
    value {
      type: DT_INT64
    }
  }
  attr {
    key: "Tparams"
    value {
      type: DT_STRING
    }
  }
  attr {
    key: "_output_shapes"
    value {
      list {
        shape {
          dim {
            size: -1
          }
        }
      }
    }
  }
  attr {
    key: "validate_indices"
    value {
      b: true
    }
  }
}
node {
  name: "init"
  op: "NoOp"
  input: "^Model/LSTM/rnn/basic_lstm_cell/weights/Assign"
  input: "^Model/LSTM/rnn/basic_lstm_cell/biases/Assign"
  input: "^Model/LSTM/softmax_w/Assign"
  input: "^Model/LSTM/softmax_b/Assign"
  input: "^Train/Model/Variable/Assign"
}
node {
  name: "init_1"
  op: "NoOp"
}
node {
  name: "init_all_tables"
  op: "NoOp"
}
node {
  name: "group_deps"
  op: "NoOp"
  input: "^init_1"
  input: "^init_all_tables"
}
node {
  name: "save/Const"
  op: "Const"
  attr {
    key: "_output_shapes"
    value {
      list {
        shape {
        }
      }
    }
  }
  attr {
    key: "dtype"
    value {
      type: DT_STRING
    }
  }
  attr {
    key: "value"
    value {
      tensor {
        dtype: DT_STRING
        tensor_shape {
        }
        string_val: "model"
      }
    }
  }
}
node {
  name: "save/SaveV2/tensor_names"
  op: "Const"
  attr {
    key: "_output_shapes"
    value {
      list {
        shape {
          dim {
            size: 5
          }
        }
      }
    }
  }
  attr {
    key: "dtype"
    value {
      type: DT_STRING
    }
  }
  attr {
    key: "value"
    value {
      tensor {
        dtype: DT_STRING
        tensor_shape {
          dim {
            size: 5
          }
        }
        string_val: "Model/LSTM/rnn/basic_lstm_cell/biases"
        string_val: "Model/LSTM/rnn/basic_lstm_cell/weights"
        string_val: "Model/LSTM/softmax_b"
        string_val: "Model/LSTM/softmax_w"
        string_val: "Train/Model/Variable"
      }
    }
  }
}
node {
  name: "save/SaveV2/shape_and_slices"
  op: "Const"
  attr {
    key: "_output_shapes"
    value {
      list {
        shape {
          dim {
            size: 5
          }
        }
      }
    }
  }
  attr {
    key: "dtype"
    value {
      type: DT_STRING
    }
  }
  attr {
    key: "value"
    value {
      tensor {
        dtype: DT_STRING
        tensor_shape {
          dim {
            size: 5
          }
        }
        string_val: ""
        string_val: ""
        string_val: ""
        string_val: ""
        string_val: ""
      }
    }
  }
}
node {
  name: "save/SaveV2"
  op: "SaveV2"
  input: "save/Const"
  input: "save/SaveV2/tensor_names"
  input: "save/SaveV2/shape_and_slices"
  input: "Model/LSTM/rnn/basic_lstm_cell/biases"
  input: "Model/LSTM/rnn/basic_lstm_cell/weights"
  input: "Model/LSTM/softmax_b"
  input: "Model/LSTM/softmax_w"
  input: "Train/Model/Variable"
  attr {
    key: "dtypes"
    value {
      list {
        type: DT_HALF
        type: DT_HALF
        type: DT_HALF
        type: DT_HALF
        type: DT_FLOAT
      }
    }
  }
}
node {
  name: "save/control_dependency"
  op: "Identity"
  input: "save/Const"
  input: "^save/SaveV2"
  attr {
    key: "T"
    value {
      type: DT_STRING
    }
  }
  attr {
    key: "_class"
    value {
      list {
        s: "loc:@save/Const"
      }
    }
  }
  attr {
    key: "_output_shapes"
    value {
      list {
        shape {
        }
      }
    }
  }
}
node {
  name: "save/RestoreV2/tensor_names"
  op: "Const"
  attr {
    key: "_output_shapes"
    value {
      list {
        shape {
          dim {
            size: 1
          }
        }
      }
    }
  }
  attr {
    key: "dtype"
    value {
      type: DT_STRING
    }
  }
  attr {
    key: "value"
    value {
      tensor {
        dtype: DT_STRING
        tensor_shape {
          dim {
            size: 1
          }
        }
        string_val: "Model/LSTM/rnn/basic_lstm_cell/biases"
      }
    }
  }
}
node {
  name: "save/RestoreV2/shape_and_slices"
  op: "Const"
  attr {
    key: "_output_shapes"
    value {
      list {
        shape {
          dim {
            size: 1
          }
        }
      }
    }
  }
  attr {
    key: "dtype"
    value {
      type: DT_STRING
    }
  }
  attr {
    key: "value"
    value {
      tensor {
        dtype: DT_STRING
        tensor_shape {
          dim {
            size: 1
          }
        }
        string_val: ""
      }
    }
  }
}
node {
  name: "save/RestoreV2"
  op: "RestoreV2"
  input: "save/Const"
  input: "save/RestoreV2/tensor_names"
  input: "save/RestoreV2/shape_and_slices"
  attr {
    key: "_output_shapes"
    value {
      list {
        shape {
          unknown_rank: true
        }
      }
    }
  }
  attr {
    key: "dtypes"
    value {
      list {
        type: DT_HALF
      }
    }
  }
}
node {
  name: "save/Assign"
  op: "Assign"
  input: "Model/LSTM/rnn/basic_lstm_cell/biases"
  input: "save/RestoreV2"
  attr {
    key: "T"
    value {
      type: DT_HALF
    }
  }
  attr {
    key: "_class"
    value {
      list {
        s: "loc:@Model/LSTM/rnn/basic_lstm_cell/biases"
      }
    }
  }
  attr {
    key: "_output_shapes"
    value {
      list {
        shape {
          dim {
            size: 4096
          }
        }
      }
    }
  }
  attr {
    key: "use_locking"
    value {
      b: true
    }
  }
  attr {
    key: "validate_shape"
    value {
      b: true
    }
  }
}
node {
  name: "save/RestoreV2_1/tensor_names"
  op: "Const"
  attr {
    key: "_output_shapes"
    value {
      list {
        shape {
          dim {
            size: 1
          }
        }
      }
    }
  }
  attr {
    key: "dtype"
    value {
      type: DT_STRING
    }
  }
  attr {
    key: "value"
    value {
      tensor {
        dtype: DT_STRING
        tensor_shape {
          dim {
            size: 1
          }
        }
        string_val: "Model/LSTM/rnn/basic_lstm_cell/weights"
      }
    }
  }
}
node {
  name: "save/RestoreV2_1/shape_and_slices"
  op: "Const"
  attr {
    key: "_output_shapes"
    value {
      list {
        shape {
          dim {
            size: 1
          }
        }
      }
    }
  }
  attr {
    key: "dtype"
    value {
      type: DT_STRING
    }
  }
  attr {
    key: "value"
    value {
      tensor {
        dtype: DT_STRING
        tensor_shape {
          dim {
            size: 1
          }
        }
        string_val: ""
      }
    }
  }
}
node {
  name: "save/RestoreV2_1"
  op: "RestoreV2"
  input: "save/Const"
  input: "save/RestoreV2_1/tensor_names"
  input: "save/RestoreV2_1/shape_and_slices"
  attr {
    key: "_output_shapes"
    value {
      list {
        shape {
          unknown_rank: true
        }
      }
    }
  }
  attr {
    key: "dtypes"
    value {
      list {
        type: DT_HALF
      }
    }
  }
}
node {
  name: "save/Assign_1"
  op: "Assign"
  input: "Model/LSTM/rnn/basic_lstm_cell/weights"
  input: "save/RestoreV2_1"
  attr {
    key: "T"
    value {
      type: DT_HALF
    }
  }
  attr {
    key: "_class"
    value {
      list {
        s: "loc:@Model/LSTM/rnn/basic_lstm_cell/weights"
      }
    }
  }
  attr {
    key: "_output_shapes"
    value {
      list {
        shape {
          dim {
            size: 1181
          }
          dim {
            size: 4096
          }
        }
      }
    }
  }
  attr {
    key: "use_locking"
    value {
      b: true
    }
  }
  attr {
    key: "validate_shape"
    value {
      b: true
    }
  }
}
node {
  name: "save/RestoreV2_2/tensor_names"
  op: "Const"
  attr {
    key: "_output_shapes"
    value {
      list {
        shape {
          dim {
            size: 1
          }
        }
      }
    }
  }
  attr {
    key: "dtype"
    value {
      type: DT_STRING
    }
  }
  attr {
    key: "value"
    value {
      tensor {
        dtype: DT_STRING
        tensor_shape {
          dim {
            size: 1
          }
        }
        string_val: "Model/LSTM/softmax_b"
      }
    }
  }
}
node {
  name: "save/RestoreV2_2/shape_and_slices"
  op: "Const"
  attr {
    key: "_output_shapes"
    value {
      list {
        shape {
          dim {
            size: 1
          }
        }
      }
    }
  }
  attr {
    key: "dtype"
    value {
      type: DT_STRING
    }
  }
  attr {
    key: "value"
    value {
      tensor {
        dtype: DT_STRING
        tensor_shape {
          dim {
            size: 1
          }
        }
        string_val: ""
      }
    }
  }
}
node {
  name: "save/RestoreV2_2"
  op: "RestoreV2"
  input: "save/Const"
  input: "save/RestoreV2_2/tensor_names"
  input: "save/RestoreV2_2/shape_and_slices"
  attr {
    key: "_output_shapes"
    value {
      list {
        shape {
          unknown_rank: true
        }
      }
    }
  }
  attr {
    key: "dtypes"
    value {
      list {
        type: DT_HALF
      }
    }
  }
}
node {
  name: "save/Assign_2"
  op: "Assign"
  input: "Model/LSTM/softmax_b"
  input: "save/RestoreV2_2"
  attr {
    key: "T"
    value {
      type: DT_HALF
    }
  }
  attr {
    key: "_class"
    value {
      list {
        s: "loc:@Model/LSTM/softmax_b"
      }
    }
  }
  attr {
    key: "_output_shapes"
    value {
      list {
        shape {
          dim {
            size: 157
          }
        }
      }
    }
  }
  attr {
    key: "use_locking"
    value {
      b: true
    }
  }
  attr {
    key: "validate_shape"
    value {
      b: true
    }
  }
}
node {
  name: "save/RestoreV2_3/tensor_names"
  op: "Const"
  attr {
    key: "_output_shapes"
    value {
      list {
        shape {
          dim {
            size: 1
          }
        }
      }
    }
  }
  attr {
    key: "dtype"
    value {
      type: DT_STRING
    }
  }
  attr {
    key: "value"
    value {
      tensor {
        dtype: DT_STRING
        tensor_shape {
          dim {
            size: 1
          }
        }
        string_val: "Model/LSTM/softmax_w"
      }
    }
  }
}
node {
  name: "save/RestoreV2_3/shape_and_slices"
  op: "Const"
  attr {
    key: "_output_shapes"
    value {
      list {
        shape {
          dim {
            size: 1
          }
        }
      }
    }
  }
  attr {
    key: "dtype"
    value {
      type: DT_STRING
    }
  }
  attr {
    key: "value"
    value {
      tensor {
        dtype: DT_STRING
        tensor_shape {
          dim {
            size: 1
          }
        }
        string_val: ""
      }
    }
  }
}
node {
  name: "save/RestoreV2_3"
  op: "RestoreV2"
  input: "save/Const"
  input: "save/RestoreV2_3/tensor_names"
  input: "save/RestoreV2_3/shape_and_slices"
  attr {
    key: "_output_shapes"
    value {
      list {
        shape {
          unknown_rank: true
        }
      }
    }
  }
  attr {
    key: "dtypes"
    value {
      list {
        type: DT_HALF
      }
    }
  }
}
node {
  name: "save/Assign_3"
  op: "Assign"
  input: "Model/LSTM/softmax_w"
  input: "save/RestoreV2_3"
  attr {
    key: "T"
    value {
      type: DT_HALF
    }
  }
  attr {
    key: "_class"
    value {
      list {
        s: "loc:@Model/LSTM/softmax_w"
      }
    }
  }
  attr {
    key: "_output_shapes"
    value {
      list {
        shape {
          dim {
            size: 1024
          }
          dim {
            size: 157
          }
        }
      }
    }
  }
  attr {
    key: "use_locking"
    value {
      b: true
    }
  }
  attr {
    key: "validate_shape"
    value {
      b: true
    }
  }
}
node {
  name: "save/RestoreV2_4/tensor_names"
  op: "Const"
  attr {
    key: "_output_shapes"
    value {
      list {
        shape {
          dim {
            size: 1
          }
        }
      }
    }
  }
  attr {
    key: "dtype"
    value {
      type: DT_STRING
    }
  }
  attr {
    key: "value"
    value {
      tensor {
        dtype: DT_STRING
        tensor_shape {
          dim {
            size: 1
          }
        }
        string_val: "Train/Model/Variable"
      }
    }
  }
}
node {
  name: "save/RestoreV2_4/shape_and_slices"
  op: "Const"
  attr {
    key: "_output_shapes"
    value {
      list {
        shape {
          dim {
            size: 1
          }
        }
      }
    }
  }
  attr {
    key: "dtype"
    value {
      type: DT_STRING
    }
  }
  attr {
    key: "value"
    value {
      tensor {
        dtype: DT_STRING
        tensor_shape {
          dim {
            size: 1
          }
        }
        string_val: ""
      }
    }
  }
}
node {
  name: "save/RestoreV2_4"
  op: "RestoreV2"
  input: "save/Const"
  input: "save/RestoreV2_4/tensor_names"
  input: "save/RestoreV2_4/shape_and_slices"
  attr {
    key: "_output_shapes"
    value {
      list {
        shape {
          unknown_rank: true
        }
      }
    }
  }
  attr {
    key: "dtypes"
    value {
      list {
        type: DT_FLOAT
      }
    }
  }
}
node {
  name: "save/Assign_4"
  op: "Assign"
  input: "Train/Model/Variable"
  input: "save/RestoreV2_4"
  attr {
    key: "T"
    value {
      type: DT_FLOAT
    }
  }
  attr {
    key: "_class"
    value {
      list {
        s: "loc:@Train/Model/Variable"
      }
    }
  }
  attr {
    key: "_output_shapes"
    value {
      list {
        shape {
        }
      }
    }
  }
  attr {
    key: "use_locking"
    value {
      b: true
    }
  }
  attr {
    key: "validate_shape"
    value {
      b: true
    }
  }
}
node {
  name: "save/restore_all"
  op: "NoOp"
  input: "^save/Assign"
  input: "^save/Assign_1"
  input: "^save/Assign_2"
  input: "^save/Assign_3"
  input: "^save/Assign_4"
}
versions {
  producer: 21
}
